data/checkpoints/BINCTABL/BTC_seq_size_10_horizon_10_seed_42/pt/val_loss=0.809_epoch=2.pt (torch, 167569 bytes, 42 tensors)

model.BiN.B1 f4 [10, 1]
00000000: c58a 393d 0a75 11be f060 a5bd ad2c fabd
00000010: fc8c 5cbd c2a6 5ebd 3d15 763e 6cd8 5dbd
00000020: 29a0 183d 7cb9 b33d
0.045298357 -0.14204803 -0.0807513 -0.122155525 -0.05384539 -0.05435825 0.2403154 -0.054161474
0.037262116 0.08775613

model.BiN.l1 f4 [10, 1]
00000000: 5163 3b3e 5262 93be 3b56 a1be fd0a f1be
00000010: 5326 fcbe 5bae d0be 1bf2 883f 711a 12be
00000020: c95b 9ebe c007 733e
0.18299605 -0.2878595 -0.315111 -0.47078696 -0.4924799 -0.40758023 1.0698885 -0.14267899
-0.30929402 0.23733425

model.BiN.B2 f4 [40, 1]
00000000: 9d5e 3e3d ee9b cd3d 499a 433c 49ce 703d
00000010: 2649 be3d 6450 1fbd 84d4 0d3d 9b31 b3bc
00000020: aeea ba3d ff0b 053d b123 b53c 91ae faba
00000030: e418 96bb 0ad7 903b bc46 97bd 37cc a339
00000040: 2080 433e 8eb1 01bc 6bc7 d0bd e7ba efbc
00000050: bbae 823c 592c 0bbc a3ac 343c e750 9fbc
00000060: c3f4 8ebd 73e6 833c b62f 1bbc a4b8 25bc
00000070: 064b 80bd e7af 943a accc 0b3d df64 eb3b
00000080: 9b42 3bbd 3b72 c03b 9273 08bc e7c7 1f3c
00000090: b168 93bb 98b8 33b9 45da 70bc fcfa 773c
0.04647695 0.10039507 0.01193864 0.05879048 0.09291296 -0.038895026 0.0346265 -0.02187424
0.09126793 0.032482143 0.022111746 -0.0019125511 -0.004580604 0.004420166 -0.073865384 0.00031241935
0.19091845 -0.0079158675 -0.10194286 -0.029263927 0.015952459 -0.00849446 0.011027488 -0.019447757
-0.06980278 0.016101098 -0.009471824 -0.010114823 -0.062643096 0.0011343927 0.034130737 0.0071836556
-0.045717817 0.0058729923 -0.008328335 0.00975225 -0.004498564 -0.00017139537 -0.014700477 0.015135523

model.BiN.l2 f4 [40, 1]
00000000: 9144 5fbf 7049 823e df4d 523f dbb9 953e
00000010: 1e41 983e 3ac5 b8be 5a39 c7be a011 1b3e
00000020: 52ac 58bf 9868 fb3d c416 8fbe ab36 343e
00000030: 90ea b03e 4e33 243e 7785 cf3e aeb9 233e
00000040: 2fc2 bc3e 3c20 023e 7d2f c9bd 145b e2bd
00000050: 4470 d8bd 0955 d43d 97c9 903e 81be 153e
00000060: 3e97 c13c 2da3 ed3d 4420 353e dc39 de3d
00000070: 41df e63e 2688 113e ec40 523f f53c 553d
00000080: 7d1d 563f bf98 803d 2fa3 23be a347 c33d
00000090: 3bb5 18bf fe9f 353d 37b0 193f 8b81 733d
-0.87214 0.25446653 0.8215007 0.2924336 0.2973718 -0.36087972 -0.38910943 0.15143442
-0.8463794 0.12275809 -0.27947056 0.17598979 0.34553957 0.16035196 0.40531513 0.159888
0.368669 0.12707609 -0.09823511 -0.11052528 -0.10568288 0.10367782 0.282788 0.14623453
0.023631688 0.11603389 0.1768809 0.108508795 0.45092204 0.14212093 0.8213031 0.052060086
0.83638746 0.06279134 -0.15980218 0.09535148 -0.59651536 0.044342034 0.6003451 0.059449714

model.BL.W1 f4 [60, 40]
00000000: f9ef d3bd a164 b93d fdd9 bcbb b91a bcbb
00000010: 5716 48be ebd5 31be da00 a33e 36c6 04be
00000020: cc2a a33d 5649 ba3e 137c 943e b95e d1bd
00000030: 9063 6ebe 3f3d 833e 1731 81be 3e4d 12be
00000040: bf38 0b3d 3766 433e fa80 04be c8bc 46bd
00000050: 617c 133e 21cb 463e f4df 41be 314f 81be
00000060: a67a 2cbe ba64 0d3e 50da 25be f636 4cbe
00000070: d432 0abe 4e6d 61bd 4289 11be 2a25 fabd
00000080: 338f fbbd 7693 213d 8bb9 dd3d fd8e 7cbe
00000090: d85f 13bb 20c8 ad3d 9a86 10be cb28 1bbe
000000a0: 2b3c 81be 45a1 cebd fd6c 503d 63ea 0bbe
000000b0: 66fc 6a3d a48c 17bd aee9 19be 8dd3 503e
000000c0: e27a 7bbe 03fb 39be 8083 b1be 5ad6 383e
000000d0: db65 343e 7448 0bbe f764 453e 0b4b 103e
000000e0: f625 0bbe dcf9 98bb e279 27be a316 82be
000000f0: 2b1c acbe 31e6 74be 6874 253d 158f f0bd
00000100: e29d 343d 9bab 0ebe 7999 b73d 7141 983d
00000110: 22ac 1bbc 7404 353c 6662 823d 0ee8 d23b
00000120: 548d 2a3e a64f 37bc bdde 34bd 3645 f6bd
00000130: 2ac5 c9bd 913a 97bd e264 a93d 708e ba3c
00000140: 1fb8 84bd d21d bc3d 8395 4d3e 65db 0bbf
00000150: 472d e83d 21b6 16be 367d 92bd d5dc f8be
00000160: 78de c23d f322 c23e e28f 4b3c d603 b7be
00000170: 51df b2bd d476 623e a6c9 d2bd c32f 86be
00000180: 767a d83c 2719 e33e e184 22be e02f 513e
00000190: e03a bcbd d923 ac3e daaf 593d f770 eebe
000001a0: 820c c33b f31f b73e f5a5 abbd 4c6b 9dbe
000001b0: 4ce1 92bd adb5 5c3e fc19 b9bb ace0 b9be
000001c0: d11c f9bd c0e5 863d 2882 97bd 8f32 81be
000001d0: 5e5a d13d 4cd5 c83e 7b05 7dbd 6fcd 12be
000001e0: 2d81 62be 40ef 583b d564 303e 368f 323c
000001f0: 1490 5cbe 7464 7e3d dc7b 5cbe 3b20 bdbc
00000200: 4228 823e 3eda 6bbc bcb7 99be 85b5 00bd
00000210: c5ca a7be e808 3fbd 05bd 093f 618f 59bd
00000220: 48f4 d2be a1a2 09bd 4a6c 37bc 56da ae3d
00000230: 603d 143e 9b4c 083d bdb5 a83e ca2d 5abc
00000240: 9493 21be b16a 283d a933 353e 4f40 4c3c
00000250: d34e 07bf a7c2 71bc 4353 053f cdee 2d3d
00000260: a0bb 01bf 883a 843c 15a4 98be f531 463c
00000270: 410f 113f fbe8 633d 4c9a 003f fed9 643b
00000280: 33d7 493e ec89 3fbe f8e9 dfbe 659a 8fbe
00000290: 972f 98be d0a0 ae3c c025 243e b694 82be
000002a0: 7455 503d 83a1 423e 0719 20bd cbf3 87be
000002b0: 241d 67be b41f 1b3e 2232 89be 2498 a7bd
000002c0: 3214 a7be 0110 54bd 722e e73d 5101 b63d
000002d0: fa99 0d3e d3eb d33d 51ac a9bc da2c 953c
000002e0: 34f7 093e d402 e0bc 1831 e43c 22e8 d1bc
000002f0: 3478 a13c a4de c63d 1f1f b9bd 7861 dc3c
00000300: a0df e6bb 5d39 903d f617 1b3e cef9 56bd
00000310: 90df d53d 4e6d 233e e93e 8fbd 46ec ddbd
00000320: 2757 e3be a368 733e ff70 c13e c872 9dbe
00000330: 5978 c4bc c9d2 2ebe 66e4 40be 0fa6 84be
00000340: e903 cdbd 04ec 81ba 6a6e 923d 23c1 8e3d
00000350: abfd 653e 918f 1bbe 2e4f df3c 3f34 6b3b
00000360: e45b 49be 08f6 d7bd 58d7 913e e123 10be
00000370: a32a 7abd f0ab 3fbe 3380 96bd 5608 1dbd
00000380: 9395 d83d fee4 77be 3ee7 e5bd e67d 663d
00000390: 3ae7 c1be 817b 17bc ccdb 4fbe 5abf 193e
000003a0: b729 adbe c70c d83c 5dca 873e fd74 833e
000003b0: d767 4e3e 31d6 253e b34f 373e 3b51 a43e
000003c0: d048 573d 6fda 2d3f cfa7 203d 2f36 903d
000003d0: 58fa 35be c0be 59bc e911 ff3d c942 0f3d
000003e0: 1ce2 34be 1a20 fbbd 8903 463c 10f2 bfbe
000003f0: 55cd aabd 9cfd 813d 836d 233e 0c45 97be
-0.103485055 0.090523966 -0.005763291 -0.0057404903 -0.19539772 -0.1736676 0.31836587 -0.12966236
0.07967147 0.36384076 0.2900091 -0.10223145 -0.23280168 0.25632665 -0.25232765 -0.14287278
0.033989664 0.1908196 -0.12939826 -0.04851988 0.14402916 0.19413425 -0.18933088 -0.2525573
-0.16843662 0.13807955 -0.16196561 -0.19942841 -0.13495952 -0.05503588 -0.14212516 -0.1221412
-0.122831725 0.03944727 0.10826405 -0.2466392 -0.0022487547 0.084854364 -0.14113846 -0.1515228
-0.25241217 -0.100893535 0.05088519 -0.1366363 0.057369612 -0.03699936 -0.15030548 0.203932
-0.24558595 -0.1816216 -0.3467064 0.18050519 0.1761698 -0.13601857 0.19276796 0.14091127
-0.135887 -0.0046684574 -0.16355088 -0.25407895 -0.3361524 -0.23915936 0.040394217 -0.11746041
0.04409588 -0.1393265 0.089648195 0.07434357 -0.009501489 0.011048425 0.06366424 0.0064363545
0.16655475 -0.011188423 -0.044157732 -0.1202492 -0.09852059 -0.073842175 0.08271195 0.022772998
-0.06480431 0.09185375 0.20076565 -0.54631644 0.11336761 -0.14717914 -0.07152788 -0.4860598
0.09515089 0.3791729 0.012424441 -0.35745114 -0.087340005 0.22115642 -0.10292368 -0.26208314
0.026425581 0.44355127 -0.15871002 0.20428419 -0.09190917 0.336211 0.05314622 -0.4657056
0.005952419 0.35766563 -0.08381263 -0.30745924 -0.07171878 0.21553679 -0.0056488495 -0.36304224
-0.121636994 0.0658679 -0.07397872 -0.25233886 0.10222314 0.39225233 -0.061772805 -0.14336179
-0.22119589 0.0033101588 0.17225964 0.010898402 -0.21539336 0.06210752 -0.21531624 -0.023086658
0.2542134 -0.014395295 -0.3002299 -0.03142311 -0.32771888 -0.046639353 0.53804046 -0.053115252
-0.41201997 -0.03360236 -0.011195252 0.08537738 0.14476538 0.03327618 0.32951155 -0.013316581
-0.15778953 0.041117374 0.17695488 0.012466504 -0.5285465 -0.014755881 0.5208017 0.042464066
-0.5067692 0.016141191 -0.29812685 0.012096872 0.566639 0.05564211 0.5023544 0.0034919973
0.19710998 -0.18704957 -0.43733191 -0.2804748 -0.29723808 0.021316916 0.16030025 -0.25504082
0.050862744 0.19006924 -0.039086368 -0.26553187 -0.2256971 0.15148813 -0.2679606 -0.081833154
-0.32632595 -0.051773075 0.112881556 0.0888697 0.13828269 0.10347714 -0.02071205 0.018209863
0.13473207 -0.027345099 0.027855441 -0.025623385 0.019710638 0.09710434 -0.09039139 0.026901945
-0.007045701 0.07042191 0.15145859 -0.052484326 0.10443032 0.15959665 -0.06994421 -0.10836081
-0.4440243 0.23770384 0.37781522 -0.30751634 -0.023983167 -0.17072596 -0.18837127 -0.25907943
-0.100105114 -0.0009912257 0.07149966 0.06970432 0.22460048 -0.15191485 0.027259436 0.0035889295
-0.1966396 -0.105449736 0.28484607 -0.14076187 -0.061075818 -0.18717933 -0.07348671 -0.038338028
0.10575404 -0.24208447 -0.112257466 0.05627241 -0.37871724 -0.009245754 -0.2029869 0.15014401
-0.33820888 0.02637328 0.26521578 0.25675192 0.201568 0.16194989 0.17901497 0.32093224
0.052559674 0.6791143 0.039222535 0.07041585 -0.1777128 -0.013290107 0.12454588 0.0349758
-0.17664379 -0.12261982 0.012085804 -0.37489367 -0.08339945 0.063472 0.15959744 -0.29544866

model.BL.W2 f4 [10, 10]
00000000: f093 403f 9186 223f b804 c13d 1ca4 ddbe
00000010: 1671 6cbe 904f d0be b4fc 9e3d 0de6 07be
00000020: 4862 77be 3f70 9cbe 34de a9bd efbb c93e
00000030: 6cee 193e fdcd b03d 755b 43bf 7752 e83e
00000040: 4e96 f63d 0444 10bd 3625 49be 3090 acbe
00000050: cec5 01bc 64a0 953e 0f7e 7e3e bf6e 013d
00000060: 8d95 123f dc14 d83d 5bea d03d 730b 19bf
00000070: a478 5cbf 36ce 0ebf 7d39 67bf 9209 ba3e
00000080: 4d28 423e 769c 77bd a13d 83be 42ac 243f
00000090: f088 46be 5b97 933c 214a 183e e7ac 4fbf
000000a0: d290 aebd b999 f33e afec 1c3f a747 dcbe
000000b0: 0d6d e43b d19b ffbe dc7d 66be 704b 693f
000000c0: c0aa febe 206e 453f 998e 39be 4f83 813e
000000d0: 59ff 603f 5f0a b43e dc00 6bbe 36d9 38bf
000000e0: 4f77 5abe 2266 20be 58dd 053f cc7d c1be
000000f0: 749c 2fbc 61f5 693f 8829 253e c905 38be
00000100: 3db0 ef3e 5245 b73c c12e cfbd 73c4 39be
00000110: c9ba 843e 73e6 d2bd 44fe 8bbe ba81 40bc
00000120: dbbb 76bf 1415 0fbe d397 753e ddef b7be
00000130: 4ff1 423f 011f dbbc 7f41 c73e adbf e8be
00000140: a1c2 2bbe 40ba 613f ff3e 0cbe ff07 5d3e
00000150: 4040 fabe 8d0d e33e 89ed b73f a3ca a3be
00000160: 429c 2dbe a099 bf3e d18d 5a3f a172 94be
00000170: 31a9 8f3f e3f7 043d cc84 bd3e 7e30 943f
00000180: d7fb 5b3f 3d99 ae3f ee14 223f 3a87 71bf
0.75225735 0.6348658 0.09424728 -0.43289268 -0.23090014 -0.406857 0.07763043 -0.13271351
-0.24158585 -0.30554387 -0.08294335 0.39401194 0.15032357 0.08633039 -0.7631143 0.45375416
0.12040387 -0.035221115 -0.19643101 -0.33703756 -0.0079206955 0.2922393 0.24852775 0.031599756
0.57259446 0.105508536 0.1020095 -0.59783095 -0.86121583 -0.557834 -0.90322095 0.36335427
0.18960686 -0.060451947 -0.25632957 0.64325345 -0.19388175 0.018016508 0.14872028 -0.81123203
-0.08523716 0.4757822 0.6129865 -0.43023416 0.0069710077 -0.49923566 -0.22508949 0.91130733
-0.49739647 0.7712116 -0.18120803 0.25295493 0.8788963 0.35164163 -0.22949547 -0.7220644
-0.21334575 -0.1566396 0.5229087 -0.37791288 -0.010718454 0.91390043 0.16129124 -0.17970957
0.46814147 0.022371922 -0.101163395 -0.18141346 0.25923756 -0.10297861 -0.27342427 -0.011749679
-0.96380395 -0.13972884 0.23983698 -0.3592519 0.7614946 -0.026748182 0.38917157 -0.45458737
-0.16773464 0.8817482 -0.13695906 0.21585082 -0.48877144 0.44346276 1.4369365 -0.31990537
-0.16954139 0.37421894 0.85372645 -0.28993705 1.1223508 0.032462966 0.37015378 1.1577299
0.8593115 1.3640515 0.63313186 -0.94346964

model.BL.B f4 [60, 10]
00000000: 5920 febe 7939 423e 52da 75be 33eb c63d
00000010: 9bcd 20be 9b54 28be 00ce 2dbe dbae 1ebe
00000020: c8fd 8ebe d6af 69bc 1d3b b7bd a089 283c
00000030: 0c1a 08be c85b 073d fa25 38be 8aa0 d3bc
00000040: 642b 84be b4ef 5ebe 2a19 b7be 8830 053e
00000050: 74d4 ccbd 3b4c 483e c3d3 253e 7735 a9bc
00000060: 30b7 0ebe 04a1 3bbd d720 10be f55d 003e
00000070: 215a b7be fd1f 273e 47cf d4bd d608 15bf
00000080: e5d4 debc 792e 26bf d379 56bd 4acc 97bd
00000090: cb1c 91bd 13d2 61bd 8123 7fbd 68f9 4abf
000000a0: 587f 903d c3fe 4dbf ebf4 78be 0983 403c
000000b0: 018c 403e 892c 40bd 019b 8ebe 484c 49be
000000c0: 3bb7 9ebe e575 593c 0d7b 27bd 17b8 86bd
000000d0: d202 bcbd 4fd4 00bd 2716 2fbe d275 b3be
000000e0: dc0a 87be cfef f53c 204c 30bd 4d34 22be
000000f0: 2cc3 a4bd b07e 68bd 2b47 5bbf 1b78 02bf
00000100: 4775 34be 6253 d4be c132 47bd 01a1 4c3e
00000110: 3b6f 50be 3512 bd3c c180 46be 60dd 5fbd
00000120: ba47 01bf 568f 07bf 817e 0bbe 812e 21be
00000130: 3408 c2bd 0f27 253e 3083 dbbe c274 5e3e
00000140: a931 35bd 52af 29bf 70ed 83bd 01bb 703e
00000150: a656 23bd 327c a2bd 9574 ddbd 09fb 3abd
00000160: cba8 62bd 2d28 02bf 1cc3 fabd 9549 15bf
00000170: 3fe1 2f3d 1b43 08bf f0ca 36be 6cb1 b1bd
00000180: 9889 aabc dfb2 37bd 276d f5bd 8c1e e13d
00000190: 633e 8fbd eef4 ecbe b7b1 90bb f0e5 12bf
000001a0: 9967 a0bd e4ea 50bd 065c eb3c 8fda 49bd
000001b0: 0bce e8bd 8af1 293e 8013 a4bd 90e5 7cbf
000001c0: 6d43 a2bd 482f 823d 63f5 e23c cc30 78bc
000001d0: 1832 14be b11d 31be 5ecd 5bbe 6034 913e
000001e0: c77c 31bf 0c92 8fbd 391d 88be 2a42 e0bc
000001f0: 5a66 81be fa28 e8bd 9436 86be 2e79 b6bc
00000200: 4400 e1be ecaa 273e fd56 a2be 6be8 99bc
00000210: 1ef5 90be 0670 9cbe 17f0 5bbc 2e58 e6bc
00000220: d528 a5be b457 98bd 1d9b 2bbe a31c 523d
00000230: 9906 4fbe e0d7 14bf 71cd f73c 2bb3 373d
00000240: 62b8 16be 6b3e 0fbd 7b85 04bf ccac a8bd
00000250: 287d 72bf d948 1abe e9e1 9ebe 83ba 033e
00000260: 430f f1be 0fcc f4bd c850 40be 342b 99be
00000270: 9cbf 6ebe 4fce 39bf ada5 e8bd 683f b5bd
00000280: 6e8d 54bb 226c f1be 3a20 373d 6c89 b7be
00000290: 245a 02bf 8a95 00bd f660 e3bb be89 1abc
000002a0: d24d cbbb 0ca8 513e bd56 d2be 93bf 0b3c
000002b0: 18aa 0fbf 3b04 cdbe e0fa dabd d824 0ebf
000002c0: af66 32be b349 8abe 55a9 bdbe f075 433e
000002d0: ea16 2bbe 2246 d5bd 5b9f 0cbf c8bf 06bf
000002e0: bbca 55be 3cd7 0cbe df50 07be aaf5 753d
000002f0: 6f25 87be 8bc1 b23d 3db9 cabe 697c 4ebd
00000300: e3f4 31be 2461 f53c 167a a6be c6eb 66bd
00000310: d751 ccbe 7371 1ebe 7f35 f6be 9aea c93b
00000320: 1be7 04be 3c7c 31bf f314 c8bd ca55 9bbd
00000330: 412e 15be 10fb 86bc f2c4 8bbe 6f4b 8dbe
00000340: f491 76be 6483 5cbd 4ca4 82be 40e6 1bbf
00000350: bb0e 673c c02b 62bd f991 a3be 13e3 e1bd
00000360: 0383 09be cd2e 90be 5474 9fbe 4467 bc3d
00000370: 9813 d9bd 4acf 6ebf 7115 eebd 35b5 6fbe
00000380: b4db 8bbe ef86 6abd b5df 88be 94f9 83be
00000390: 2a76 c6be 401a a63d 3e4e 193e e467 083e
000003a0: 74df 83be 6ee6 213b 4c4a 2abf ffdd f2be
000003b0: 2c2b 88be 98f6 47bd ee59 babe 1c0a 37bd
000003c0: 2687 7cbc 33ef 593e 4f45 2dbe 407a dfbd
000003d0: d852 32bf 8e58 1bbf d4ef d0bd acfa 95be
000003e0: 82f3 6bbe 6b9e 14be 0ba0 57be 857f d13d
000003f0: f451 e7be 421b f8be 1c5c cabe 33f6 3e3e
-0.49634054 0.18967237 -0.24009064 0.097128294 -0.15703432 -0.16438524 -0.16973114 -0.1549639
-0.27927995 -0.014263114 -0.08946822 0.010286719 -0.13291186 0.033046514 -0.17983237 -0.025833387
-0.25814354 -0.21771127 -0.35761386 0.13006794 -0.1000146 0.1956033 0.16194062 -0.020655377
-0.13937068 -0.045807853 -0.14075027 0.12535842 -0.3581095 0.16320796 -0.103910975 -0.5821661
-0.027201125 -0.6491466 -0.052362274 -0.07412012 -0.0708557 -0.055131983 -0.06228972 -0.79286814
0.07055539 -0.8046686 -0.24312179 0.011749991 0.18803407 -0.046917472 -0.27852634 -0.19658005
-0.3099917 0.013272737 -0.040888835 -0.06578081 -0.091802254 -0.031452473 -0.17098294 -0.35050827
-0.26375473 0.030021576 -0.04304135 -0.15840264 -0.080450386 -0.056761444 -0.8565547 -0.50964516
-0.17622863 -0.41469866 -0.048632387 0.19983293 -0.20354931 0.02307997 -0.19385053 -0.05465448
-0.5050007 -0.5295309 -0.13622476 -0.15740396 -0.09474221 0.16128181 -0.42873526 0.21724227
-0.044236813 -0.6628314 -0.06441772 0.23508836 -0.039877556 -0.079338446 -0.10813252 -0.045649562
-0.055336755 -0.50842553 -0.122442454 -0.583154 0.04293942 -0.53227395 -0.17850852 -0.08676419
-0.020817563 -0.04484832 -0.1198371 0.109921545 -0.06994321 -0.46280617 -0.0044157165 -0.57382107
-0.0783226 -0.05100526 0.028730404 -0.0492807 -0.113674246 0.16596046 -0.08011532 -0.98787785
-0.07923017 0.063566744 0.0277049 -0.015148353 -0.14472234 -0.17296483 -0.2146506 0.2836027
-0.6933102 -0.07010278 -0.26584795 -0.0273753 -0.252734 -0.11335941 -0.26213515 -0.02227458
-0.43945515 0.16373795 -0.31706992 -0.018787583 -0.2831201 -0.30554217 -0.013423941 -0.02811822
-0.32257715 -0.07438603 -0.1675839 0.05129684 -0.2021736 -0.581419 0.03024933 0.044848602
-0.14718774 -0.034971636 -0.51766175 -0.082360834 -0.94722223 -0.15066852 -0.3103173 0.12864117
-0.47081956 -0.119529836 -0.18780816 -0.29915774 -0.2331528 -0.72580427 -0.11359725 -0.088499844
-0.0032432931 -0.4715281 0.044708468 -0.35847032 -0.50918794 -0.03139261 -0.006939049 -0.009432254
-0.0062043453 0.20474261 -0.410818 0.008529562 -0.5611892 -0.4004229 -0.10692382 -0.5552497
-0.17421983 -0.27009353 -0.37043253 0.19087958 -0.1670796 -0.104137674 -0.5493066 -0.52636385
-0.20878117 -0.1375398 -0.13214444 0.060048737 -0.26395747 0.08728322 -0.3959445 -0.050411616
-0.17378573 0.029953547 -0.3251502 -0.056377195 -0.3990619 -0.15472965 -0.4808769 0.006162
-0.12978785 -0.6933019 -0.09769621 -0.07584722 -0.14568426 -0.016477138 -0.27298695 -0.27596614
-0.24079114 -0.05383624 -0.25515974 -0.6089821 0.014102633 -0.055217505 -0.31947306 -0.11029639
-0.13428883 -0.28160706 -0.3114344 0.09199384 -0.1059944 -0.9328505 -0.116251834 -0.23408969
-0.27316058 -0.05725759 -0.26733175 -0.2577635 -0.38762027 0.081104755 0.14971253 0.13320881
-0.2575642 0.0024703997 -0.6651962 -0.47434995 -0.26595438 -0.048819155 -0.36396736 -0.044687375
-0.015413081 0.21282654 -0.1692097 -0.10911989 -0.6965766 -0.60682 -0.102019936 -0.2929281
-0.2304211 -0.14513557 -0.21057145 0.102294005 -0.45179713 -0.48458296 -0.395234 0.18648605

model.BL2.W1 f4 [120, 60]
00000000: ebbb f1bb b901 293d 5741 03be a537 1a3e
00000010: 76b8 433b 6bcc a03b bd15 6f3c f329 d03c
00000020: 6d3d 143d a7a7 b73d 07d5 1a3e 46d9 983c
00000030: 602e f1bc c19e 91bb 95c8 c2bd 2165 133e
00000040: 1c19 203e 122f b03d 0866 983d 1980 5e3d
00000050: c746 173c fb25 38bc b31e 113d 3782 8c3d
00000060: e216 113e 02cc a53d 6879 96bb 4e1b cc3d
00000070: 1bbb d43c 0ba0 003e bb68 963d 7014 643d
00000080: c179 343d 1aec bdbd aaa3 0e3e cef0 b53c
00000090: 000f 643e f41f 29bd edd1 b33d a1ab 003e
000000a0: 8554 113e bcf1 a93d 4aa5 a23d 363e dcbd
000000b0: 6d8a 2b3d dc20 acbc 17ab d83d 1ce9 f33d
000000c0: 355b 16bd 44f7 7e3d d1f6 1e3d 417e 25bb
000000d0: 69f4 ad3b 2722 f13d 319f 57bd 45d3 54be
000000e0: c081 ae3d 92da 313e 9b80 193c 82c4 2d3d
000000f0: 03ed f5bd b726 29be 04c0 ffbc 299f 25bd
00000100: 5e9f 5ebe df36 02be e03e 163d 4672 1cbd
00000110: 5f4f 28bc 4167 46be 1b0d 843d e6c0 69bd
00000120: a8c2 e7bd 3e74 fdbd 4dae 60be 6066 7c3d
00000130: 5aaa 293d d6b9 223d 0ff9 b83c 9e5b 55be
00000140: 74ee 02be 3e4f b6bd 4ad0 33be 506b 5fbd
00000150: b4ce 2abd 962e c53d 2124 e1ba dd55 293d
00000160: b367 24be 4e73 8fbd 26e0 9cbd a91b a73d
00000170: ff72 7b3d 4c1b e6bc 1b85 203c 0891 61be
00000180: f9dc b0bc dbe2 a0bd 64c8 edbd 1f4e a23c
00000190: cdbd 38bc 0efd 323d 5d7e 6f3c 0f4c 47bc
000001a0: cba1 17bc 899e 14be 5e53 34bd a005 0c3d
000001b0: ab5d 43bc 23b8 afbd 8b58 b13d 2cb4 1bbe
000001c0: bc14 46be 52b9 f83c c40c 943d e835 1f3d
000001d0: 9807 8b3d a6a7 3fbc 8853 73bc 13f9 48be
000001e0: b1d6 533d 7f82 3ebd ab2c af3c 678d a73d
000001f0: 4192 013d 9643 e03c 21ac 303e b561 cbbd
00000200: c63e 9ebb 9fbf 0d3e ff07 86bc 72e6 05bd
00000210: a673 69bd 5025 c1bd c47d abbe ac88 163d
00000220: 733e 68bc 6f55 013e ced8 91bd 4f0a d93b
00000230: d472 5fbd e828 98bd 8f50 80bd aeba 6bbe
00000240: c32f 33be a14b 6e3d 65fa 0c3e 3a54 cf3d
00000250: b06d 4bbd 84af c63d 9b79 9cbc 88ee 9bbd
00000260: 8a7e af3c 8d7e 50bd b40b 10be 7dbd 96bc
00000270: d148 67bd 62dd 13be 29f9 27bc 910c fbbd
00000280: 1219 24bc 458f 71bd fcdc d7be f46b 2bbe
00000290: af9a 653d a4d4 25bd e6f8 613d 3228 693d
000002a0: 18ac f33c dfcd a6bd 0bac 46be 6664 99bc
000002b0: a671 8fba 20a8 0bbe b950 003e 32a1 09be
000002c0: b449 32bd f453 9f3c e809 ed3c ff4a 4fbd
000002d0: 471a 693d 128b 6e3d 3d7f 1ebe 4c88 4ebc
000002e0: 5281 353d cb28 08be 37d9 74be f6d9 8cbc
000002f0: 85f9 a03c a2a7 13bd 5de4 09be 09d4 44bd
00000300: a32d 553d e99c 483d 8e71 23be ce6a c2bd
00000310: 0e83 39bd b8a7 7ebe 9906 52be 0997 a23b
00000320: 3101 0fbd c8d8 8c3c a1a9 edbc 60fb 83bd
00000330: 08ae 44be 110b 31be d780 26be b26d 74bd
00000340: 5eed 363d 4c90 45be c65b 933d 0fce 413e
00000350: 3536 b2be ebe4 a4bd b2f8 95bd a44c c2bc
00000360: 8665 1e3d cc2c a33c c501 a73d 9047 0bbd
00000370: 9a51 74be 976e 7fbe 0ad7 22be f2fe b23d
00000380: 2b66 0fbe 45a9 673d 0640 fdbd 5bf9 713d
00000390: aad7 f73d 56c2 e63d 9997 aebd c38b f4bc
000003a0: f8ab bc3c 4aee bbbd 45ca aebd e6a0 0c3c
000003b0: 31e6 7cbd 1d58 5cbd b53b 5b3d b5a9 333d
000003c0: 1a9b 14bd 5f48 edbd 82c6 003b cb6e 6e3d
000003d0: 01b9 1b3d fd34 9d3b e173 f03c e407 f2bd
000003e0: 61b7 873c 2300 94bb ed23 85bc 2fc1 f4bd
000003f0: 5c09 9dbd d30f 79bd aa9e 48be d173 c13d
-0.007377138 0.04126141 -0.12817894 0.15060289 0.0029864586 0.004907181 0.014592585 0.025410628
0.036191393 0.08967524 0.15120326 0.018658292 -0.029441059 -0.004443974 -0.09510914 0.14394046
0.15634578 0.08602728 0.07441336 0.054321382 0.009233183 -0.011239524 0.035429668 0.06860774
0.14168885 0.08095552 -0.0045921095 0.099661455 0.025968125 0.12561052 0.073441945 0.055683553
0.044061426 -0.092735484 0.1392962 0.022209551 0.22271347 -0.04129024 0.087802745 0.12565471
0.14192398 0.0829806 0.07941683 -0.10754053 0.04188006 -0.021011762 0.10579508 0.119096965
-0.036708076 0.06224753 0.0388096 -0.0025252255 0.005308677 0.11774092 -0.05264205 -0.20783718
0.085208416 0.17368534 0.009369041 0.042423733 -0.12008097 -0.16518675 -0.03121949 -0.04043499
-0.21740481 -0.12716244 0.036681056 -0.038194917 -0.01027283 -0.19375326 0.06447812 -0.057068728
-0.113164246 -0.12375687 -0.2194149 0.06162107 0.041422226 0.03972801 0.022579698 -0.2083573
-0.12786275 -0.08901833 -0.17559925 -0.0545457 -0.041701034 0.09628026 -0.0017176905 0.04134165
-0.16055183 -0.070044145 -0.076599404 0.08159573 0.061388966 -0.028089188 0.00979736 -0.22027981
-0.021589743 -0.07855769 -0.11610487 0.019812642 -0.011275721 0.043698363 0.01461753 -0.01216413
-0.009254883 -0.14513601 -0.044024818 0.034185052 -0.011924188 -0.08580043 0.08659466 -0.15205449
-0.19343847 0.030361805 0.07228997 0.03886977 0.06788558 -0.011697685 -0.014851458 -0.19626264
0.051718418 -0.04651117 0.021383604 0.08181267 0.03163362 0.027375977 0.17253162 -0.099307455
-0.0048292605 0.13842629 -0.016361235 -0.032690473 -0.056995057 -0.09430945 -0.3349439 0.036751434
-0.014175045 0.12630247 -0.0712143 0.0066235433 -0.054552868 -0.07429677 -0.06265365 -0.23020431
-0.17498688 0.058177594 0.13767393 0.10123487 -0.049665153 0.09701446 -0.019100955 -0.076138556
0.021422643 -0.05090194 -0.14066964 -0.018400902 -0.056465928 -0.1443992 -0.0102522755 -0.12258256
-0.010015743 -0.058974523 -0.42160785 -0.167404 0.05605572 -0.040485993 0.05516901 0.0569231
0.029745147 -0.081447355 -0.19401567 -0.018724632 -0.0010943904 -0.13638353 0.12530793 -0.13440397
-0.04352732 0.019449212 0.028935388 -0.05060863 0.056909826 0.058238097 -0.15478225 -0.012605738
0.044312783 -0.13296811 -0.23910986 -0.017193776 0.01965023 -0.03604854 -0.1346602 -0.048053775
0.052045476 0.048977766 -0.15961286 -0.094930276 -0.045291 -0.24868667 -0.2051033 0.0049618524
-0.034913246 0.017193213 -0.02901155 -0.0644443 -0.19207013 -0.17289378 -0.16260086 -0.059674926
0.044659965 -0.19293326 0.07195239 0.18926261 -0.34806982 -0.08051475 -0.073228255 -0.023718186
0.03867104 0.019918822 0.081546344 -0.034003794 -0.23859254 -0.2494453 -0.15902343 0.08740033
-0.14003818 0.056557912 -0.12365727 0.059075695 0.121016815 0.112675354 -0.08525009 -0.0298518
0.02303122 -0.091763094 -0.085346736 0.008583283 -0.061742965 -0.05379497 0.053523738 0.043863017
-0.03628073 -0.11586069 0.001964957 0.05821113 0.03801823 0.0047975765 0.02935213 -0.11817911
0.016566934 -0.004516618 -0.016252482 -0.11950909 -0.07667801 -0.060806107 -0.19591776 0.09445918

model.BL2.W2 f4 [10, 5]
00000000: cd44 4f3e a7c9 bc3e 3767 603e 654c 88bd
00000010: c3fc 8d3f de1e 05bf daa5 46bf d2da 773f
00000020: 3842 2dbf 9a44 3cbf 09a9 6d3f 62db c23e
00000030: 4bf3 c1be 6e3f d83e 761e 173f f0bd d23e
00000040: e12e 813d 5a3e e4be d910 d6be 357d c8be
00000050: 4513 753f 7398 89be b580 29bf 65bd 3fbe
00000060: c76d 043f 9d5f 9c3d e32e 2f3f f847 863f
00000070: 6903 3dbe f5b3 6b3f 9eb4 223f 9247 1e3f
00000080: 42af 4bbf 849f 213f 0a78 c43d 2cdf 3cbf
00000090: 083d 5a3b 1dfe 2e3f d87b 073f fb66 ac3f
000000a0: bea5 253f 8f51 453e d7b3 7b3f 67d9 243f
000000b0: 1566 ee3d 9503 f0be c4b5 e53e 8663 483f
000000c0: 1918 4a3f ed39 d2be
0.20241089 0.368726 0.21914373 -0.06655196 1.1092762 -0.52000225 -0.7759682 0.9681827
-0.67679167 -0.7354218 0.9283605 0.38058 -0.3788093 0.42235893 0.59030855 0.41160536
0.063077696 -0.4457882 -0.4180973 -0.39158025 0.9573253 -0.26874122 -0.66212016 -0.18724592
0.51730007 0.07635424 0.6843092 1.0490713 -0.18458332 0.9207147 0.6355685 0.6182796
-0.795643 0.63134027 0.09593208 -0.73778033 0.0033300538 0.68356496 0.52923346 1.3468927
0.6470603 0.19269393 0.9832129 0.6439423 0.11640564 -0.46877733 0.4486524 0.7827686
0.7894302 -0.4105982

model.BL2.B f4 [120, 5]
00000000: 9e7e 0a3e 99ff 343e 5cbd 6fbd 7241 743e
00000010: b11c cabd 3f79 073f cefc f13e a1a4 91be
00000020: 32be 2b3e d0ef d63e bbb6 33bc 6295 0abf
00000030: 70f5 ac3c 0ca9 ddbe f117 f1be e004 a03e
00000040: 9eb4 acbe 2dc8 5d3e e3ee c6bd 41ea 1fbf
00000050: 32a5 5bbe f9c9 e2be 28b9 8abe 1b8f 1f3c
00000060: a57c 5abe 66e9 5f3e 38d9 c2bd 31af 76bd
00000070: f547 9e3c a234 afbc 8327 0d3e 8b0f 423e
00000080: fa52 7bbe e65c 8a3d 7c2f 1c3c 2630 a7be
00000090: d9f4 ddbe 5a19 eb3c 3149 8bbe 31f4 ae3e
000000a0: 63bb 81be bc1a 563c a1f6 013f 08d9 fb3d
000000b0: dd90 09bd 64c3 eb3d bc7a a5bf cd11 c9bd
000000c0: 7e9e adbe 80f7 e93c f273 45bd 0c25 b33e
000000d0: a129 a0be 7ed2 673e 0665 723d a4d2 92be
000000e0: 8efc 5a3d 195c 87bd 9e2e 063e 2eb1 24bc
000000f0: 9fd1 e4be dbe0 0cbf 96cf 02bf d5cc 3abc
00000100: 77a6 8c3d ae2e 353e 2f8d bf3d 1264 afbe
00000110: d468 503e 8d86 5cbd 8c49 95be 7078 5bbf
00000120: 53c3 13bf 6225 e5be 3487 9e3e 8bbb 9cbe
00000130: 1fb6 643e 471c b93a cdac 153d be69 82be
00000140: b4aa fb3e 6f6b af3e 3d0a 3bbe 68eb 3b3e
00000150: 9764 a43e b122 e63e a7ea 11be 087a e2bc
00000160: a770 3c3e 1c3b 03bf c457 08be 034c 6fbd
00000170: 1a78 2fbe 5878 08bd 5df3 b3be d874 643e
00000180: 0d78 b8be e08c 953c 4ecf 673e 0ebf 63be
00000190: 63db 073e 211d 9abd 2bb4 ccbe 0a34 a83d
000001a0: 6bf8 1d3e d15d f93e 717b af3e 92ff 5e3e
000001b0: 102c 853e 71a1 073e f9a1 ac3d b271 083d
000001c0: e9f6 82be 97c6 7c3d b577 f23d 068f 3e3e
000001d0: a80e cdbd dd6d 92be 8a00 2f3a 63d0 173e
000001e0: 159f bf3d 3491 f93d 11ef 42bc 9da4 903d
000001f0: 5e48 163e 8b40 7fbc b641 0cbf dfb4 0dbe
00000200: d1bb 39be deb2 223f 61cf 53be 5c8a bfbe
00000210: e042 d2be 2fd5 d5bb cbaa 4bbe 4c2b f4be
00000220: 0d62 b83b b15f 3e3c 4c1e f9be f6a1 5bbe
00000230: 5fa4 983e fff9 05be 1600 023f f730 00be
00000240: 4c4a b43d ca50 623e 139a 723e 8c8a eabd
00000250: e4fe 9c3d 3b0c dc3d 33b9 2dbf 45b6 043f
00000260: bd23 e1be 2b55 dc3e a9a4 1dbf 0bf8 e83e
00000270: 7fac 863e 36fe b9be e426 c03e 432c de3e
00000280: a683 133f 48bd b23e 22be 85be f5fb c43e
00000290: ae14 b43e 4fbc 213f 0678 c53e 99f9 2ebd
000002a0: d98d 063f 2e2b 2a3e 895d 903d a389 ccbd
000002b0: 9bb9 763d f6b2 34bd 79a1 9c3e 7997 14be
000002c0: a888 243e 20e7 c6bd 10e6 fbbc a063 99be
000002d0: 290f 23be 987d 0b3e 500e c4bd 8178 113d
000002e0: 0a37 b8be 8d90 253d 563f ab3d 52ae 8fbe
000002f0: 960c 163e 6d89 a73d 47d9 7ebe a9a3 3dbf
00000300: 981b b53e ce2c 53bf 5f12 97be 6b2c 81be
00000310: a2fd d7bb d4ac bcbd 1e91 1d3d ff81 923d
00000320: 83ef 0d3e 8671 203e 7947 b83d 5fbc a83e
00000330: a245 e0be aab5 05bf 3d4c d33d cfd6 3bbe
00000340: 9246 803e 3a9b 853d 20d4 c8bc b996 75bf
00000350: 8367 95bf 61ea 92be 9db2 f2bd 3368 063f
00000360: 1d5f a33e 7cfa 94be 96fb 523e a9f2 dfbd
00000370: cae5 91be b0d8 13bd aae8 0e3f fa41 8b3d
00000380: d3a7 f13d 1e74 4bbe 457b 90bf 3d45 2ebe
00000390: 160f 47bf 3c47 2bbc b02b 0b39 e534 cbbf
000003a0: 3972 fbbd 0e78 ebbe e573 57bd f233 e23e
000003b0: 6eaf 663e b9d4 503d f6c2 7f3d f05b d93e
000003c0: 30ce 2ebf 924f 543e 231e 14bc dc9f 12bf
000003d0: 4685 673e 0377 90be 2305 7dbf 1cfa 123f
000003e0: 5368 8dbe ae97 3ebe 884e 103d ecb9 6dbe
000003f0: ebdd 6bbf 3ad0 843c 0e04 4ebe 387f c1bd
0.13524863 0.17675628 -0.058530197 0.2385309 -0.09868754 0.5291938 0.47263187 -0.28445914
0.16771773 0.41979837 -0.010968859 -0.5413419 0.021113127 -0.43293035 -0.47088578 0.3125372
-0.3373155 0.21658392 -0.09713533 -0.6246682 -0.21449736 -0.44294718 -0.27094388 0.009738709
-0.2133661 0.21866378 -0.095140874 -0.06022567 0.019321421 -0.021387402 0.13784604 0.18951242
-0.24543372 0.06756 0.0095328055 -0.32653922 -0.43350866 0.028698612 -0.27204278 0.34170678
-0.25338277 0.013067897 0.5076695 0.12297255 -0.033585418 0.11511877 -1.292808 -0.09817848
-0.33909982 0.0285604 -0.048206277 0.34989202 -0.3128176 0.2263889 0.059178375 -0.2867633
0.05346351 -0.06609363 0.1310372 -0.010052009 -0.44691178 -0.550306 -0.51098 -0.011401375
0.06867688 0.17693588 0.093531005 -0.34256035 0.20352489 -0.053839255 -0.29157674 -0.8573065
-0.57719916 -0.44755083 0.30962527 -0.30611834 0.22335099 0.0014122807 0.03654175 -0.254713
0.49153674 0.34261653 -0.18265624 0.18351519 0.32107994 0.44948342 -0.14249669 -0.02764608
0.18402348 -0.5126207 -0.1331473 -0.0584221 -0.17135659 -0.033317894 -0.3514661 0.22310197
-0.3602909 0.018255651 0.22637674 -0.2224085 0.13267283 -0.07525087 -0.39981207 0.08213051
0.15426795 0.4870439 0.34273866 0.2177718 0.2601018 0.13245179 0.08429331 0.033311553
-0.25579002 0.061712828 0.118392386 0.18609247 -0.10012561 -0.28599444 0.00066758005 0.14825587
0.09356514 0.121858984 -0.011897818 0.070626475 0.14676043 -0.015579353 -0.54787767 -0.13838528
-0.18138053 0.6355418 -0.20684578 -0.37410247 -0.41066647 -0.0065256576 -0.19889371 -0.47689283
0.005626923 0.011619494 -0.48655927 -0.21448502 0.29812905 -0.13083647 0.5078138 -0.12518679
0.088032335 0.22101131 0.23691587 -0.11452207 0.07665804 0.1074452 -0.67860717 0.5184062
-0.4397258 0.43033728 -0.61579376 0.45501742 0.2630348 -0.3632676 0.3752967 0.43393144
0.57622755 0.34910035 -0.26121622 0.38473478 0.35172027 0.6317796 0.38568133 -0.042718504
0.5256019 0.16618034 0.070490904 -0.099871896 0.0602356 -0.044115983 0.30591944 -0.14510907
0.16067755 -0.09712052 -0.03074935 -0.2995882 -0.15923752 0.13622129 -0.095730424 0.035515312
-0.3597949 0.040421057 0.0836169 -0.28062683 0.14653239 0.08180509 -0.24887572 -0.7407785
0.35372615 -0.8249024 -0.29506204 -0.252292 -0.0065915147 -0.09212652 0.038468473 0.07153701
0.13860898 0.15668306 0.08998007 0.32956216 -0.43803126 -0.5223032 0.10317276 -0.18343662
0.2505384 0.06523748 -0.024515212 -0.9593311 -1.1672214 -0.28694442 -0.11850474 0.52502745
0.31908503 -0.29097354 0.20603785 -0.109349556 -0.28495628 -0.03609532 0.5582377 0.067996934
0.11799588 -0.19868514 -1.1287619 -0.170186 -0.77757394 -0.010453995 0.00013272348 -1.5875517
-0.122776456 -0.45990032 -0.05260076 0.44180256 0.22527859 0.050984118 0.06244179 0.42452955
-0.6828337 0.20733479 -0.009040388 -0.57275176 0.22609434 -0.282158 -0.98835963 0.57412887
-0.27618656 -0.18612549 0.035231143 -0.23215455 -0.92135495 0.016212571 -0.20118734 -0.09448093

model.TABL.W1 f4 [3, 120]
00000000: 8902 17be cc7b 763e 45e8 04bf 0187 a1be
00000010: b99d 213e 6d0e 5e3e f935 243f 0fb2 543e
00000020: 9bff 0ebe 87e7 433e 6f89 6f3e 42ee d5bc
00000030: 7b47 823e 7087 ed3e 85db 9e3e e41d 17bf
00000040: b6c9 ee3e 094e 023e 9970 143d 4425 2fbe
00000050: 69b5 91be 4093 323e e7ea 323e c06f b1be
00000060: aef6 ab3e f45c e93e 1fe5 c6be 7a0b bdbe
00000070: 867f e6be f6eb 5bbd 2f0a 31be fe39 923c
00000080: 84a7 e73d ab17 4c3e 6cbc f6bd 40c4 bdbe
00000090: 817e 763e e0c1 1abe 2520 d3be f67d 3dbd
000000a0: af50 1cbd b801 9dbd 346d cabe f1aa 563e
000000b0: 584d cabe bacd 1f3e c2a5 f13d 0275 c03e
000000c0: 317f 7a3e 66a4 27bf 250f 6fbe ea0c 9bbe
000000d0: 64ef d63d 0648 b13e 5d19 093f 903b d03b
000000e0: 115f 323e f527 2e3f 9fcf 14bf 299b ccbe
000000f0: d9b4 693e 1a8d 49be a897 0fbe eee5 7fbe
00000100: e475 a63e 6248 273f fbd6 f1be 00db 9fbd
00000110: 2d0a d33e f79a 02bf fd93 f6be ad5a 13bc
00000120: 94fe 0bbe 3b6e 593d 65e3 a8be f45b dbbe
00000130: 99a9 3bbe e724 ad3e 65ce 1b3e 66fa 25bf
00000140: bc82 ed3e 6728 35be ce2d 78be 03f0 b83d
00000150: 644e 6a3e 5f23 8c3e 5c00 f6bd 8899 673d
00000160: c025 3ebd 640a ffbe 423f 8b3d 0a5b cd3e
00000170: ed51 fb3e e7ac 2abf 62cc be3e 6cab a63d
00000180: e63f d4be 2722 a8be 0886 523e ddcc 19bf
00000190: ed8e 8b3b 8cf9 073f aff3 f43d 5465 523d
000001a0: eb50 803d cd6d 19be 726e bb3e accc 7bbd
000001b0: e656 39bf 5484 f4be 14b8 e1be 11d0 d1bd
000001c0: 1bec f7bd 2ef7 52be 5fbc 0b3f bfbe 643d
000001d0: 9b93 d83e 2192 f83d bbe5 21be 2661 debd
000001e0: 3b5d 27be 04f2 54be bd26 a8bd 40d1 7d3e
000001f0: bda7 abbd fc16 713e a631 e03e feaf 0b3f
00000200: 9747 203e 8c4d d53d 1f46 42be a585 c63e
00000210: 8c9d 4dbe 00e9 b13e af5a 6cbd b1db 9fbd
00000220: 6db3 83be 0bea 993d b30b 613e 8cea ab3c
00000230: 6cfc 8b3e f00d dcbd 0a70 213f 0648 c23e
00000240: bfb6 10be 6adb 8f3d 5198 c03c 0e1f e6bd
00000250: 5fed e73e e87f 29be 3558 65bf b79c ebbd
00000260: a3e6 6bbe 1f09 88be 31c5 9b3e 00f1 bbbd
00000270: ddae be3e 35df 13be da01 4c3e 3e32 d33e
00000280: d29a abbd d9e4 c1be 1a0d 7b3d 2a70 15be
00000290: 6e80 b03e eb38 da3d 120d 9e3d a81f 01bc
000002a0: 15c6 403f 77aa 4a3e 50d2 063e b86a f63b
000002b0: 8f88 1c3f 8493 123d c762 2b3f deca eebd
000002c0: 1f20 14bf b205 1ebf b7d9 1b3e 8c98 fb3d
000002d0: 02ed 77be b054 cb3e 6365 473e e917 c93e
000002e0: 89a3 b3bc b551 05bd f224 ab3e 7af6 b5be
000002f0: 13d2 d93e ca74 61be 7839 b13e 5aa0 c7be
00000300: 59af 13be b92d 7e3e 9a42 5e3d 864c 8e3d
00000310: d190 f63e 8ee7 973e e3fe 70bd 2937 913e
00000320: b74f ad3e a4f5 8b3e 30b9 ec3d 33a0 c3be
00000330: d610 ef3c 75ff 8c3e 1ee7 8b3e aad8 6e3d
00000340: 2476 24bd bcce 37bd e733 1c3f 4563 bbbe
00000350: b220 b8bc 5b24 1a3f 827c 213e b22a 20be
00000360: 73d7 3dbc 5ae8 75be 9bb5 763e 1fcb e43d
00000370: 5bc2 92be 77a9 c7bd 716c 51be ad8b 08be
00000380: af64 4ebe d279 de3d 922f 3dbe 6ef4 c1bd
00000390: b8c8 f83e 4cb2 843e 89df 573e 0e70 be3e
000003a0: 51da 01be adb9 873d 4510 92be a11d c33c
000003b0: 3a5f 70be 4617 8b3d 6d07 01be 83d7 763e
000003c0: e284 a73d e33f d43e 77dd 92be dbe2 9cbe
000003d0: 90f2 f4bd e0a9 40be 69ee 53bf a182 9b3e
000003e0: 2bb5 77bd f6a9 36be 1b8e b9bd a49d 623d
000003f0: 4a0c 7bbe 75ab d8be 7656 ebbd b486 473e
-0.14747061 0.24070662 -0.51916915 -0.31548312 0.15782823 0.2168519 0.64144856 0.20771049
-0.13964693 0.1913129 0.2339227 -0.026114587 0.2544516 0.46392393 0.31026855 -0.59029984
0.46638268 0.1272508 0.036240194 -0.1710406 -0.28458717 0.17438984 0.1747242 -0.3465557
0.3358664 0.4557873 -0.3884668 -0.36922818 -0.45019168 -0.053691827 -0.17289041 0.017849918
0.11311248 0.19930904 -0.12047657 -0.3706379 0.24071695 -0.1511302 -0.41235462 -0.046262704
-0.038162883 -0.076663435 -0.3953644 0.20963646 -0.39512134 0.15605822 0.11799194 0.3758927
0.24462582 -0.6548523 -0.23345621 -0.3028329 0.10494879 0.34625262 0.53554326 0.0063547567
0.17419077 0.6802972 -0.58129305 -0.39962128 0.22822894 -0.19682732 -0.14022696 -0.24990055
0.32511818 0.6534482 -0.4723433 -0.07805443 0.412187 -0.5101771 -0.4815978 -0.008993787
-0.13671333 0.05308364 -0.32985988 -0.42843592 -0.18326415 0.33817217 0.15215452 -0.648352
0.46388805 -0.17691194 -0.24236223 0.090301536 0.22881466 0.27370736 -0.12011787 0.056542903
-0.04642272 -0.49812615 0.06799175 0.4010852 0.49085942 -0.6667008 0.37265307 0.08138165
-0.41455 -0.32838556 0.20558941 -0.6007822 0.0042589814 0.53115153 0.119605415 0.051366165
0.06265434 -0.14983292 0.366077 -0.061474487 -0.7239822 -0.47757208 -0.44085753 -0.10244764
-0.121055804 -0.20602104 0.54584306 0.055845972 0.42300114 0.12137247 -0.15810291 -0.10858373
-0.16344158 -0.20795447 -0.08210514 0.24786854 -0.08381603 0.23543924 0.4378788 0.5456542
0.1565231 0.104151815 -0.18972062 0.38773838 -0.2007963 0.34748077 -0.05770367 -0.07805575
-0.25722829 0.07515343 0.21977119 0.020985864 0.2734102 -0.10744846 0.63061583 0.37945575
-0.14132212 0.07024272 0.02351013 -0.11236392 0.45298287 -0.16552699 -0.8958772 -0.115045
-0.230372 -0.2656946 0.30423883 -0.091768265 0.37242785 -0.14440615 0.19922581 0.4124927
-0.08379139 -0.3786991 0.06129179 -0.14593568 0.34472984 0.106553875 0.07717337 -0.007881083
0.7530225 0.1979159 0.13166165 0.007520046 0.6114587 0.035785213 0.669476 -0.116597876
-0.5786151 -0.6172744 0.1521977 0.122849554 -0.24211505 0.3971305 0.1947227 0.39276055
-0.021928566 -0.032548625 0.33426625 -0.3553961 0.42543086 -0.22017208 0.34614158 -0.38989526
-0.14422359 0.2482213 0.054262735 0.069481894 0.4815736 0.2966885 -0.05883683 0.28362396
0.3384988 0.27335846 0.11558759 -0.3820816 0.029182833 0.27538648 0.27324766 0.058312096
-0.04015173 -0.04487489 0.61016697 -0.36599174 -0.022476528 0.60211724 0.15770152 -0.15641287
-0.011587012 -0.24014416 0.24092714 0.11171555 -0.28663906 -0.0974912 -0.20451523 -0.13334532
-0.20155595 0.10863079 -0.18475178 -0.094704494 0.48590636 0.2591728 0.21081366 0.37194866
-0.12680937 0.06627212 -0.28528038 0.02381784 -0.23473826 0.067915484 -0.12600489 0.24105649
0.08179642 0.41454992 -0.2868459 -0.30641827 -0.119603276 -0.18814802 -0.8278566 0.303731
-0.06047551 -0.17838272 -0.090603076 0.05532612 -0.24516407 -0.4231831 -0.114911005 0.19484979

model.TABL.W f4 [5, 5]
00000000: cdcc 4c3e dd01 033f 6eef 27be a8e8 6ebd
00000010: d64e fd3e 1a56 15be cdcc 4c3e cae5 bcbe
00000020: 6c30 85be 9b63 333f f2c4 b13e ca9c 903e
00000030: cdcc 4c3e 0d53 623e 11b5 463e 7692 1d3f
00000040: ffab 3e3f 6ecc e5be cdcc 4c3e 1c0a 283f
00000050: 1b19 ce3d 9042 d1bd 03f6 3c3d c8c3 293e
00000060: cdcc 4c3e
0.2 0.5117472 -0.16399929 -0.058327347 0.4947421 -0.14583626 0.2 -0.36894065
-0.26013505 0.7007386 0.3472057 0.2824462 0.2 0.22101994 0.19405009 0.61551607
0.74481195 -0.4488253 0.2 0.65640426 0.10063382 -0.10217774 0.046133053 0.16578591
0.2

model.TABL.W2 f4 [5, 1]
00000000: 22e7 9ebf 1518 cdbf 29f2 393e 4906 b7bf
00000010: fb60 16c0
-1.2414286 -1.6022974 0.18158783 -1.4298793 -2.3496692

model.TABL.B f4 [3, 1]
00000000: 63c4 73be 2dc6 b63e 0ad4 77be
-0.23805384 0.3569807 -0.2420198

exp_avg f4 [10, 1]
00000000: 3dbd 9b3a abb7 bb39 2d9e 0c3a 180f fd39
00000010: 9002 24bb 2b7d deba b435 293b 0a13 ab3b
00000020: db7a ca3b ebf3 20bb
0.0011881959 0.00035804263 0.0005364146 0.00048267166 -0.0025025941 -0.0016974559 0.0025819363 0.0052207755
0.0061791963 -0.002455945

exp_avg_sq f4 [10, 1]
00000000: 775e fe37 d481 cd37 c640 3b38 b2ff 8238
00000010: c085 cb38 acb5 9338 e922 8e38 1a21 b038
00000020: 2d37 6b39 35b6 bf39
3.0323148e-05 2.449836e-05 4.46446e-05 6.24651e-05 9.704707e-05 7.043345e-05 6.77759e-05 8.3984996e-05
0.00022431901 0.00036566114

exp_avg f4 [10, 1]
00000000: 8d8f 85ba fe32 20ba a72b eeb9 ea8b bdba
00000010: 1873 a6ba 688f 64bb 7389 c5b9 d755 7a3b
00000020: c781 723b af95 27bc
-0.0010189876 -0.0006111114 -0.0004542742 -0.0014461253 -0.0012699096 -0.0034875516 -0.00037677176 0.0038198137
0.0037003623 -0.010228558

exp_avg_sq f4 [10, 1]
00000000: bcc4 6d38 95fb 7938 3865 5338 ff5e d538
00000010: 5105 e138 5b95 f138 86cd b238 ba52 9838
00000020: 1f89 2f39 a47a 603a
5.6688426e-05 5.960053e-05 5.0400587e-05 0.00010174326 0.00010729826 0.00011519595 8.525983e-05 7.263334e-05
0.00016740382 0.0008563197

exp_avg f4 [40, 1]
00000000: 230e a8ba 40d7 05bb 4b76 093b 53ec 83ba
00000010: d395 bd3a c7a7 fbb8 e890 24ba ec0b 1c3b
00000020: a79a 1aba ba43 6639 5f98 a2b9 d9c8 6e39
00000030: 6f8b c63a 65ff 3c3a e014 0b3a 8b59 b139
00000040: 9029 023a 8b07 60b9 cffe 88ba 0f46 033b
00000050: b1ec 773a f354 ffb9 dadc 0e3b be33 5f3a
00000060: ec1e 8d38 b560 d439 8f9e b63a 6215 dc3a
00000070: 558e 9db9 568b 8e3a 406a 69bb 2dca 533a
00000080: 7d77 daba dd14 63ba 0e14 983a e014 d03a
00000090: bb15 833a 0116 16ba 8f65 04b9 fdf0 e43a
-0.0012821596 -0.0020422488 0.002097505 -0.0010064937 0.0014464207 -0.00011999864 -0.0006277696 0.0023810817
-0.0005897679 0.0002195974 -0.00031012573 0.0002277227 0.0015147756 0.00072096876 0.000530554 0.00033826786
0.00049653 -0.00021365115 -0.0010451915 0.0020030772 0.0009457572 -0.00048700682 0.0021799118 0.0008514485
6.7291636e-05 0.00040507843 0.0013932752 0.001679104 -0.0003005142 0.0010875266 -0.0035616308 0.0008079138
-0.001666769 -0.00086624717 0.0011602656 0.0015875362 0.0010000983 -0.0005725325 -0.00012626335 0.001746684

exp_avg_sq f4 [40, 1]
00000000: a502 fa38 c543 6939 34e3 f738 d2e2 5e39
00000010: 2b4f 5f38 b638 cc37 0f40 8e38 ee7c 0d39
00000020: 91e4 ee38 ee19 5e38 a1fd 3238 b86d f238
00000030: 2097 7138 9a34 9b38 6e16 8038 48b6 9438
00000040: e747 9638 0b9f bf38 1a6b 0938 6f03 9538
00000050: 2b53 c437 541c 9738 8b79 0238 797a b038
00000060: f4b8 3d37 c95a be38 2957 ba37 1e2e d038
00000070: 2561 3e38 a87d d038 6e37 d338 1d21 8738
00000080: 76f2 ad38 8f17 ad38 2ebe c437 2b5c c238
00000090: d006 a138 30c5 b838 f3e7 b438 afb4 ad38
0.000119214215 0.00022245858 0.00011820198 0.00021256067 5.3241074e-05 2.4345103e-05 6.7830195e-05 0.00013493348
0.00011391298 5.2953073e-05 4.2674717e-05 0.00011559896 5.7599624e-05 7.400774e-05 6.1076935e-05 7.0911425e-05
7.16595e-05 9.137214e-05 3.276309e-05 7.105513e-05 2.3403749e-05 7.2055176e-05 3.110761e-05 8.415146e-05
1.1308341e-05 9.076816e-05 2.2213515e-05 9.926803e-05 4.5390003e-05 9.941618e-05 0.000100715886 6.4434695e-05
8.294445e-05 8.253671e-05 2.345358e-05 9.2678085e-05 7.678347e-05 8.810533e-05 8.626273e-05 8.282938e-05

exp_avg f4 [40, 1]
00000000: fb63 efba e51a 103b 9573 203b 956b 13bb
00000010: 87c1 abb8 c7a1 b13a bce0 d63a 475b 0ebb
00000020: f8a7 833a d881 383a 00e4 e83a 1bf0 343a
00000030: 4dad 463a a76e 51b9 51f9 f0ba 22f7 0d3b
00000040: d050 393a a7ce 1c3b db00 b03a 985a e03a
00000050: 9605 9c3a effa 3eb8 b806 32bb 4d66 253a
00000060: 27c0 1739 c12d 303a 516c b5ba 07cd 303a
00000070: bb19 e2b9 d18e 093a 1c09 45ba 3763 0c3b
00000080: 8ba5 beba 9472 67b9 2188 bb3a 4c57 66ba
00000090: 8052 003b 2de3 46ba 640d 94ba 8093 08bb
-0.001826405 0.0021988687 0.0024482955 -0.0022494544 -8.189963e-05 0.0013552242 0.001639388 -0.0021721886
0.0010044565 0.0007038391 0.0017768145 0.00069022336 0.00075789244 -0.00019973014 -0.0018384849 0.0021662195
0.0007069232 0.0023926885 0.0013427989 0.0017116843 0.001190352 -4.553323e-05 -0.002716465 0.00063094945
0.00014472065 0.0006720685 -0.0013841485 0.00067444186 -0.0004312525 0.00052474166 -0.0007516311 0.0021421441
-0.0014545185 -0.0002207256 0.0014307537 -0.0008786812 0.0019580424 -0.00075869524 -0.0011295495 -0.002083987

exp_avg_sq f4 [40, 1]
00000000: 5207 1a38 0076 9839 7bfa 3938 ec4f 5d39
00000010: 0695 ef37 a64e d237 4b89 7b38 3414 cc38
00000020: 2001 5638 02bf 9738 49c5 1138 7d20 8838
00000030: 91b6 1638 ba40 0d38 5a87 0538 551e 3d38
00000040: 1fc8 2738 7e6e 0938 c8b9 9d37 5723 1338
00000050: 516e 4937 20d8 1938 4e87 b337 3e10 c237
00000060: 2cc2 9e36 f642 0538 8126 a737 edc2 2138
00000070: ecfe b337 bced 1738 c533 4838 bfd0 1738
00000080: c9df 4738 5cda 2038 f1d3 7337 825c 3338
00000090: 175b 4638 53bb 7638 89e0 7738 8c34 1238
3.672328e-05 0.00029079616 4.4340715e-05 0.00021105976 2.8560415e-05 2.5070574e-05 5.9970927e-05 9.731241e-05
5.1022624e-05 7.235819e-05 3.475443e-05 6.491037e-05 3.5932815e-05 3.36773e-05 3.1835727e-05 4.508936e-05
4.000228e-05 3.276625e-05 1.880237e-05 3.5080444e-05 1.2006219e-05 3.6679325e-05 2.1401469e-05 2.3134166e-05
4.7313715e-06 3.1772033e-05 1.9925881e-05 3.856693e-05 2.145717e-05 3.6222613e-05 4.773193e-05 3.6195615e-05
4.7653713e-05 3.8350336e-05 1.4533275e-05 4.276308e-05 4.7291713e-05 5.882543e-05 5.9098504e-05 3.485805e-05

exp_avg f4 [60, 40]
00000000: 6951 5aba 1e09 a1b9 adba ea39 0b22 3339
00000010: dde7 ef37 02b6 1d39 bbff eeb9 d43b 8439
00000020: ba32 58ba be74 0638 b8ef c0b9 601b 2338
00000030: 03f3 3d39 ac21 a5b9 45df 7338 6dbe 7f38
00000040: 4fff d437 4816 0239 db20 06b9 a171 0839
00000050: bc6e 6cb9 3b73 4c38 ebb5 8938 ae8f 1f39
00000060: 6426 8db8 4a0d a538 b31e a037 c69f 7039
00000070: 9052 7239 e3a5 0639 48e2 163a 915b 2639
00000080: c7c2 133a bd17 0238 dfa3 9cb9 1bec 7339
00000090: 89bc 39ba a2d4 d338 4c3d ea39 2523 d0b7
000000a0: acd6 7439 7ac5 f4b9 74f9 ffb9 1653 96b8
000000b0: 337d aab9 d440 8c37 dcad 7038 0830 5338
000000c0: aa4d 3a38 55f0 82b9 b74d 8436 ad47 6db8
000000d0: 99b0 41b9 16ef c938 903b 22b9 0680 fe38
000000e0: 4fc9 f4b9 e0b8 b2b8 8862 0a39 cb7d 8c38
000000f0: 65f6 0cb8 78e1 20b9 f2ff b1b9 fe9f f638
00000100: a5d6 a2b7 a450 b738 ad52 88b9 09ee 2833
00000110: 8841 8db9 55f8 8939 e124 8bba c93a 61b6
00000120: d5e8 0eba d5fa 2837 b1ba 2739 74cf 94b8
00000130: 4410 b839 96a6 f638 9eb5 96ba c9b5 9fb8
00000140: e51c 7fba e88f 2936 e535 613a ff48 1538
00000150: ad0f 9a39 16e8 65b7 e29f f6b9 2524 dab7
00000160: 7ac0 42ba e948 4039 4609 b6b9 646e 3938
00000170: c34b 9039 851a 97b9 bad4 6639 7786 6ab8
00000180: 387f ec39 432d 0239 1a37 65b9 e4b4 c4b7
00000190: 6596 22b9 ad2b d038 844b 3b39 2d73 16b9
000001a0: db83 adb8 7091 b238 bb53 ba38 706e 0039
000001b0: 27c6 a839 12d8 5339 f153 093a ba81 7a38
000001c0: 2559 5f3a d48a d637 f977 62b9 0971 a337
000001d0: b3e0 4aba ed1b 2fb8 1987 3c3a 452c 6638
000001e0: c1dc a23a a60c 6e3b fbba 33b9 ed73 a9b9
000001f0: ebfd b239 3d3e c539 94d4 483a 6ca1 d5b8
00000200: 9fe6 e03a cc26 5839 d903 393a f93e d5b8
00000210: 1630 ceb7 17d7 7db9 67a3 7b38 407e d7b8
00000220: 6981 ab39 f8f2 a237 7524 8b39 865f f6b9
00000230: 1f95 163a b21d 64b9 d005 7b39 a2fb e2b9
00000240: b17b 8d39 9023 9b37 1dd9 8b39 89e3 8ab9
00000250: c42c b7b9 5b9d 0a39 705c 21b8 7d86 69b9
00000260: 7bfd 62ba fcf9 2fb9 3959 093a 3d06 b2b9
00000270: 158d 9e3a 2541 d9b8 0a09 83b8 2095 c1b9
00000280: f235 26ba c3ff 61ba e6bc cf37 5452 1c3a
00000290: f772 36b9 8334 cdb7 8551 d7b9 0d94 8939
000002a0: ec51 48ba ad15 c7b8 b092 b1b9 dfb3 4039
000002b0: f2d3 d736 5fee dbb8 5dd9 1cb9 5629 d238
000002c0: cbd1 beb8 0703 21b8 d0d4 63b9 a132 5039
000002d0: 8030 b7b9 a0e0 fb38 40d5 53b9 fa81 2c39
000002e0: 9d13 51b9 3709 1139 92c8 5ab9 c951 8839
000002f0: 5d44 0838 9faa 9039 43b4 d237 2408 b139
00000300: a1f4 9e39 1772 5c39 2c2a aab9 cc11 6a39
00000310: 0c66 44ba 27d6 2c39 bb48 c238 7d8b 6339
00000320: bef2 3aba 090f 3f39 561a 483a e860 cf38
00000330: 0bd7 a839 bd64 84b9 20da 93b9 a4ff dab8
00000340: 19c6 0eba 9fe3 d738 81f8 55b9 7f62 ea37
00000350: b44b a039 6cd3 5c38 e5a0 5b39 f5ce e937
00000360: 0211 d839 cbd6 4038 971e d6b8 27b8 c438
00000370: 144c 71b8 23c6 ddb7 c64d 4e39 f458 fab8
00000380: 7bff 6836 a613 8d38 6e08 0039 c43c 7538
00000390: a845 9539 1009 98b7 c9d1 043a 71ef b936
000003a0: 3abc 233a 46e1 6038 32f5 a1b8 0328 44b8
000003b0: 46fe fbb9 fd53 eeb7 d9a6 e039 08d0 9435
000003c0: 9871 a439 4110 0fba da93 b039 5528 a23a
000003d0: 2d37 8639 f99b be39 d208 9239 00d5 0336
000003e0: 30a3 0c3a 2ac1 eeb9 2c49 bd39 5741 73b9
000003f0: 93d5 9c39 c2bc c2b9 9e73 a539 a7d8 cbb9
-0.0008328171 -0.00030715106 0.00044771042 0.00017083452 2.859899e-05 0.0001504049 -0.00045585432 0.00025221577
-0.0008247305 3.2056814e-05 -0.00036799698 3.8887723e-05 0.00018114973 -0.0003149634 5.814365e-05 6.0974085e-05
2.5391257e-05 0.00012406067 -0.00012791475 0.00013012301 -0.00022547966 4.8744707e-05 6.566554e-05 0.00015216946
-6.730555e-05 7.8702884e-05 1.9087782e-05 0.00022947704 0.00023109675 0.00012841033 0.00057557644 0.00015865105
0.0005636629 3.1016523e-05 -0.00029876732 0.00023262242 -0.0007085284 0.0001010087 0.00044677628 -2.4811898e-05
0.00023349625 -0.00046686438 -0.00048823247 -7.168033e-05 -0.00032518207 1.6719488e-05 5.7382378e-05 5.0351053e-05
4.4418186e-05 -0.00024974594 3.9429538e-06 -5.6571957e-05 -0.00018471702 9.62896e-05 -0.00015471713 0.0001213551
-0.00046689293 -8.522137e-05 0.00013197411 6.699151e-05 -3.3608074e-05 -0.00015342783 -0.00033950765 0.00011759995
-1.9411857e-05 8.7411405e-05 -0.0002600154 3.933204e-08 -0.0002694244 0.00026315698 -0.0010615849 -3.356183e-06
-0.0005451565 1.0071982e-05 0.00015995909 -7.095831e-05 0.00035107334 0.00011761223 -0.0011498218 -7.615571e-05
-0.00097317836 2.5266727e-06 0.00085911 3.559235e-05 0.00029384848 -1.37035e-05 -0.00047039898 -2.6004456e-05
-0.0007429194 0.00018337708 -0.00034720654 4.4210246e-05 0.00027522267 -0.00028820723 0.00022013756 -5.5915178e-05
0.00045108213 0.00012414627 -0.00021859669 -2.3449255e-05 -0.0001550555 9.926348e-05 0.00017861841 -0.00014348021
-8.273843e-05 8.514791e-05 8.884767e-05 0.00012248172 0.00032191092 0.0002020302 0.00052386435 5.9725462e-05
0.00085200585 2.5575435e-05 -0.00021597733 1.948375e-05 -0.0007739171 -4.174926e-05 0.0007191762 5.4877502e-05
0.0012425409 0.0036323457 -0.00017140426 -0.00032320563 0.0003413999 0.0003762114 0.0007661071 -0.00010186699
0.0017158574 0.00020613818 0.0007057763 -0.00010168361 -2.4579505e-05 -0.00024208087 5.9995244e-05 -0.00010275515
0.0003271208 1.9425046e-05 0.0002653931 -0.00046991947 0.00057442667 -0.00021754837 0.0002393939 -0.0004329356
0.00026985773 1.8494e-05 0.00026673908 -0.00026490938 -0.00034937833 0.00013219325 -3.847148e-05 -0.00022270712
-0.00086589874 -0.00016782427 0.00052394305 -0.00033955454 0.0012096489 -0.000103595004 -6.2482504e-05 -0.00036922935
-0.0006340436 -0.00086211803 2.4764286e-05 0.00059631956 -0.000173997 -2.4462357e-05 -0.00041068732 0.00026240983
-0.0007641602 -9.493097e-05 -0.00033869362 0.00018377554 6.432173e-06 -0.00010487134 -0.00014958293 0.0001002128
-9.098983e-05 -3.838821e-05 -0.00021727686 0.00019855287 -0.00034940615 0.00012010452 -0.0002020197 0.00016451618
-0.000199391 0.0001383171 -0.00020864818 0.00026000876 3.2488595e-05 0.00027592943 2.5117892e-05 0.00033766136
0.0003031837 0.00021023337 -0.00032456347 0.00022322609 -0.0007492013 0.00016482976 9.264188e-05 0.0002170037
-0.00071315083 0.0001822078 0.0007633319 9.8885794e-05 0.00032203677 -0.00025252058 -0.0002820054 -0.00010442667
-0.0005446389 0.000102943966 -0.00020405838 2.794084e-05 0.0003057398 5.264899e-05 0.00020945405 2.7872136e-05
0.00041211402 4.597641e-05 -0.00010210013 9.380309e-05 -5.752973e-05 -2.6437518e-05 0.00019674664 -0.00011937498
3.4719403e-06 6.727064e-05 0.00012210172 5.8469144e-05 0.00028471393 -1.8124032e-05 0.0005066661 5.5413043e-06
0.00062460045 5.3615564e-05 -7.7227494e-05 -4.6767305e-05 -0.000480639 -2.8410921e-05 0.0004284892 1.1087404e-06
0.00031365152 -0.0005457439 0.00033679494 0.0012371639 0.0002559958 0.00036355833 0.00027853862 1.9644503e-06
0.0005364893 -0.00045538816 0.00036103406 -0.00023198627 0.00029913764 -0.000371432 0.00031557394 -0.00038880596
