data/checkpoints/BINCTABL/BTC_seq_size_10_horizon_50_seed_42/pt/val_loss=1.005_epoch=1.pt (torch, 167569 bytes, 42 tensors)

model.BiN.B1 f4 [10, 1]
00000000: 0d5d 5a3c 3c32 8abd 3c85 9fbd c8e7 3d3b
00000010: e7fa ccbd c1b6 b83d 6a07 143e 3619 0f3d
00000020: 2031 e83d fbde 903d
0.013327849 -0.06747863 -0.07789084 0.0028977264 -0.10008793 0.090192325 0.14455953 0.034936152
0.11337495 0.0707378

model.BiN.l1 f4 [10, 1]
00000000: 0068 d23e 419f 98be db0a c43c c50f c23e
00000010: bff0 d8be 8a19 e93e 9278 553f 0dea 813e
00000020: 2194 193f 6584 c93e
0.4109497 -0.29809 0.023930958 0.37902656 -0.42371175 0.45527297 0.833871 0.2537388
0.5999165 0.39358822

model.BiN.B2 f4 [40, 1]
00000000: cda8 dfbc 7f25 1f3b 476e adbd f323 bebc
00000010: fc4b 263e 20e0 cc3c 38f9 86bc 0adf 6f3d
00000020: 0455 883d 38ac 583e e417 38be e146 053e
00000030: 7280 b7bd 387f 753d 1e03 46be e739 9f3d
00000040: 1ea4 0a3e 17bb b93d e184 33be dbed dd3d
00000050: 53b2 26be 4558 8d3d 1569 f1bd 5b0c b33d
00000060: 8c82 b0bd 9217 2a3d e2f4 28be bd04 723d
00000070: aa74 c1bd 148f 753d a8bf d13d edc4 ca3d
00000080: 13b2 bebd 58f4 c73d d453 96bb 19d3 d33d
00000090: d605 a8bd 887b 5c3d bc1e 8cbd 8a44 273e
-0.02730217 0.0024283824 -0.08468299 -0.023210501 0.16239923 0.025009215 -0.016476259 0.058562316
0.066568404 0.21159446 -0.17977864 0.1301532 -0.08960046 0.05993578 -0.19337127 0.07774716
0.13539168 0.09068888 -0.17531158 0.10836383 -0.16278963 0.06901602 -0.11787621 0.08742591
-0.0861865 0.041526385 -0.16499665 0.05908655 -0.0944608 0.059950903 0.10241634 0.09900842
-0.09311309 0.09763402 -0.00458763 0.10342998 -0.08204238 0.053828746 -0.068417996 0.1633474

model.BiN.l2 f4 [40, 1]
00000000: f439 bcbe 6d5f 383e 343b 873e b002 3b3e
00000010: 0281 173e 9362 ca3d 6c97 77be 5852 e73d
00000020: b89d d4be 724f e23d 0450 22be 780b a43d
00000030: ad86 a13e b175 973d a085 f93d 0b38 ae3d
00000040: 4e3a d33e 3e7f 8a3d 9b74 303d f0be 743d
00000050: e156 51be ae29 993d f69c 283f acb7 ef3d
00000060: 1a83 b23e 018d 6c3d 4702 913e 9ed4 1e3d
00000070: 5811 1c3f aa50 8b3d 719a 2a3f fa50 103d
00000080: be40 d93e d7d0 cb3d fc94 cbbe 50aa 893d
00000090: 1821 f2be d5bd 043d 936d f53e 9e06 843d
-0.36762965 0.18005152 0.26412356 0.18262744 0.14795306 0.09882083 -0.24178857 0.11295003
-0.4152658 0.11050309 -0.15850836 0.0801 0.31548062 0.07395495 0.1218369 0.08506783
0.4125542 0.06762551 0.043079954 0.059752405 -0.20443298 0.07478653 0.65864503 0.117049545
0.34865648 0.05775166 0.2832205 0.038776986 0.60963964 0.06802495 0.6664191 0.035233475
0.42432207 0.099519424 -0.39762104 0.06721938 -0.47290874 0.0324076 0.4793516 0.06446575

model.BL.W1 f4 [60, 40]
00000000: 5e2e 18bc e145 923d e14f d1bc 2a11 4a3c
00000010: 6071 0fbe cb19 39bd 015a 863e 3c95 a3be
00000020: b3f6 843e 2949 2c3e 3eea 3f3e d915 55be
00000030: 4e49 74be dc58 2f3e e70c 40bd ff19 39bd
00000040: 4164 603d c766 f93d 9332 5fbe a586 7cbc
00000050: 8128 ab3e 8c77 003e 3408 86be e7e5 81be
00000060: 0ef2 56be 3443 243e 73c2 30be de69 42be
00000070: 7fe3 c13d f517 4dbd b48f 6abe ad66 e9bd
00000080: 20ed 11be 6a2c 173b 6d04 943e 081d 423d
00000090: f7b2 ff3d 476a 743c cae8 90be 4d8b b3bc
000000a0: dc57 0dbe 97f1 15bf 350f 90bd 0aa2 4ebe
000000b0: 9746 7b3d ab2c 20bd 7c36 c9bd ff1e e1bd
000000c0: 7c77 9dbe bbbc 0cbe 9596 04be c1ae c1bb
000000d0: c3d4 733e 5e60 32bd 8bec 1c3e 4735 143f
000000e0: edd4 23be 713a 1bbd 012c cfbd aff9 553e
000000f0: 34c5 6dbe 92af 84be d7b4 7abc 0235 c33d
00000100: e30a 873d 6740 acbe 3fdd 043e cc62 113e
00000110: 9a18 05be 4b4c 413e ce6e 913d 7a2c 033f
00000120: 942a 183e 0945 86be d7d0 903d 9a80 db3d
00000130: 1de6 b9bc d960 66be 07f7 053e 09d8 763d
00000140: 9849 713e 7610 163e 4032 eebb 6622 1abf
00000150: a934 6b3e 9b42 083e e618 bd3d 181c 81be
00000160: 3637 ac3d 94b0 11bd 9a5a 96bd dcf3 e4bc
00000170: b7b8 9a3d 5220 32bd ac40 13be 94c1 d7bd
00000180: 4c77 143e a30d f73d 59ef 0abe eb58 97be
00000190: f0a7 f4bd d459 b33e e9da 3d3e 80c9 0cbf
000001a0: f144 df3a 2c53 8a3e 598a 87bd 779a 0fbe
000001b0: 1b59 a53d 2f44 7e3e a839 903d 92a1 45be
000001c0: 7683 73bd cc30 ee3d 5f21 6c3d 9e4c 40be
000001d0: 1f23 c03d 9e41 883e f3d2 2ebe 0cf0 36be
000001e0: 7369 11be ef4a e13b 4931 463e fd31 ad3c
000001f0: 6f5b 8bbe c9d9 72bd 69b8 613d 169f 9dbd
00000200: 19c3 653e 7360 65bd 2079 5fbe 984a d53c
00000210: 1b3c 80be f2bc 4abd 5a8e a33e 29c7 25bc
00000220: 1ef1 e9be 3128 fabc b4a0 a93d f27f 6d3c
00000230: 6271 5a3e 2d6d 973c 6e0b 053f d9a5 adbd
00000240: 232c dfbe c48c ad3d 72f4 9d3e a7c5 863d
00000250: c156 1abf 5b31 633c 1bc6 233f 5992 97bc
00000260: c42b 1ebf 67d6 803d 61b4 f4be 1f2d b93c
00000270: c546 fe3e 139c d63c b740 1a3f e7d3 0a3d
00000280: a9c3 803d 8dad 40bf 6912 6dbe 891a 17bf
00000290: 92bc c23d eb70 d8bc 1516 6b3c 6943 553d
000002a0: 9fe2 97bd 3e08 cf39 741b 87bd c947 08bd
000002b0: c4ee 223c 515c 483e eac0 cabd 751f 82be
000002c0: 71a5 97bd aaed 88bd 80c6 53bd b093 3dbe
000002d0: 44a3 663e 2e5a 05bd d4b1 483d 86f4 fe3c
000002e0: 0ec0 663e 4b34 d4bd 62e3 ce3d 8b73 e0bd
000002f0: 3ec9 1f3e 394c 843e a28a 18be 7de7 38bd
00000300: 3076 07bb ee61 10be f4d9 2f3e f769 c5bd
00000310: 61e5 4c3e b3b1 423d 4ece 673e 0dc8 983d
00000320: d4bd 4bbe d7cd f63d 65a5 843e b42b 14bf
00000330: 173b 813c 1877 3d3d d331 2abd 48fd a3be
00000340: d4b3 2fbd a6a8 ebb8 e605 f8bd 7b7a 363e
00000350: 97f5 703e 385c e13d 1861 753d 0c4b 463e
00000360: 20e3 f8bd 1a5e 3bbe 3794 143e 6b48 74be
00000370: 2ef9 4fbd 6ef6 cbbd f651 a5bd 9c78 5abd
00000380: 9ddd 023d 57ca 79bd df5b c0bd e6fb a53c
00000390: 7e11 1dbe 3290 9f3e 1013 fabd 5329 9b3e
000003a0: 76cd adbd 7691 88bd f35b b23e b0ce 12bc
000003b0: 9ac5 a5bd bd5a dbbc ac66 f93d a09d 553e
000003c0: 69de 8c3d 2abc cc3e 36ce 0d3d 3cf9 943d
000003d0: 0f95 59be d6b3 503e 495d e73d a539 3b3e
000003e0: a4b4 4dbe bf88 08be 6b2b c9bd 9d50 75be
000003f0: 4146 55be e749 b1bd 423e 483e 30aa 3dbc
-0.009288399 0.071422346 -0.025550785 0.012333194 -0.14008093 -0.045190614 0.26240543 -0.31949794
0.25969467 0.16824783 0.187417 -0.20809115 -0.23856089 0.17123741 -0.046887305 -0.045190807
0.05478311 0.12177806 -0.21796636 -0.015412961 0.3342934 0.12545604 -0.26178133 -0.25370714
-0.20990774 0.16041261 -0.17261676 -0.18985698 0.094672196 -0.050071675 -0.22906381 -0.11396537
-0.14250612 0.0023067244 0.28909627 0.047390968 0.12485307 0.014917917 -0.28302604 -0.02191701
-0.13803047 -0.5857176 -0.070341505 -0.20179 0.061346617 -0.0391051 -0.09824845 -0.1099224
-0.30755222 -0.1374387 -0.12948067 -0.005910725 0.23811631 -0.043548934 0.15324609 0.57893795
-0.15999193 -0.03789753 -0.10115815 0.20896028 -0.23219758 -0.259152 -0.015301905 0.09531595
0.06593873 -0.33642885 0.12975024 0.14197844 -0.12997666 0.1887676 0.071012124 0.5123974
0.14859992 -0.26224545 0.07071083 0.10717888 -0.022692734 -0.22497882 0.13082515 0.06026462
0.2356323 0.14654717 -0.007269174 -0.6020874 0.22969307 0.13306658 0.092332646 -0.25216746
0.08408968 -0.03556879 -0.073414996 -0.027948312 0.07554763 -0.043487854 -0.14380139 -0.10534969
0.14498633 0.12063148 -0.13567866 -0.29560027 -0.11946094 0.3502947 0.18540539 -0.54994965
0.0017034096 0.2701658 -0.066181846 -0.14023767 0.08073636 0.24830697 0.07042247 -0.19299915
-0.059451543 0.11630401 0.057649013 -0.18779227 0.09381699 0.26612562 -0.17072658 -0.17865008
-0.14200382 0.006875388 0.19354738 0.021142 -0.27218196 -0.059289727 0.055107508 -0.07696359
0.22437705 -0.056000184 -0.2182355 0.026036546 -0.25045857 -0.0494966 0.31944543 -0.010118284
-0.4569177 -0.030536743 0.08282605 0.014495837 0.21332315 0.018484676 0.51970565 -0.084788986
-0.4358836 0.084741145 0.3085056 0.06580668 -0.60288626 0.013866748 0.6397416 -0.018502401
-0.6178553 0.06290894 -0.47793868 0.022604523 0.49663368 0.026197469 0.60254997 0.033893492
0.06287319 -0.7526482 -0.23151554 -0.59024864 0.09508623 -0.026421031 0.0143485265 0.05206624
-0.074162714 0.00039488258 -0.06597033 -0.033271585 0.0099446215 0.19566466 -0.09900077 -0.25414625
-0.07404602 -0.06685956 -0.051702976 -0.1851337 0.22523218 -0.032556705 0.048997715 0.031122457
0.225342 -0.103615366 0.101019636 -0.10959538 0.15604112 0.25839403 -0.14896634 -0.04514264
-0.002066981 -0.14099857 0.17172986 -0.09639352 0.20009376 0.04753275 0.22637293 0.07460032
-0.19896632 0.120509796 0.25907436 -0.57879186 0.015775247 0.046256155 -0.041551422 -0.32029176
-0.042896107 -0.000112370864 -0.121105 0.1782016 0.23531185 0.110039175 0.05990705 0.19364566
-0.12152696 -0.18297616 0.14509664 -0.2385575 -0.050774746 -0.09959112 -0.080722734 -0.05333768
0.03194963 -0.060983982 -0.09392523 0.020261716 -0.15338704 0.311647 -0.12210667 0.30304965
-0.08486454 -0.066683695 0.34835777 -0.008960411 -0.0809433 -0.026776666 0.12177786 0.2086091
0.06878359 0.39987308 0.034620486 0.072741 -0.21248268 0.20381102 0.112970896 0.18283708
-0.2008844 -0.13333414 -0.098227344 -0.23956533 -0.20827581 -0.08656674 0.19555 -0.01157622

model.BL.W2 f4 [10, 10]
00000000: 7934 7e3f d9b1 2e3e a4bf 403d 5092 063e
00000010: 4752 90be fb93 05be 1acf 133d 9ea5 12bf
00000020: 30a3 d53c 77b2 91be cb12 0ebe 4ac9 033e
00000030: dd60 eb3d 8b56 353b 9d7e ffbe 518f f93e
00000040: ab92 02bb cfea 71be 82d8 0ebf 15f0 dd3d
00000050: 5168 cc3d ed23 0b3e 4ef7 153d e56a fe3d
00000060: 0d37 e93e 5690 243d 2ecb 89bc 3d76 54be
00000070: f005 0cbf f08f 9ebe 2f70 86bf 07cc 823e
00000080: 9794 ecbc 9833 93bd 7c94 70bf 2164 2f3f
00000090: 63e6 2cbe 37d1 503f 2bea 113e bd62 1abf
000000a0: 9ef7 2a3c 5764 333f 7574 293f 1211 50bd
000000b0: 82d6 d03e dba3 c8be 634d d0be 4f85 8a3e
000000c0: 5a5a 91be e082 0c3f e4aa 2b3d 52a8 06bf
000000d0: 9a0c 833f c346 cb3e fc3f 6cbe dada 10bf
000000e0: 5b71 b4be fb0e e9bd eb65 e13e e79f 28be
000000f0: 333d 603c d37b da3e b4bc 89be b960 64be
00000100: 7d24 513f 6131 ad3d d6e7 4ebf f251 2c3d
00000110: ae10 643e 0f9c d93d ff72 7ebe 391a 95be
00000120: ba61 94bf c9cc b2be 70f9 573e 03c0 9cbe
00000130: 36c9 9e3f 1200 a5be 4c4b d93e 9c4f c5be
00000140: 6ada cbbe fbb9 953e eaec 0a3e 4289 98bd
00000150: 10fa b2be 99ec a83e 94b5 2b3f b5e2 0fbf
00000160: 8a4a fc3d bf68 943c 34ca 3a3f 1424 2abe
00000170: d28c 473f 06e8 babd 6a01 0d3e 26e6 633f
00000180: adfa 0d3e 99d2 8d3f c67f 2d3f 7561 563e
0.99298817 0.17060031 0.047057763 0.13141751 -0.28187773 -0.13044731 0.03608618 -0.5728396
0.02607879 -0.2845647 -0.13874356 0.12869754 0.114930846 0.0027669992 -0.49901286 0.48742154
-0.0019923847 -0.23624729 -0.55799115 0.10836808 0.09980834 0.13587923 0.0366128 0.12422732
0.45549813 0.040176712 -0.016820516 -0.2074823 -0.5469656 -0.3096919 -1.0502986 0.25546286
-0.028879447 -0.07187575 -0.9397657 0.6851216 -0.1688476 0.81569237 0.14249484 -0.6030691
0.010435013 0.7007498 0.66193324 -0.05079753 0.40788656 -0.39187512 -0.4068404 0.2705483
-0.28389245 0.548872 0.04191102 -0.52600586 1.0238221 0.39702424 -0.23071283 -0.5658394
-0.35242733 -0.113798104 0.4402307 -0.16467248 0.013686466 0.42672595 -0.26901782 -0.22302522
0.816963 0.08456684 -0.80822504 0.042070337 0.22271988 0.10625469 -0.24848555 -0.2912157
-1.1592324 -0.34921864 0.21091247 -0.30615243 1.2405155 -0.32226616 0.4244026 -0.385373
-0.39815074 0.29243454 0.13566938 -0.07448055 -0.34956408 0.3299301 0.6707394 -0.562053
0.12318905 0.018116353 0.7296479 -0.16615325 0.7794925 -0.09126286 0.1377007 0.89023054
0.13865156 1.1079894 0.6777309 0.20935614

model.BL.B f4 [60, 10]
00000000: db0b a0bd b6fe 943e 72e6 b6be a037 4a3e
00000010: 09ba c6bc 8098 a4bd 100b 21bc 52e6 b93c
00000020: f898 f5be 380c 1abf 555e 88bc ad0e 073e
00000030: 1d64 ebbc 94b0 a83d 8ef4 42be e00b 48be
00000040: 282c 2abd bd3f 20be 8330 103e 365d acbd
00000050: 01f6 debd 4713 783e aa73 babd e586 ccbd
00000060: 807d 37bc eba9 d8bd c825 af3c c670 47bd
00000070: 594e 5cbe 2dac 09bf 2598 44bb 5650 bebe
00000080: adcd 193d 3642 533d 8bee cabc db93 3dbd
00000090: 91d5 41bd e83c 95bc 78c1 a2bd 36b2 6c3e
000000a0: 4dbb 32be 0f69 a1be 642a 2dbd 3662 bcbe
000000b0: afaf cdbd 43c0 6ebe cd3b 48be ac96 adbd
000000c0: 439e a8bd f7b7 4fbe 0443 94be c3da b1bd
000000d0: 3f53 133e a305 d33c f3be cb3d e58d 213e
000000e0: 9cae 6cbf 0461 d43d 66b4 1d3d c7c7 aabd
000000f0: 67fd 8ebe 16c5 a33b 6c06 c7be 90b0 033e
00000100: a50a 12be 81b6 0ebb c34f 31bf e988 02be
00000110: 7b6f 933c cdd6 53be 9c68 033c a4e5 cd3d
00000120: de33 963c e469 c03d af06 97bd 462d cfbd
00000130: 7199 6bbf 28dc 1abb c79a 87bd d421 eabd
00000140: daef bdbd 22df 393e c3ed 86bb c337 cdbe
00000150: 9d3f 89bd 8e20 dfbe 1f1f 533b 2b7d 20bd
00000160: 5d98 45bf 19bf dc3d 89d2 2abe e42e 57bd
00000170: 9565 73be 365e e2be 5a4a 10be 5c81 4dbe
00000180: a03b 03be 7e95 1fbe 73c3 7fbe 76ec 22be
00000190: 726d 10bd 9709 a5be ab78 1abc c95a 7cbe
000001a0: 8739 81bb 3ad0 c83c d17f cbbc 5734 86bc
000001b0: 5519 d8bd 4810 aa3e b10b d3bd 4202 0ebf
000001c0: ab76 fbbc 7615 0f3e c303 2f3d da32 993d
000001d0: 9157 283d e0cc ebbd 7f95 e83d 7212 b83d
000001e0: 4702 c9bd 1763 de3c fc23 593d 6c01 5cbe
000001f0: 9497 86bd ff12 08bf 39d4 c5be 1277 593c
00000200: 0b16 a6be 2de6 b7be 969f 46be ab45 0dbf
00000210: aefb 14be 2176 df39 ba02 4abd 720b 13be
00000220: 7fda 9a3a badd 51bd dce2 ecba 49d9 3f3e
00000230: 6430 9c3c 63b1 a03d 63a3 17be affc f73d
00000240: 50a2 07bd 4b8d 5cbf 801f bdbd e45b 87bd
00000250: 1445 6dbf 4dbc 06be eab8 403d 377b f03c
00000260: 118f 403d a9d7 9fbc 4b83 76be 8e22 32bd
00000270: 21df 913c 2d8a 043e 1027 c13d dce1 d1be
00000280: 0105 923d a880 94bd 5721 abbd 6211 dbbd
00000290: d281 7fbd 94c7 2fbf 3a26 a9bd 109d 37be
000002a0: 9296 5cbf 820c 6fbe b2ff b4bc 12c1 873e
000002b0: a794 15bf bc89 0dbf 2ee4 92be 60c1 a5be
000002c0: a493 2ebe 5a3e 4f3b 5eee a2be ce99 133e
000002d0: 6cb2 38bd 2a1c 8abc 7d14 8f3c 91a4 3c3e
000002e0: 1d13 0cbd c0ac b6be 41b1 8ebd cff0 1abd
000002f0: d1c5 55be 308c f03d 5e54 e7bc 6dc6 c7be
00000300: 85e1 76be c796 a2be d63e 9dbd e051 5bbe
00000310: cc2f 5fbd 1dae 9d3c 79e6 f8bc e74c 883e
00000320: c3be fabd 6b2e d1be 3cc6 7bbd 7cb2 e73d
00000330: 458c 24bd a52e 3e3d d2a3 f6bd b7ba 79be
00000340: 05bd 073e 1d82 0a3e 24fa f1bc 0c04 2abd
00000350: 4c82 72bc f275 d63d 08a4 d9bc 3388 23be
00000360: b8eb c53c 9f29 0e3d 74cb 81be 63d8 5d3e
00000370: 9abf 88be 9f9a 2bbf feaf f0bc 8e6b a5bd
00000380: b7c9 ccbc acfe 363d cd56 f13c a93e 8ebd
00000390: a323 54be 7b50 243e 96b1 e8be 09cd 1c3e
000003a0: e59e 393d f694 fc3c 42ce 703d 8af3 97bd
000003b0: fd6d 32be 340f 393e 6bb0 ae3d 4fe7 dbbe
000003c0: bf49 79bc b5cf 79bf c245 0dbe 6346 68be
000003d0: ce8b 4ebd c209 6fbe b8e1 f63c 6d4d 43be
000003e0: c113 07be 5d13 d43d b183 e6be 86c3 55be
000003f0: 226b d8be 1bb1 e6be 93d6 0cbf 47ab 26be
-0.07814761 0.2910058 -0.3572269 0.19747782 -0.02425863 -0.080368996 -0.009829298 0.022692833
-0.47968268 -0.60174894 -0.016646544 0.13189192 -0.028734261 0.082368046 -0.19038603 -0.1953578
-0.041546017 -0.15649314 0.14081006 -0.08416216 -0.10886765 0.24226104 -0.091040924 -0.099866666
-0.011199355 -0.10579284 0.02138032 -0.048691534 -0.21514262 -0.53778344 -0.0029997912 -0.37170666
0.037549663 0.051576816 -0.02477195 -0.046283584 -0.047322813 -0.018217519 -0.079470575 0.23114857
-0.17454262 -0.31525466 -0.042276755 -0.3679368 -0.100432746 -0.2331553 -0.19554062 -0.08476004
-0.08233311 -0.20285021 -0.2895738 -0.086843036 0.14387225 0.025759524 0.0994853 0.15776785
-0.9245393 0.10370067 0.03850212 -0.08338886 -0.27927706 0.0049978597 -0.38872087 0.12860322
-0.14261873 -0.0021776261 -0.6926233 -0.1274754 0.017997494 -0.20687409 0.008020546 0.10053566
0.01833528 0.09395197 -0.07374322 -0.10116057 -0.9203101 -0.0023629759 -0.06621318 -0.114322335
-0.09274264 0.18151525 -0.004117699 -0.40081605 -0.067015864 -0.43579525 0.0032214595 -0.03918187
-0.7718561 0.107786365 -0.16681875 -0.052534953 -0.23769219 -0.44212502 -0.14090863 -0.20068878
-0.12815714 -0.1558437 -0.24976902 -0.15910515 -0.035260625 -0.3223388 -0.009428184 -0.24644007
-0.0039436254 0.024513353 -0.024841221 -0.01638238 -0.10551707 0.33215547 -0.10304964 -0.55472195
-0.030696234 0.1397303 0.042728197 0.07480402 0.041099135 -0.11513686 0.11356639 0.08987893
-0.098148875 0.02714686 0.053012833 -0.21484917 -0.0657188 -0.53153986 -0.38638476 0.0132730175
-0.32438692 -0.35917798 -0.19396815 -0.5518443 -0.14549133 0.00042621887 -0.049319007 -0.14359835
0.0011814384 -0.051236846 -0.001807298 0.18735231 0.019066043 0.07846334 -0.14808421 0.121087424
-0.033113778 -0.86153096 -0.09234524 -0.066093236 -0.9268353 -0.13157769 0.047051348 0.029355628
0.04701144 -0.019512014 -0.24073522 -0.043489985 0.017806591 0.12943335 0.09431279 -0.4099263
0.07129861 -0.07251102 -0.083559684 -0.10696675 -0.062379666 -0.6866391 -0.08259244 -0.17931008
-0.8616725 -0.23344615 -0.022094581 0.26514488 -0.5842995 -0.5528829 -0.28689712 -0.32374096
-0.17048508 0.0031622858 -0.31822485 0.1441414 -0.04509203 -0.016859133 0.017465824 0.18422152
-0.034197915 -0.35678673 -0.06967402 -0.03782731 -0.20876242 0.11745489 -0.028238472 -0.39018574
-0.24109466 -0.3175566 -0.07678001 -0.21417952 -0.054488942 0.019248063 -0.030383335 0.26621172
-0.12243416 -0.40855727 -0.061468348 0.1131334 -0.040172834 0.046431202 -0.12042965 -0.24387632
0.13255699 0.13526197 -0.029538222 -0.041507766 -0.014801573 0.10471715 -0.026567474 -0.15969925
0.024160251 0.03470766 -0.25350535 0.21664576 -0.2670868 -0.6703281 -0.029380795 -0.08077155
-0.024998529 0.044676468 0.029460335 -0.06945545 -0.2071672 0.16046326 -0.45447987 0.1531259
0.04531755 0.030832749 0.058790453 -0.07419498 -0.1742477 0.18072206 0.08529743 -0.42949912
-0.015215336 -0.9758256 -0.13796142 -0.226831 -0.050426297 -0.23343566 0.030136928 -0.19072504
-0.1319113 0.10355256 -0.45022348 -0.20875368 -0.42269236 -0.45056996 -0.55014914 -0.16276275

model.BL2.W1 f4 [120, 60]
00000000: 0c8e bfbd eea5 19be b82e 5abe 24bb 9e3d
00000010: b424 32be 6523 3fbd b692 593d b966 d9bc
00000020: a50e b0bd 98c7 d9bc fa29 9d3d 3686 95bc
00000030: a718 b5ba 4570 3bbe cf61 8fbd 109c 8c3d
00000040: 4902 2ebe d6f5 443d 29da d53c 7abc babc
00000050: 18bc 30be 534d 01be 3d01 803c ba59 bb3d
00000060: 9c11 82be d576 3a3c 5fba 0fbd ffdf 85bd
00000070: be00 5ebd 65d6 a43d 2442 b4bd e2f6 053d
00000080: 028e a83d aef6 ad3c 94a9 2e3d 976f cfbb
00000090: b1df dbbd 7955 16be c48f 293d 1467 16bd
000000a0: f908 c7bd 1d0c c0bd ec4b 86bd cd2b 40be
000000b0: e5ee 01be ac43 48be 05cd 01be 6330 0d3d
000000c0: 26d9 813d cad3 dd3d af57 3a3d d0db 5a3c
000000d0: a01a cabd 2a04 d1bc 0864 d4bd 29d4 36be
000000e0: 4397 0abe 60ae 093e 0788 cdbc 8ad6 3cbe
000000f0: c304 9f3c ab4a b1bd 7a92 19bd ee57 d9bc
00000100: b0be d8bc 8c37 febc ad04 80bd 6947 2dbd
00000110: 3263 39be 352a 08be 1bf0 663a 0ec2 40bd
00000120: d54c 57bd 01fb 10bd 5f7e 21be 8dbf 60be
00000130: d353 0dbb b89d 78be 4dd4 9ebd 505b 32bd
00000140: 5573 87be e771 80bd 7353 533c 377f a93d
00000150: fe2b fdbd c3c7 0bbe 0e6c 63bd 3c2f dcbd
00000160: 57e1 a4bd 233d 10be 5578 5bbd 1cec c1bd
00000170: 391d 4abd c58d 2ebe f421 aebd ec20 3dbd
00000180: 165c 60be 2d1c 40be 828f 993c 5c09 b4bd
00000190: a390 a5bd 3b60 24bd 46c2 3e3d 0f8a 59be
000001a0: ae46 3bbd 6f9a 54be b9f9 1a3d 1343 47be
000001b0: c96f f33d 089f bf3d a501 dbbb d7e9 003e
000001c0: 966a 26bd 38c6 2f3d 51de 18bd f7f2 10be
000001d0: 2fa4 0abe 9790 0bbe 365d e73b c7a7 2abe
000001e0: d831 89bd 2b19 d63d 6a0d b8bd 5b4f f5bc
000001f0: b1a8 483d 46b3 b03c 4a59 db3d 6ee8 5b3d
00000200: 0efa 853d 6851 b6be 8c63 d93d f05d 82bd
00000210: 3f75 0b3e 3101 c2bc 4dff 503d 69b8 c2be
00000220: e2a9 e03d f368 df3d 5ba1 743d bfea 553d
00000230: b6f8 0c3d 0210 52bb 003c 0e3d ff28 7abd
00000240: dcb7 4b3b 6bf7 94be c8ce 3c3e 4d40 d23d
00000250: 1919 4e3c 7290 9bbd 4b29 85bd 27bd 1cbf
00000260: 9c40 dd3c e5eb abbe b45c abba 60aa 393c
00000270: 4bf9 d73d 6639 243d 9584 93bd a392 83bd
00000280: 1c55 f03d 2ad3 713d 0ec1 c33c 4530 1a3e
00000290: 6e98 03be 1ebe 353c 634c b3bd ca19 10bf
000002a0: 4b5b 643d 2679 44bd 9f1f 3ebd 3491 22be
000002b0: e062 0dbd 007d aabb be9c 543a 9c71 ef3d
000002c0: d4f3 b13d 912e 9bbe 1729 45bd 57bf e03d
000002d0: 0f3c 9bbd 9724 45be b4ee 513d f134 e63c
000002e0: c281 0b3e 6994 7abd 5a57 5abc 2e1b 113c
000002f0: 48bf 8abd d974 1abc 156b ddbd e49e 54be
00000300: c8ff 01be 2a63 e5bc 17c4 29be 47c0 80bd
00000310: c063 4cbe f9ca 913d 9d77 1fbe 9b1e 6bbd
00000320: 1367 263d b361 91bd 814f ccbd 1e74 40bd
00000330: 7260 453d 69aa f83b 3486 94be decb 26be
00000340: 3739 f13c 9811 3dbe b696 8cbe 9a29 993c
00000350: fcf5 2fbe e3b5 6a3d f108 8abe b8b1 f7bd
00000360: 22a7 7c3d cc37 db3c 6149 12be f506 3cbe
00000370: 1bb3 1cbe 3b09 65bd 0383 b2bd 5a5d a1be
00000380: c696 2cbd 31fa 583d bead 513d f1c5 0dbd
00000390: e196 243a 2eeb 8dbe b3e8 01be 17d5 893c
000003a0: a32a 703d 762b 41be 95c3 44bc de67 fcbc
000003b0: b37d 23bc cac4 c9bd 9493 a53c b756 2abe
000003c0: 66ec f9bc 1911 b2bd 3d34 013e 0d19 3b3e
000003d0: 817c 9bbd 789b 0c3e d22c c2bd 016c c3bd
000003e0: a1ce 19bd 6f78 73bd 4c25 823e 6bdc f1bc
000003f0: f18f 23be 3c80 5dbe ed2d 40be 8051 79bd
-0.09353265 -0.15004703 -0.21306884 0.07750538 -0.17396814 -0.046664614 0.05311843 -0.02653824
-0.08596543 -0.026584432 0.07674022 -0.018252473 -0.0013816551 -0.18304546 -0.070010774 0.06865704
-0.16993059 0.04808601 0.026105003 -0.02279495 -0.17259252 -0.12627153 0.01562559 0.09147973
-0.2540406 0.011380871 -0.035089847 -0.065368645 -0.054199927 0.08048705 -0.08801678 0.03270615
0.08230211 0.02123579 0.04264219 -0.006330441 -0.10736025 -0.14681043 0.04139687 -0.036719397
-0.09718508 -0.093773104 -0.0655745 -0.18766709 -0.12688787 -0.19557065 -0.12675865 0.034469973
0.06340246 0.10831411 0.045493778 0.013358071 -0.098683596 -0.02551468 -0.10370642 -0.1785437
-0.13534264 0.13445425 -0.025089277 -0.18441215 0.01941145 -0.0865682 -0.037493207 -0.026531186
-0.026458114 -0.031032346 -0.06250892 -0.04230443 -0.18104246 -0.1329735 0.0008809582 -0.047060065
-0.052563507 -0.035395626 -0.15770863 -0.21948071 -0.0021564856 -0.24278915 -0.07755337 -0.043544114
-0.2645518 -0.06271725 0.012898314 0.082762174 -0.123619065 -0.13650422 -0.05552297 -0.10751197
-0.08050793 -0.14085822 -0.053581554 -0.094688624 -0.049344275 -0.17046268 -0.0850257 -0.046173975
-0.21910128 -0.18760748 0.018745188 -0.08790848 -0.08084228 -0.040130835 0.046571992 -0.21244071
-0.045721702 -0.20762037 0.03783581 -0.1945918 0.11886556 0.09356505 -0.0066835457 0.12589203
-0.040628992 0.042913646 -0.037321392 -0.14155184 -0.13539194 -0.13629375 0.007060672 -0.16665564
-0.0669896 0.10454019 -0.089869335 -0.029945066 0.048989 0.02156986 0.1071039 0.05368846
0.06541835 -0.35608983 0.1061469 -0.063655734 0.13618945 -0.023682209 0.051024724 -0.3803132
0.109699026 0.10908689 0.059724193 0.052225824 0.034416877 -0.0032052998 0.03472519 -0.061074253
0.003108493 -0.29095015 0.18438256 0.10266171 0.012579226 -0.0759591 -0.06502017 -0.61226124
0.027008347 -0.3357841 -0.0013073892 0.0113321245 0.10545596 0.040093802 -0.072030224 -0.06424453
0.11734983 0.059039272 0.023895767 0.15057476 -0.12851116 0.011092691 -0.08754804 -0.5628935
0.055751126 -0.0479671 -0.046416875 -0.15875703 -0.034518123 -0.0052028894 0.00081105146 0.11691591
0.08689085 -0.30308965 -0.04813489 0.10973995 -0.07579815 -0.19252239 0.051253036 0.028101416
0.13623717 -0.06117669 -0.01332649 0.008856578 -0.06774765 -0.009427273 -0.1081144 -0.20763737
-0.12695229 -0.028001387 -0.16578709 -0.06286674 -0.19959927 0.07118792 -0.15572973 -0.057402235
0.040625643 -0.07098713 -0.09976102 -0.046985738 0.04818768 0.007588674 -0.2900864 -0.16288707
0.029446227 -0.18463743 -0.27458733 0.018696595 -0.1718368 0.057302367 -0.26959947 -0.12094444
0.061682828 0.026760004 -0.14285804 -0.18362029 -0.15302698 -0.055917006 -0.08716395 -0.31516534
-0.042135976 0.052972976 0.051191084 -0.0346126 0.0006278586 -0.2771849 -0.12686424 0.016825242
0.05863441 -0.18864235 -0.012009521 -0.030811246 -0.0099786995 -0.09851988 0.020211972 -0.16634642
-0.030508231 -0.08694667 0.12617584 0.18271275 -0.075921066 0.13731182 -0.09481205 -0.095420845
-0.037550572 -0.059441026 0.2541908 -0.029524049 -0.15972878 -0.21630949 -0.1876752 -0.06086874

model.BL2.W2 f4 [10, 5]
00000000: 488b a1bc 511f 58be f376 98bc d2bd c1be
00000010: fbbb af3f 861b 603e 5c33 cebe e4d3 713e
00000020: 4e21 26bf f707 b7be 5349 9f3f 5e90 02bf
00000030: 8034 d8be 554e 79bd 80a7 ad3d cd97 8e3b
00000040: 0303 a73e 8f10 5bbf 3bf2 35be 5c97 b7be
00000050: f47d 8f3f 032f 99be 0f58 3ebf 00b7 04be
00000060: 9eef 343e de6b 2e3f 8711 dd3e 5c40 163f
00000070: 0fd3 c9bd a3d6 143f 2fe8 a53f 6957 a0bd
00000080: 5296 12bf 6e26 28be 3605 4f3d b3c0 85be
00000090: 8346 d0be d863 fa3e d0e4 15bd 2b81 c03f
000000a0: 1b74 033f e76e 0e3f 911a af3e 9280 153f
000000b0: e6d4 0f3e 4c19 e0be c3e0 2a3f 7c4f 563f
000000c0: a45a 243f deed 3dbe
-0.019719735 -0.21105696 -0.018611407 -0.37840134 1.3729242 0.218855 -0.4027356 0.23615986
-0.6489457 -0.35748264 1.2444252 -0.51001537 -0.42227554 -0.06086572 0.08479214 0.004351592
0.32619485 -0.8557214 -0.17768185 -0.35857666 1.1210313 -0.2991868 -0.74353117 -0.12960434
0.17669532 0.6813334 0.43177435 0.58691955 -0.09854709 0.5814001 1.2961482 -0.07829172
-0.5726062 -0.1642091 0.05054208 -0.2612358 -0.40678796 0.489043 -0.036595166 1.5039419
0.5134904 0.55637974 0.34199956 0.5839931 0.14046058 -0.437693 0.6674921 0.83715034
0.64200807 -0.1854777

model.BL2.B f4 [120, 5]
00000000: 038e 0a3f 6ddb c1be 71d5 8dbe bd20 18bf
00000010: 3be7 633e b166 073f bda9 71bf 5019 2b3e
00000020: 2839 16bf b42e 063e 46a6 1dbf b5b5 fabc
00000030: d6f5 8fbd 3eb5 213d bb72 7dbf 7b04 65be
00000040: 635c 063e 581f 3a3d 9d1d 5dbd 82f2 02bf
00000050: eae9 8f3d 867a 51be c199 4bbe 1259 98be
00000060: 6273 483e cd60 c3be 3f65 fabc 0a75 66bf
00000070: 9372 e63c 5d19 bebe 5ee2 c3bd c42d 3dbe
00000080: 38a4 23bf 34df abbe 6db2 c53c 8908 02be
00000090: 85e7 05bf 3eaf cebe f372 16bf 16fc c13c
000000a0: 930f 14bf ba76 2e3e 5dc8 213e 47bd d13c
000000b0: f61d 39bf 4f65 01be cc92 84be 21da cebe
000000c0: f574 93be abd3 813c 4cdf 983e 6f6a ad3d
000000d0: bb5b a03d 32e7 80be 77c3 0e3d cc3d 98bd
000000e0: 929d 38be 4e8b acbd 54ee 69bd acf5 0cbe
000000f0: 0567 a13e 8b15 c1bd 33b6 c5be fce4 48be
00000100: dd70 c23d e711 97be 1c98 913d 9b68 abbe
00000110: 9754 85bd 803a cdbe e8b5 803e 518b e1be
00000120: 5af5 35bf 8130 0cbf d0f8 b53e fa44 31bf
00000130: 9073 933d 2bce b7bd 6030 e33c 4c5e 1fbf
00000140: 9284 183f a140 8fbe f50c 75be 51d2 bdbe
00000150: a381 c43e 84fe e9be 39a5 1cbd b113 273e
00000160: 5a6a 8ebc 6273 7abe 3759 8ebd 2b4f 62be
00000170: 1b2a 01bf e5e6 2a3d a846 e8bc 3b2b ccbe
00000180: ee16 c63d 6934 83ba 7ac0 c43c 9159 b7bd
00000190: ad13 8ebe b264 71be 273c e1be 7dd5 66be
000001a0: e09a 78be 8fed eb3e 97cb 34bf e728 e2be
000001b0: 9c00 febe 2c3c e63e c804 cfbe e2f2 183d
000001c0: 7854 d93d a83d f4bd 839e 71be 9e17 c3bc
000001d0: 1829 e2be 1cae 9abe 75fb 87be 0292 90be
000001e0: df39 d0bd 1911 9e3c ee6f 9dbe 51a2 b53e
000001f0: b2e1 8c3e f590 913e 0c74 43bf 7eda 63be
00000200: b041 60bf 080f 513e dd49 83be 7cd0 91bd
00000210: 969a 503e 21b6 123e 715d 9ebd ee7b fa3e
00000220: 4707 08bf c903 cbbe 7060 27bf e2d2 d43e
00000230: 174d bebd 9d27 c5be f8bf 21bf 7fd3 babe
00000240: 250f 55be ee0b e43e 0f4f b3bd acc2 dabe
00000250: dbcc d1be d9ec e03e 8a1a d1be aec5 56be
00000260: 0948 953e ca48 c3be d34a 0fbe 6c2a eb3e
00000270: 9cad 04bf 1ac5 f1be e0f0 62bf 45c1 e73e
00000280: a68e c63d 77c9 27bf 9a2d a5be 9e8f ecbe
00000290: df56 9d3e 9359 a63e 6ae5 48bf c41e efbc
000002a0: b092 49bf 4659 4b3d ba32 dabe 3140 e5bd
000002b0: efb6 69bf 0a05 e8bd e093 3ebe 2082 0abf
000002c0: 4733 4b3e 8bcc 85bc fa58 b43e 2252 ddbe
000002d0: 264d 7ebe d2e4 0abf 90c1 2fbe 8516 fcbe
000002e0: a594 eebd 7410 c03b e7cf f63d 5779 42bd
000002f0: 0be4 99be 757a 493d d363 30bf 508a b03d
00000300: 131c e23e 8444 4a3d 9a9d 6abf 1c8b 42bf
00000310: 763c c6bd fc9a 1b3e efa7 44be 3ec1 9d3d
00000320: 6954 b43c 7a62 3b3e ec16 0ebe 25cd 6e3e
00000330: 2adc 42be da69 d3be f585 a73e fbb1 033c
00000340: 6cfc 873e 3f98 80be 9f5d 58bd 0526 1dbf
00000350: 337d 57bd 81d7 b8bd b20f b33d 446f 48be
00000360: 8579 773e 5408 433d 6d33 523e ed5b 08be
00000370: 52e1 bbbe 94f4 083d 055c cfbb 6ad8 94be
00000380: eaaf b8bc 58f0 48be 8b5d 02be 5f63 993e
00000390: dd6e aebd 81a4 1e3e 313f 20bf 495e 10bd
000003a0: 038e d33c a196 49be 558b 53bd 9be7 623e
000003b0: ecfa 0bbf 18f4 eb3c 590e dcbe a5c7 083e
000003c0: eee5 40be bbbf e83d 9534 4ebf 5bde 3abe
000003d0: c577 aabe 8959 39bd 03b3 45be 450b 363e
000003e0: 3a04 dfbd 938a cb3d 3a2b 02bf 8a6b 9fbe
000003f0: 8837 2ebd bd01 83be 113a 1dbe 30bb 0bbf
0.5412294 -0.3786272 -0.27701905 -0.59424955 0.22256176 0.5289107 -0.94399625 0.16708875
-0.58680964 0.13103753 -0.6158184 -0.030604223 -0.07029311 0.039479487 -0.9900319 -0.2236499
0.1312118 0.045440048 -0.05398332 -0.5115129 0.070270374 -0.20456895 -0.19882871 -0.29755455
0.19575265 -0.3815979 -0.030565856 -0.9002234 0.028130805 -0.37128726 -0.095646605 -0.1847449
-0.6392245 -0.33568728 0.024132932 -0.12698568 -0.52306396 -0.40368074 -0.5876915 0.023679774
-0.57836264 0.17037478 0.15799089 0.02560295 -0.7231134 -0.12636302 -0.25893247 -0.40400794
-0.2880017 0.015848001 0.29857862 0.08467566 0.07829996 -0.25176388 0.03485438 -0.07433662
-0.18028858 -0.08425008 -0.057112053 -0.13765591 0.3152391 -0.09427937 -0.3861557 -0.196186
0.09494183 -0.29505846 0.07109091 -0.33478245 -0.06510275 -0.40083694 0.25138783 -0.44051602
-0.710775 -0.5476151 0.3554139 -0.69245875 0.07199776 -0.0897487 0.027733028 -0.6225326
0.59577286 -0.27978995 -0.23930724 -0.3707452 0.38380155 -0.45701993 -0.038243506 0.16316105
-0.017384697 -0.24458078 -0.0695061 -0.22100513 -0.5045487 0.041724104 -0.028354004 -0.39876732
0.09672342 -0.0010010126 0.024017561 -0.0895263 -0.27749386 -0.23573568 -0.43991205 -0.22542377
-0.2427783 0.4607968 -0.70623153 -0.4417183 -0.4960984 0.44967782 -0.40433335 0.037341006
0.10611814 -0.119258225 -0.23595624 -0.023814972 -0.44171977 -0.3021096 -0.26559034 -0.28236395
-0.10167288 0.019295262 -0.30749458 0.354754 0.27515942 0.28430906 -0.7634895 -0.22251317
-0.8760023 0.2041589 -0.2564229 -0.07119843 0.2037147 0.14327289 -0.07732666 0.48922676
-0.53136104 -0.39651325 -0.65381527 0.4156714 -0.092920475 -0.38506785 -0.63183546 -0.36489484
-0.20806558 0.44540352 -0.087553136 -0.42726648 -0.40976605 0.439307 -0.4084056 -0.20973846
0.2915652 -0.3814147 -0.13993387 0.45930803 -0.51827407 -0.4722069 -0.88648796 0.4526464
0.09695177 -0.65541786 -0.32261354 -0.4620332 0.3073034 0.32490215 -0.7847506 -0.029189475
-0.7873945 0.049645685 -0.42616826 -0.11193884 -0.9129476 -0.11329086 -0.18611097 -0.54104805
0.1984378 -0.016332885 0.35224134 -0.43226725 -0.24834117 -0.542554 -0.17163682 -0.4923593
-0.116494454 0.0058613364 0.12051373 -0.047479 -0.30056795 0.04918905 -0.6890232 0.08620131
0.44162044 0.049381748 -0.9164673 -0.75993514 -0.09679501 0.1519584 -0.19204687 0.07702874
0.022012906 0.18299285 -0.13875932 0.23320444 -0.19029298 -0.41291696 0.3271939 0.008038039
0.2655977 -0.25116155 -0.05282366 -0.6138614 -0.052609634 -0.09025479 0.08743228 -0.19573694
0.2416745 0.047615364 0.2052743 -0.13316317 -0.36695343 0.033436373 -0.0063281083 -0.2907136
-0.02254482 -0.19622934 -0.12730996 0.29958627 -0.08517239 0.15492441 -0.6259642 -0.035246167
0.025824552 -0.19686367 -0.05164655 0.22158663 -0.5467975 0.028802916 -0.42979696 0.13357408
-0.18837711 0.11364695 -0.80548984 -0.18248884 -0.33294502 -0.045251403 -0.19306569 0.17777736
-0.10889478 0.0993854 -0.5084721 -0.31136733 -0.042533427 -0.25587264 -0.15354182 -0.545825

model.TABL.W1 f4 [3, 120]
00000000: c375 78be 08ec 1bbe 7379 23bf d5c6 95be
00000010: 5551 6a3d e00e babe 8bd6 cb3e deb9 c5bc
00000020: 16a2 0cbf 5487 f2bc 9186 c03d 0a4d 52be
00000030: e536 623e ff29 893e 600c 083f abda 00bf
00000040: a18e 093f 15ed a3be 0812 f23d 1832 76bd
00000050: 7ee5 c8bd de3d 433f 56d2 e73e f415 c7bb
00000060: d504 fa3d ac8e 2c3f abc2 58be 9f87 f13e
00000070: b3fe 1fbe d488 0c3b 3bc2 e4bc 6b7b 3cbe
00000080: 3217 b03e 0913 873f be50 3bbe 781e 84be
00000090: 0688 9d3e 481b 7fbe 08bb 0abf 9a11 4bbe
000000a0: a73a b23d 2179 63bd a51a 19be 3cfe dd3d
000000b0: 2674 43bc 2be5 2f3e e1f9 7fbe dafd ed3d
000000c0: 15d4 31bd 4ce9 fd3d 20e9 503d 66fc 8dbe
000000d0: 8e83 af3e 7fd6 573e e3de f7bd d47a 633d
000000e0: 596a 66be 87e3 743e 29b7 8cbe 3818 9c3c
000000f0: 6e91 023f dbeb 85be 910a 47bd d802 2b3d
00000100: 2582 043f f847 623e 4552 d3bd a18e 9d3e
00000110: aef4 8b3d c4cf a03d 863a 2ebe 142d 83be
00000120: 9452 a1be 0c6b 49be 17a3 03bf f39b 9fbe
00000130: ab7f febe 7b98 f0be e87f 813e 69b4 a8be
00000140: f56c e43b a74a 263e 80a2 4cbe 5ded 0c3f
00000150: 1bf9 123e d6bf e33b f1fd c5be fcfe 65be
00000160: 52c8 1cbe af23 5f3e 8329 5d3e 89a5 25be
00000170: dd17 db3e 75f2 84be d068 613e 23ec 8cbc
00000180: 2a26 a33d 7364 673e 8816 9f3e 370b 80be
00000190: a4ee f3bb b130 ba3e 6d4c b9bd f3d2 9fbd
000001a0: f374 b73e e0e2 9ebe 8c26 003f 7a65 aebe
000001b0: eb74 3bbe f70f e9be 2d3d 54be e760 6d3e
000001c0: 16a4 29be a7fb e3bd 8021 d13e 8c0d 6a3d
000001d0: 8fe5 e73e af5d 96be 5721 7bbe 366b e9be
000001e0: 4fbd adbe 9183 cbbe f1b7 013f e3f0 8b3d
000001f0: 3284 7abe 24e4 e33d 477a 323d 3535 033e
00000200: 76ca fe3e bee0 5f3e d407 3fbe 2753 a63d
00000210: 5c40 9dbe 1fa3 403e fe0b 89be 884e 2b3e
00000220: f5d9 a1be ec54 d8bc e0c5 a83d d0fe b3bd
00000230: f49e b03e 320b 5bbe 949e 313e 1c3b 763e
00000240: 6322 a8bd c1c5 aebe 3887 76bd e98c 82be
00000250: a43a a03e d3e9 b0be c198 7abd 00be 73be
00000260: a94a 0dbf 1ec7 10bf c313 943d 809d 73be
00000270: 8020 463e 24f3 3dbe 8e6a 1b3f fdf4 933e
00000280: 32dd 50be b261 a6be f51d 513d d61a 5cbe
00000290: d576 323d ff7c 443d ec48 763e f7b7 70be
000002a0: c974 1b3f 88f3 0c3c 7149 c13e 34b2 17bd
000002b0: efba 95bd de34 85be 5e7f a63e d3c2 76be
000002c0: 2efb 893e da35 abbe 28e8 1a3d 0319 3e3e
000002d0: 6d96 4fbe 4754 8c3e 2ce6 b43a 28d8 943d
000002e0: 66dd b93c 8d53 93be 13f9 893e 5a18 a7be
000002f0: f723 d23e 1158 b6bd 48ed 5fbd 715c aabe
00000300: ca55 323d 064e f13e 6b6d b63d 4b4c 4c3e
00000310: 69cf 023f ab3a 983e 0e74 25be 4d01 f53e
00000320: 0b06 493e 3a63 033e 2047 c1bd c234 c7be
00000330: 8aad 68be 651d 9a3d b4da 0d3f abc4 3d3e
00000340: aad3 a2be 2b78 9dbe 0ac3 51be 7eb0 a6be
00000350: 3659 febd 5338 3e3e 00f4 433e d741 2cbe
00000360: 0b31 b63c 34de 15be 2668 383e ff95 423e
00000370: 14f8 6fbe e6fb 6c3d b856 c4be 2555 9bbe
00000380: 36d4 0ebf f186 d9bd 6f13 aabe 952c 3ebd
00000390: be8b 2b3c 957f 7c3e 7104 353d 61ab 6a3e
000003a0: 270e 61be 175f 293d 4aa9 e5be 3806 403e
000003b0: fc3a a4be 2667 7dbd 24fa 353d 8ec1 02bd
000003c0: 0ed5 8e3e 9e04 653d a3c9 2ebf 0daf 52be
000003d0: c0d2 81be 379f 8bbe 73a6 5bbe 98fc 813e
000003e0: 7e96 00bf c81f 85be 54f7 cabe 4b08 b93e
000003f0: b519 97be daf5 08bf 3002 9ebe 7cec d9bc
-0.24263673 -0.15226758 -0.6385719 -0.2925326 0.05720647 -0.36339474 0.3981212 -0.02413648
-0.54934824 -0.029605545 0.094006665 -0.205372 0.22091253 0.26789853 0.5314388 -0.5033366
0.5373326 -0.32016817 0.118198454 -0.060106367 -0.09809397 0.76266277 0.4527766 -0.006075615
0.12207953 0.674052 -0.2116801 0.47173783 -0.15624504 0.002144386 -0.027924648 -0.18406455
0.34392697 1.0552684 -0.1829252 -0.25804496 0.3076784 -0.2491275 -0.5419164 -0.19830933
0.08702593 -0.05553544 -0.1495157 0.10839507 -0.011929547 0.17177264 -0.24997665 0.11620684
-0.043415148 0.123980135 0.051003575 -0.27731627 0.34280056 0.21077918 -0.12103059 0.05553706
-0.22501506 0.2391492 -0.2748349 0.019054517 0.5100316 -0.26156506 -0.04859406 0.04175076
0.51761085 0.22097766 -0.10318426 0.3077288 0.06833778 0.07852128 -0.17014512 -0.2562033
-0.31508315 -0.19669741 -0.5142073 -0.31173667 -0.49706778 -0.46991333 0.25292897 -0.32950142
0.0069709965 0.16239415 -0.19983864 0.5504969 0.14352839 0.006950359 -0.38670304 -0.2246055
-0.15310791 0.21790956 0.21597867 -0.16176428 0.42791644 -0.2596623 0.22012639 -0.017202443
0.079662636 0.22596912 0.31071877 -0.25008556 -0.0074442197 0.36365274 -0.0904778 -0.07803907
0.35831413 -0.31032467 0.5005882 -0.34061795 -0.1830632 -0.45519993 -0.20726462 0.23181497
-0.165665 -0.11131983 0.4084587 0.057141826 0.45292327 -0.2936835 -0.24524437 -0.45589608
-0.33933493 -0.39748815 0.506713 0.06833055 -0.24464491 0.11127499 0.043573644 0.12813266
0.4976384 0.21863076 -0.1865533 0.08121329 -0.30713165 0.18812226 -0.26766962 0.16729176
-0.316116 -0.026407681 0.08240867 -0.08788836 0.34496272 -0.2139099 0.17345649 0.24045986
-0.08209684 -0.3413525 -0.06018755 -0.2549813 0.3129474 -0.34553394 -0.061180834 -0.23802948
-0.5519205 -0.5655383 0.07230332 -0.2379055 0.19348335 -0.18549782 0.60709465 0.2889785
-0.2039688 -0.3249641 0.05105396 -0.21494612 0.04357036 0.047970768 0.24051255 -0.23507677
0.60725075 0.008602984 0.37751344 -0.037035182 -0.073110454 -0.26016897 0.32519048 -0.24097757
0.26949447 -0.33439523 0.037819058 0.18564229 -0.20272227 0.2740805 0.0013801507 0.07267791
0.022688579 -0.28774682 0.2694784 -0.32635766 0.41043064 -0.08903516 -0.05466965 -0.33273652
0.043538846 0.4712984 0.089075886 0.19950978 0.5109773 0.2973226 -0.16157553 0.47852555
0.19631211 0.1283082 -0.09437394 -0.3890744 -0.2272245 0.07525138 0.5541184 0.18532054
-0.31802112 -0.30755743 -0.20484558 -0.32556528 -0.124193594 0.18576173 0.19136047 -0.16821991
0.022240182 -0.14635545 0.1800848 0.19002531 -0.23434478 0.057857417 -0.3834741 -0.30338398
-0.5579256 -0.10621441 -0.33217952 -0.046429235 0.010470329 0.24658044 0.04419369 0.22916938
-0.21978055 0.04135045 -0.4485572 0.18752372 -0.32076252 -0.06186595 0.044428006 -0.03192287
0.27896923 0.055912606 -0.68276423 -0.20574589 -0.25356102 -0.2726991 -0.21450214 0.25388026
-0.5022963 -0.2600081 -0.3964182 0.3613914 -0.295118 -0.5350014 -0.30861044 -0.026602022

model.TABL.W f4 [5, 5]
00000000: cdcc 4c3e 55d7 47be bef7 a5be c1e5 ddbd
00000010: 5ba2 4b3e 3c57 453f cdcc 4c3e 6f70 2cbf
00000020: b1ab 83bc ba3b 203f d543 ae3e 3c37 203e
00000030: cdcc 4c3e c823 3c3e b336 2b3e 726e 383f
00000040: 548c ba3e 2618 e7be cdcc 4c3e 0eb6 143f
00000050: 1e24 003f 0787 3ebb c57d c9be d306 a7be
00000060: cdcc 4c3e
0.2 -0.19515736 -0.32415575 -0.10834838 0.19886152 0.77086234 0.2 -0.6735906
-0.01607308 0.62591136 0.34036127 0.1564607 0.2 0.18373024 0.16720085 0.72043526
0.36435187 -0.4513561 0.2 0.58090293 0.5005511 -0.0029072182 -0.39353767 -0.32622394
0.2

model.TABL.W2 f4 [5, 1]
00000000: 5085 d7bf 0821 d9bf 5f8f cbbc 79f2 a8bf
00000010: f6a5 fdbf
-1.6837559 -1.6963205 -0.024848638 -1.3198997 -1.9816272

model.TABL.B f4 [3, 1]
00000000: 91c8 25bd a83a ad3d 7766 81bd
-0.04047448 0.084584534 -0.06318372

exp_avg f4 [10, 1]
00000000: 996e 593a 05a3 d0b9 de28 413a 3f24 43bb
00000010: ce8f 4539 e714 91b8 08e9 573a e69d 5c3a
00000020: 44e5 04b9 982b 2cbb
0.00082943734 -0.0003979431 0.00073684554 -0.0029776243 0.00018840955 -6.918032e-05 0.00082363235 0.00084158627
-0.00012673909 -0.00262711

exp_avg_sq f4 [10, 1]
00000000: 96f2 2d38 fb46 7837 06d0 6837 e9ee 9538
00000010: 96f2 f337 c8ee 9537 3b88 9837 7e76 3538
00000020: 93f9 0638 6ad6 6d39
4.147234e-05 1.4798478e-05 1.3876712e-05 7.149374e-05 2.908082e-05 1.7873375e-05 1.818325e-05 4.3264117e-05
3.2180524e-05 0.00022681957

exp_avg f4 [10, 1]
00000000: b721 883a 121c d7ba 9886 ccba a3e1 17ba
00000010: 66c0 bd3a ff44 3a3b 163c 11bb d185 b8ba
00000020: e835 3d3a 3453 df3b
0.0010386024 -0.0016411564 -0.0015604077 -0.00057938154 0.0014476895 0.0028422473 -0.0022161058 -0.0014077966
0.00072178105 0.0068153385

exp_avg_sq f4 [10, 1]
00000000: 7546 4239 d0b1 cc38 573d d338 b3b2 c639
00000010: e83b f238 0e1b fb38 1d87 eb38 d5e8 8639
00000020: 6268 f438 1655 5a3a
0.00018527529 9.760598e-05 0.000100726895 0.00037898644 0.00011550618 0.00011973652 0.0001123084 0.00025731945
0.000116542695 0.0008328719

exp_avg f4 [40, 1]
00000000: c086 3a39 71b7 453b 5ea1 6939 1b15 efba
00000010: 9529 e0b9 dfa6 e6b8 c51c 233a 2cc0 a7ba
00000020: ec2c 1439 744f af39 626d bfb9 cc2b e4b9
00000030: d14e d7b9 da60 a839 4a48 53b9 af8e fbb9
00000040: 9f03 56ba c2d5 1b3a d7b9 13b9 acb2 11b9
00000050: 4513 d039 c9d1 183a 8dfa da39 4212 5eba
00000060: 95b7 20ba 23ee c63a 2841 bd39 dd2c 8cba
00000070: 7ceb 81ba e5f0 a13a 3252 6f3a 2ffb c0ba
00000080: 60f7 5eba 0c06 943a c030 72b8 d7e8 96ba
00000090: 62c7 b13a de13 123a 64ef 0dba fd1c f0ba
0.0001778854 0.0030169154 0.00022280726 -0.0018240543 -0.0004275559 -0.00010998337 0.00062222435 -0.001279836
0.00014131115 0.00033437798 -0.00036511855 -0.0004352018 -0.00041066718 0.00032115617 -0.00020149458 -0.00047980758
-0.0008163992 0.0005944633 -0.00014088243 -0.00013894838 0.00039687208 0.00058296 0.00041766875 -0.00084713486
-0.00061308715 0.0015177171 0.00036097434 -0.0010694523 -0.0009912099 0.0012355117 0.00091293745 -0.0014723296
-0.00085054897 0.0011293306 -5.7742698e-05 -0.0011513483 0.0013563449 0.00055724184 -0.0005414395 -0.0018319186

exp_avg_sq f4 [40, 1]
00000000: 8dee 9c36 29a6 7338 1bcf 8536 4ee8 7238
00000010: a116 aa36 e9b3 3737 ba87 bf36 5f3c 4937
00000020: 4b3a bb36 66fe a636 b654 2b36 3f86 4e37
00000030: 9685 e236 9ac3 b136 044d 4d36 a3af 3037
00000040: cfdd b036 de49 e036 c933 4f36 939b 8436
00000050: c345 b536 68e6 c536 4539 a836 512a cf36
00000060: 6df6 3e36 bf27 1437 0b41 0a36 9204 2937
00000070: 8835 8c36 66bf 2137 dbbd f636 ef14 4937
00000080: 809f 9236 4b15 4e37 a1c8 8e36 4eda 6b37
00000090: 8775 1037 df31 e336 b8a0 cd36 4ac5 4a37
4.6769333e-06 5.8090463e-05 3.987819e-06 5.7913647e-05 5.069029e-06 1.0949539e-05 5.7080442e-06 1.199459e-05
5.5798205e-06 4.9768014e-06 2.5530294e-06 1.2309813e-05 6.7508763e-06 5.297782e-06 3.059221e-06 1.0531311e-05
5.2710307e-06 6.6843195e-06 3.0875547e-06 3.952018e-06 5.4023417e-06 5.8978803e-06 5.013457e-06 6.174007e-06
2.8455645e-06 8.8307415e-06 2.0601462e-06 1.0074249e-05 4.178557e-06 9.640911e-06 7.3534734e-06 1.1985408e-05
4.3697073e-06 1.22835145e-05 4.255286e-06 1.40579195e-05 8.610433e-06 6.770933e-06 6.128186e-06 1.2086073e-05

exp_avg f4 [40, 1]
00000000: 7f3c c5b9 e9ec a43a 62e8 8c39 6f6b d83a
00000010: 965c 293a 3429 c5ba 5599 113a ab3f 8a3a
00000020: 41fc c539 bfa0 eaba dcfe 1a36 1006 863a
00000030: 789d ecb9 cf89 953a dabc 83b9 79da c13a
00000040: 7158 8db9 30d7 a33a 76e8 03ba 235b 7d37
00000050: 2dda 003a d878 05b9 0ae8 deb9 9fc6 ea39
00000060: 5f26 1c39 eaa8 493b 0b76 1f3a 2e88 ffba
00000070: 5580 32ba 00cb 43b9 dd41 653a dca0 ea3a
00000080: 17d2 30ba 2efe 993a b19b 5cb9 4a4d 613a
00000090: 1a5a 983a d97e 323a 3fea 19ba 9c7d 87b9
-0.0003761984 0.0012582812 0.0002687602 0.001651151 0.0006460635 -0.0015042187 0.0005554159 0.0010547539
0.00037762712 -0.0017900689 2.3096136e-06 0.0010225195 -0.0004513075 0.0011408868 -0.00025126972 0.0014789841
-0.0002695951 0.0012500044 -0.0005031893 1.5101195e-05 0.0004915323 -0.00012728886 -0.00042516022 0.00044779942
0.00014891614 0.0030770847 0.00060829584 -0.0019495541 -0.0006809284 -0.00018672273 0.0008745471 0.0017900723
-0.0006745173 0.0011748725 -0.00021038835 0.0008594586 0.0011623532 0.0006809063 -0.0005871392 -0.00025842793

exp_avg_sq f4 [40, 1]
00000000: 3fa8 8a37 f4c1 4239 5d1a 0f37 8075 3239
00000010: 6cf3 0937 e8a8 6638 0a31 9037 f6cf 8538
00000020: e7d8 a137 96bf b937 a505 eb36 6819 a438
00000030: 7133 7537 6e50 bb37 77f1 5d36 cbcd 7c38
00000040: 8974 5537 cb37 0438 22ed 7f36 f7e8 8637
00000050: 23f5 2837 9803 f237 20d9 3537 f348 2038
00000060: ae4a 1737 3fc3 4138 45f2 b436 ad49 4038
00000070: f6bb 3037 fd6d 4338 2f64 8a37 9a8a 9538
00000080: d894 3137 a5d6 9f38 0c42 f336 dc51 c038
00000090: ec11 f037 3066 0538 3665 5c37 8504 8d38
1.6529228e-05 0.00018573535 8.529602e-06 0.00017019175 8.222512e-06 5.499358e-05 1.7188973e-05 6.38067e-05
1.9293699e-05 2.2142933e-05 7.004203e-06 7.824862e-05 1.4615115e-05 2.232959e-05 3.3072117e-06 6.027314e-05
1.2722922e-05 3.1523214e-05 3.813599e-06 1.6082528e-05 1.0070656e-05 2.8850322e-05 1.0838994e-05 3.8214912e-05
9.017689e-06 4.6196623e-05 5.392622e-06 4.5844983e-05 1.0534181e-05 4.6594057e-05 1.6497534e-05 7.13069e-05
1.05846775e-05 7.6216915e-05 7.249653e-06 9.170521e-05 2.8618575e-05 3.180484e-05 1.3136587e-05 6.724246e-05

exp_avg f4 [60, 40]
00000000: 206c ed38 c175 0239 7ac9 8bb9 6c57 ba39
00000010: b672 05b9 b54b 3938 c514 d937 e6f1 3439
00000020: a48c 0639 f604 c638 a12c 19b8 5c6c 6939
00000030: 413a 8db9 2ff9 e738 519e 57b9 3d9c 4639
00000040: 2294 a3b9 1c64 9d39 58e2 2fb9 8b44 4939
00000050: bf83 ecb7 616c f238 e7a9 edb9 136c b338
00000060: 2e6c 94b9 4821 8039 4954 92b9 0e99 c2b7
00000070: c6e3 feb9 2b2f 82b9 60f6 11ba bf98 4db8
00000080: 0bdb b7b9 adb6 5839 d29a 1f39 3960 2f39
00000090: 09f0 4a39 0923 0739 7934 c3b9 da59 3fb9
000000a0: e4f8 e2b8 da40 be39 994a 6db9 0ef2 8239
000000b0: 1d7b 36b9 2f70 4d39 d0de cab8 440d 8b39
000000c0: 52fc e1b8 b076 4239 a314 10b9 6821 aa38
000000d0: 68e7 72b9 88a7 9438 d543 6eb9 8217 7939
000000e0: c76c 7fb9 486a 8839 eb52 4fb9 b0ea 4439
000000f0: a4e5 09b9 2de6 d838 cef1 72b9 b3eb 5939
00000100: 2a3f 89b9 bec2 6238 3eb2 3ab9 e7b8 1039
00000110: 495c b8b9 a258 2a39 f799 37b9 d871 4c39
00000120: e247 9eb9 36e3 9b37 d1a2 0db9 40fc 1939
00000130: ca4c bab7 f632 c938 fc3c 77b9 b87e 9b38
00000140: c736 0d39 0173 fc3a 3187 da39 be72 afb9
00000150: fe98 0a3a 8b7a a3b9 3047 3c39 7428 ff37
00000160: f407 0939 b500 c9b8 0eb2 4639 d01f 6d37
00000170: 9958 0f3a faff bcb9 9563 aa39 7150 a6b9
00000180: 071b 293a 96b6 1b37 4a24 8b39 6a84 8eb9
00000190: 19b0 1739 dcf8 cfb8 a3bd 2a3a d2d1 59b9
000001a0: ab6d dc39 4f89 dbb6 9250 a239 a138 77b9
000001b0: 4faa 053a 5686 65b9 a45f 1d3a 4e7b 77b9
000001c0: 5fa5 073a 8f25 1938 71f7 ee38 7989 88b8
000001d0: 7983 9f38 4dfe 0cb9 bc9e 0d3a 5984 6cb9
000001e0: 1c8f 9638 7ca9 8d3a 5566 aa39 81ea 24ba
000001f0: cc2d ed39 0f31 86b9 5c37 f438 509a 4337
00000200: 622e a838 a749 8bb9 60ec e536 3539 7ab9
00000210: fa84 fd39 1de7 0dba 732a 7e39 f589 beb9
00000220: 9f64 1e3a a998 0aba 96f4 3839 0837 c4b8
00000230: 2af8 1037 f6be 2639 1b23 f739 54f5 a3b9
00000240: ae23 cc39 8ff4 5339 ea49 a339 6121 79b8
00000250: 38a5 243a 6ec9 8bb8 cbac 423a b97b c2b8
00000260: a595 033a 55e6 4a38 ff86 1138 26da dab9
00000270: 3814 ceb8 46ef 08b9 a7ce 033a 60b2 b9b9
00000280: 2fe1 c5b9 f22e 01b9 aa51 cfb9 b4a7 6439
00000290: a82d eeb9 0330 3339 b47e bbb9 7b62 a839
000002a0: 1f17 eeb9 46bd ab39 01f2 a9b9 d3f9 8239
000002b0: d07b aeb9 ee55 bc39 953c c0b9 1ba9 6b39
000002c0: 3c98 deb9 a96f b439 0900 bcb9 1249 1139
000002d0: ab4f bdb9 7f8d 8439 2eae f2b9 155a 9c39
000002e0: a9d2 adb9 5d7b 9c39 5aef d5b9 29c0 b139
000002f0: 5680 9cb9 066f ca39 5a86 0dba 6e40 cf39
00000300: ecf6 a7b9 e29e 8d39 f67f c9b9 babd f439
00000310: 2cb2 e0b9 6efa 8b39 9dbf c2b9 a760 4639
00000320: a79c fbb7 b9d7 d63a fcf0 1ab8 9522 d0b9
00000330: 87c6 1c38 ba23 60b6 a9b8 66b8 c191 9d37
00000340: 383e 89b8 edcb b438 5007 57b8 da59 1d39
00000350: 018b 85b7 bb54 3fb8 b682 59b8 6677 1239
00000360: dcee 2e38 9489 1338 3eed 88b8 309c 5038
00000370: 890a 66b8 fe3c 1039 5e8e dab8 abcf 9738
00000380: 280d aab8 3601 9937 ef24 7cb8 b0f0 2139
00000390: a841 f1b8 8ba4 29b7 89a7 33b8 63d2 b638
000003a0: 0258 02b8 93ed d438 4bec 51b7 57dc b339
000003b0: cb30 e8b7 e8f3 0e39 9a02 ddb5 dab3 6338
000003c0: 65c4 9539 8c80 453a 7368 a939 0563 c139
000003d0: 8e13 eb39 4962 25b9 a0bd 8a39 458e 8db9
000003e0: de81 a839 7772 55b9 e27c 6439 f7c0 51b9
000003f0: a05e b939 2984 f4b9 cad3 9439 725d 5bb9
0.000113211805 0.00012441633 -0.00026662258 0.0003554182 -0.00012726602 4.4177945e-05 2.5878087e-05 0.00017256252
0.00012831629 9.4423e-05 -3.6519607e-05 0.00022260979 -0.00026937018 0.000110613524 -0.00020562975 0.00018940955
-0.0003120015 0.0003001996 -0.0001677362 0.00019194388 -2.8194741e-05 0.000115596464 -0.0004533075 8.5555155e-05
-0.0002830936 0.0002443886 -0.00027910087 -2.3197874e-05 -0.0004861636 -0.00024830675 -0.0005568024 -4.9018065e-05
-0.0003506768 0.00020667417 0.00015221097 0.00016725146 0.00019353641 0.00012887655 -0.00037232394 -0.00018248652
-0.00010822879 0.00036287942 -0.00022629871 0.00024975877 -0.00017402736 0.00019592115 -9.673613e-05 0.0002652203
-0.000107758344 0.00018545496 -0.00013740598 8.112454e-05 -0.00023165124 7.088395e-05 -0.00022722718 0.00023755248
-0.00024359218 0.00026019127 -0.00019771948 0.00018779445 -0.00013150886 0.00010342556 -0.00023168998 0.00020782537
-0.00026177737 5.4063967e-05 -0.00017804743 0.00013801792 -0.00035163973 0.00016245482 -0.00017509596 0.00019497366
-0.00030189665 1.8583243e-05 -0.00013507462 0.00014685187 -2.2208686e-05 9.593919e-05 -0.00023578474 7.414579e-05
0.00013467214 0.0019260348 0.00041680926 -0.0003346409 0.000528708 -0.00031181084 0.00017955597 3.0417206e-05
0.00013068301 -9.5845586e-05 0.00018949082 1.4133708e-05 0.0005468219 -0.00036048872 0.0003249912 -0.0003172192
0.0006450866 9.2812315e-06 0.00026539183 -0.00027183007 0.00014466084 -9.916883e-05 0.00065132434 -0.00020772897
0.0004204338 -6.5426934e-06 0.00030959077 -0.00023576852 0.00050989253 -0.00021889186 0.0006003326 -0.0002360169
0.00051744835 3.651302e-05 0.00011394814 -6.5105916e-05 7.6061995e-05 -0.00013446175 0.00054023764 -0.00022556017
7.1792136e-05 0.0010807957 0.0003250117 -0.00062910473 0.00045238284 -0.00025595023 0.00011645138 1.1658834e-05
8.019504e-05 -0.0002656702 6.8522495e-06 -0.00023863169 0.00048354996 -0.00054131617 0.00024239141 -0.0003634241
0.00060422154 -0.00052870304 0.00017638723 -9.356259e-05 8.640849e-06 0.00015902132 0.00047137667 -0.00031272566
0.00038936496 0.00020213633 0.00031144853 -5.9397313e-05 0.0006280723 -6.665556e-05 0.0007426261 -9.273686e-05
0.0005019552 4.8375066e-05 3.469642e-05 -0.00041742733 -9.8266115e-05 -0.00013059107 0.0005028047 -0.0003541885
-0.00037742543 -0.00012319887 -0.0003954296 0.00021806249 -0.00045428914 0.00017088656 -0.0003576182 0.0003211683
-0.00045412124 0.0003275668 -0.000324145 0.00024981666 -0.00033280114 0.00035922177 -0.0003666623 0.00022474343
-0.00042456563 0.0003441547 -0.0003585818 0.00013855498 -0.00036108246 0.00025282425 -0.0004628761 0.00029821755
-0.00033154085 0.00029846551 -0.00040804857 0.0003390324 -0.00029850256 0.0003861116 -0.0005398743 0.0003953012
-0.00032036693 0.00027011993 -0.00038433046 0.00046680664 -0.00042857358 0.0002669873 -0.00037145326 0.00018918757
-2.9994479e-05 0.0016391195 -3.6940895e-05 -0.00039698617 3.737819e-05 -3.3399397e-06 -5.500825e-05 1.878373e-05
-6.544258e-05 8.621053e-05 -5.1266805e-05 0.00015006159 -1.5919564e-05 -4.561686e-05 -5.1858566e-05 0.00013968124
4.1707288e-05 3.517566e-05 -6.529175e-05 4.9736525e-05 -5.4846085e-05 0.00013755632 -0.00010421568 7.238922e-05
-8.108682e-05 1.8239585e-05 -6.011588e-05 0.0001544382 -0.00011504005 -1.0111496e-05 -4.2832955e-05 8.717624e-05
-3.107638e-05 0.000101531994 -1.2512387e-05 0.00034305707 -2.7679276e-05 0.00013633037 -1.646654e-06 5.4288517e-05
0.0002856582 0.00075341086 0.00032312013 0.00036885604 0.00044837262 -0.0001577224 0.00026462693 -0.00026999615
0.00032140216 -0.00020355904 0.00021790297 -0.00020003678 0.0003535645 -0.00046637774 0.00028386555 -0.00020920279
