data/checkpoints/BINCTABL/BTC_seq_size_10_horizon_100_seed_42/pt/val_loss=1.04_epoch=1.pt (torch, 167569 bytes, 42 tensors)

model.BiN.B1 f4 [10, 1]
00000000: d0db d6bc bcf6 063d cf60 373d 4488 b9bc
00000010: 8143 a53c b355 9abc 0f0f 1c3d 1424 c6bd
00000020: bf67 453d bf72 4d3d
-0.026227862 0.032950148 0.04477006 -0.022647984 0.02017379 -0.018839693 0.0381003 -0.0967485
0.048194643 0.05015826

model.BiN.l1 f4 [10, 1]
00000000: 0637 dd3e 58bd 73be e05c 3b3e 4f56 ed3e
00000010: ad58 03bf 6892 973e 81e5 443f b5c3 f4be
00000020: b02b 153f 4567 c13e
0.43206042 -0.23802698 0.18297148 0.4635491 -0.51307184 0.29603887 0.76912695 -0.47805563
0.58269787 0.377741

model.BiN.B2 f4 [40, 1]
00000000: 416e 93bb 0b9d 22be 1f68 0bbd cd2d 23be
00000010: a638 49bd 191a d43c 5377 e33c 8e97 bf3d
00000020: c12e c83c ef67 563e ee01 a4bd 0150 2c3e
00000030: e20f 63bd 226c 923d 1f46 8dbd ab7a a03d
00000040: 64b3 81bc 236e ec3c 2e48 8ebd eca9 aa3d
00000050: 0c99 ddbd ce5e 9e3d 1ab7 9fbd 8656 b63d
00000060: 44e7 cfbd 9026 533e b0ca 1bbe 88f7 9a3d
00000070: 9eff 3dbd 79a6 ee3d e318 29bc 463f a53c
00000080: fde9 b7bd 7967 953d 4a61 e6bb f522 b73d
00000090: aa87 88bd 1573 963d b962 71bc cbbc 003e
-0.0044992273 -0.1588022 -0.034034844 -0.1593544 -0.04912629 0.02589135 0.02776686 0.09355079
0.024436356 0.20938085 -0.080081806 0.16827394 -0.05543507 0.07149531 -0.0689814 0.07835897
-0.01583261 0.028861111 -0.06947361 0.08333191 -0.10820207 0.07732926 -0.07798596 0.08903222
-0.10151532 0.20620179 -0.15214038 0.07566744 -0.046386354 0.11652846 -0.010320875 0.020171773
-0.089801766 0.072951265 -0.0070306407 0.089422144 -0.06666501 0.07346169 -0.01473301 0.12572019

model.BiN.l2 f4 [40, 1]
00000000: 4581 d5be 7c38 4d3e 58ac b43e d77f 583e
00000010: 3600 00be ce42 043e 843a a5be 5364 083e
00000020: 50b3 8ebe f1ad 5f3d 6fa3 42be 41dc 9f3d
00000030: 3cb7 8c3d 2678 693d df59 a13e 4994 833d
00000040: d1b5 dc3e 1dd1 a33d 2a36 cf3c 6b47 2f3d
00000050: cd90 aebe 378a 693d 5f88 223f 8dde aabc
00000060: b825 9d3e 9100 723d 4117 613e 11bc f83b
00000070: 866b eb3e cd39 443d f5f1 233f c31e 483d
00000080: 8c01 043f c46b 003e fe73 c5be 5ca3 0b3d
00000090: 0a59 00bf f522 103e 5b65 933e 7665 203d
-0.41700187 0.20041078 0.35287738 0.21142517 -0.1250008 0.12916109 -0.32271206 0.1331952
-0.2787118 0.054609243 -0.19007657 0.07805682 0.06870887 0.056999348 0.3151388 0.064247675
0.43107465 0.079988696 0.025294382 0.04279272 -0.3409485 0.057016578 0.63489336 -0.020858074
0.3069284 0.05908257 0.21981527 0.0075907786 0.4598047 0.047906686 0.6404107 0.04885746
0.5156486 0.1254111 -0.38565058 0.03409134 -0.5013586 0.14075835 0.28788266 0.03915926

model.BL.W1 f4 [60, 40]
00000000: 1a7e 473c b4ac 1a3e bd96 8ebd 99b7 9c3d
00000010: 8fde 553c 54dd 0abe 0f61 8f3e 97ec 9bbc
00000020: 4a51 9e3e 9e04 9e3e 4f2a 6f3e 44b8 53be
00000030: cedd 16be 1534 893d dfe0 0bbd b069 dbbd
00000040: f62b cf3c 7dbc 913e efe2 2ebe f5f8 7a3e
00000050: 5cfc c13e 40b6 0d3d 60e1 f4bd 9eb4 c83d
00000060: cd71 6bbe 2481 173d 408f b2bd e477 d1bc
00000070: 2f90 44bc 9281 4cbe 0ce6 81be ed8a adbb
00000080: 272c 40be f50d d1be 8ae7 d23e a4b6 d13c
00000090: 4f85 0f3e 7706 cabe 6200 8bbe 810d e53d
000000a0: 34d6 093e ee00 07bd 462b e7bc ba6b b5bd
000000b0: d29e e33d bfd9 a2be 660d ee3d 984c 96be
000000c0: c635 ffbd 3942 063b 5857 773c 2ad3 3d3c
000000d0: 5fc3 953e 9f6c 23be 014a 833e ba7c 633d
000000e0: 8af8 0dbd 8431 dcbd b416 e03c 2f53 20bd
000000f0: a5ed 05be 17c5 ecbe 7c8d 263d 226a b1be
00000100: 33ea 603e 0b47 46be 840b 5c3e 3360 17be
00000110: 013c e63d 4efb 23bf ddd7 113e 3738 e53d
00000120: 2ace ce3e 82a7 1fbf 54a0 fe3d 0b70 12be
00000130: 71af 9fbc 32e9 8abc 1b84 a63e 1ed8 adbe
00000140: 55a0 243e 6147 c6bd 4dce eebc ff80 12be
00000150: 5898 273e 059d 343e 27a5 6c3d 5250 abbe
00000160: 1b96 a43d 39a1 b3be 7234 f2bd 8af8 ef3e
00000170: a59a 1ebc 396f 06bf f907 52be 332d 813e
00000180: 9f3a f03d a044 fab9 d080 3ebe b0ab 42be
00000190: 5ea3 51be d24a 243e b49c 553e 80b3 0dbe
000001a0: 5fa2 363b d2ad 1a3f e7d6 bebd ff04 eebd
000001b0: fe48 923d 1feb b63e 523e d73c e3de 7dbe
000001c0: b75d cfbd 7475 a43e 7ddf d9bc fc1a 45be
000001d0: 5dff 473e fd30 2d3e 2b9d 01be 9d1f 22be
000001e0: d47e 8dbe a568 ca3b a6e6 a33e 7af1 ea3c
000001f0: f24b 54be 02fe 253b 6744 9b3b 4d46 053c
00000200: fb08 b03d e60a d7bd 1e75 80be 5499 bdbc
00000210: b693 73bd c788 6a3d c4e8 d23e a7bc e0bc
00000220: 39ac e9be 0cd2 70bd dc48 c93d b1fe 943d
00000230: 33f3 af3e 321a ba3d 83e6 f93e 0f3e 9bbd
00000240: 3f69 fabe 4f61 813c aff1 913e 16b6 2bbc
00000250: 3223 2cbf bd25 e8bc 0b7a 243f 3f97 283d
00000260: af25 30bf 9168 35bd 6393 dfbe cd73 2f3d
00000270: 2e70 233f 7dce 06bc 9b58 a43e f202 933c
00000280: 07aa b83d c5b7 4bbe e826 a0be dbc8 85be
00000290: 04c8 893d 85e6 36be f1c0 8a3d b7d2 f2bd
000002a0: cfb6 3dbd 06e2 a03c 8d11 e7bd c9a2 143e
000002b0: 54b3 bbbd bfc5 bc3e d82d 55be da65 37be
000002c0: ccd2 89bd 8d64 65be 1546 04be e504 85be
000002d0: 831b ff3d c6bb 5abe b77f 923d 12d9 9d3e
000002e0: e6f2 fe3d ca3e 2cbe 6471 c93d 066e d33d
000002f0: 9bd0 243d d728 ca3e a804 07be 4202 1c3e
00000300: 32de c4bd 5142 a3bd ddcb 043e 7e6f e0be
00000310: f107 1c3e de78 833e 96c1 0e3e 25c6 663e
00000320: ad59 0cbe 6f4b bebc 15f0 193e 825a afbd
00000330: 1033 683c 4cea 82bc 1084 fb3c 4b3f 19be
00000340: aa3e a8bc 7f4c aa3e fef1 0bbe 2208 313d
00000350: 9a23 663e 53ec 3f3e 2656 9e3c 3489 ecbd
00000360: 091d 73be 3616 30bf 6ae5 0e3e 878a d0be
00000370: ebc5 67bd 8a48 d2be c1dd 09bd 889f fcbd
00000380: 9af0 08bd 1a78 1fbe 34fc 37bc 87b8 46bd
00000390: 1341 5ebe 5dda 1b3f 6fdd 3f3d 7400 143d
000003a0: 412e 1fbe 98f9 0e3f 23e8 263e ca64 483d
000003b0: 09ed b3bd d627 633e 9889 8a3e 6cc8 40ba
000003c0: 3fbc 363d 4e28 0c3f cd9e acbd 536a dc3e
000003d0: 3e49 85be a148 b6bd 6f07 283d 5acf 9fbd
000003e0: 77f9 85be 6ce8 44be 9c17 61be 074b 54bd
000003f0: 8052 82be db15 e4bc 00c7 db3d 8139 bdbd
0.012176061 0.15104944 -0.06962345 0.07652206 0.01305355 -0.13560992 0.28003737 -0.019033713
0.30921394 0.30862898 0.23355983 -0.2067576 -0.1473305 0.06699387 -0.03415 -0.10713518
0.025289517 0.28464118 -0.17078756 0.24509032 0.37887847 0.034597635 -0.11957049 0.09800075
-0.2299263 0.036988392 -0.08718729 -0.025569864 -0.011997267 -0.19971302 -0.25370824 -0.0052961023
-0.18766843 -0.4083096 0.41192275 0.025599785 0.14015697 -0.39458057 -0.2714873 0.11184216
0.13460618 -0.03295987 -0.028218877 -0.08858438 0.11114277 -0.31806752 0.11623649 -0.2935531
-0.12461428 0.002048625 0.015096508 0.01158599 0.2925062 -0.15959404 0.25642398 0.05553887
-0.034660853 -0.10751632 0.027354576 -0.03914183 -0.13078935 -0.46244118 0.040662274 -0.34651285
0.2196434 -0.19363038 0.21488768 -0.14782791 0.112419136 -0.64055336 0.14242502 0.11192363
0.40391666 -0.6236497 0.12432924 -0.14300554 -0.019492837 -0.0169569 0.32522663 -0.33953947
0.16076787 -0.09681583 -0.029151106 -0.1430702 0.16366708 0.17638023 0.05777469 -0.33459717
0.08036443 -0.3508394 -0.118264094 0.46869308 -0.009680425 -0.5251346 -0.20510854 0.25229797
0.11729931 -0.00047734845 -0.18603826 -0.19010806 -0.20472476 0.16044167 0.20860559 -0.13838005
0.0027867777 0.6042148 -0.09318333 -0.11622047 0.071428284 0.35726258 0.026274834 -0.24792056
-0.101252966 0.3212086 -0.026595825 -0.19248575 0.19531007 0.16913219 -0.12657611 -0.15832372
-0.27635825 0.0061770254 0.32011908 0.028679598 -0.20732096 0.0025328402 0.004738379 0.008134437
0.08595463 -0.105001256 -0.25089353 -0.023144402 -0.05946704 0.057259347 0.4119321 -0.027433706
-0.45639208 -0.058794066 0.0982835 0.07275141 0.34365234 0.090870276 0.4880868 -0.07580196
-0.4890842 0.01579347 0.28504702 -0.010480424 -0.67241204 -0.028338308 0.6424872 0.041159865
-0.688075 -0.044289175 -0.43667135 0.042835046 0.6384305 -0.008227942 0.3209885 0.01794574
0.09016805 -0.19894321 -0.31279683 -0.26129803 0.06727603 -0.17861374 0.06775082 -0.11856597
-0.046316918 0.019639026 -0.112826444 0.14515223 -0.091650635 0.36869618 -0.20818269 -0.17909947
-0.067296594 -0.22401638 -0.12917359 -0.25980297 0.12456419 -0.21360692 0.07153266 0.30829674
0.12448673 -0.16820827 0.09836081 0.1032372 0.040238004 0.39484283 -0.1318537 0.15235236
-0.09612693 -0.07971633 0.12968393 -0.43835062 0.15237404 0.25678152 0.13941035 0.22536524
-0.13706084 -0.023229329 0.1503299 -0.08562185 0.0141723305 -0.015980862 0.03070262 -0.1496555
-0.020537693 0.33261487 -0.13666531 0.043220647 0.22474518 0.18742494 0.019328188 -0.11549607
-0.23741545 -0.6878389 0.13954702 -0.40730688 -0.056585234 -0.41070968 -0.033658747 -0.12335116
-0.03343258 -0.15573159 -0.0112295635 -0.048515823 -0.21704511 0.6088007 0.046842035 0.036133245
-0.15544988 0.558496 0.1629949 0.048924245 -0.08785445 0.22183165 0.270581 -0.0007354084
0.04461312 0.54749 -0.08428726 0.4304987 -0.26032442 -0.089005716 0.041022714 -0.07803221
-0.2616689 -0.19229287 -0.21981663 -0.051829364 -0.25453568 -0.027842453 0.107313156 -0.092394836

model.BL.W2 f4 [10, 10]
00000000: 7d5d 923f 5ec2 bf3e 89d1 1b3d 58bd 413a
00000010: ea7c 6ebe 9134 febe 1bee 64bb 20f6 0fbf
00000020: a39d 123d bef6 81be b6ae 06be 8188 753e
00000030: 7199 d93d aabb f53d 31ff d5be a648 f63e
00000040: bf84 023e a692 efbe da86 3bbd e6f3 713e
00000050: 8d6a 40bd e6f0 3e3e ef5f 7d3e 1d34 54be
00000060: c7c9 013f 6e78 9d3d 129e d13d 574e 71be
00000070: ad7d 23bf 6676 81be 409b 91bf 668f 943d
00000080: bfa6 aa3e ecb8 23be 89ff 3dbf f582 1f3f
00000090: dde7 d2bc b6b5 633f 5f5b 8fbd ade0 20bf
000000a0: 1539 5bbd 7bf0 303f c56e 843f d2c1 f33d
000000b0: 4e04 cc3e d8e1 b8be bf15 c7be ffee fb3e
000000c0: cbc6 f4bc 71f0 3e3f 4237 aebc 8b53 0f3e
000000d0: cea4 463e a1f3 c23d 5b46 c5be cda5 3cbf
000000e0: cc29 95be 0269 e0bc 861f 4f3f a5aa 9ebe
000000f0: 6263 63bc 5953 f83d fb48 53be e36d 99be
00000100: 5f4c 743f 7e03 9d3c 2676 52bf d59a 26bc
00000110: 6bfb 40be e701 0fbd 61f2 8fbd 86bc 6cbe
00000120: 87c6 8abf ba73 d83e fd1d a73e 19d1 423c
00000130: bdcb 063f 372f 09bd 4d8a 94bd adf1 27be
00000140: cfa6 babd 6dd6 773d 30eb 5c3c 60ba a6be
00000150: ff5e 2dbc 701a 9e3d 85f9 963f 2ee2 d5be
00000160: c962 4ebf 8499 5ebd 2dd5 3d3d 62dc 01be
00000170: 334c 8e3d de22 03be 45e6 0c3d 54c8 2e3f
00000180: 93bf a23e e7c1 1c3f da18 943f 79ba 6bbe
1.143478 0.37452978 0.038041625 0.000739058 -0.23289838 -0.4964948 -0.003493196 -0.5623493
0.035794865 -0.25383562 -0.13152584 0.23977853 0.1062497 0.11998685 -0.41796258 0.481023
0.12745951 -0.4679157 -0.0457829 0.23628196 -0.046976615 0.18646583 0.24743627 -0.20723005
0.5069851 0.07688986 0.10235228 -0.2356504 -0.6386364 -0.25285643 -1.1375504 0.072539136
0.33330342 -0.15988511 -0.7421804 0.623092 -0.025745327 0.88949144 -0.069998495 -0.6284283
-0.053521235 0.69116944 1.0346304 0.11902203 0.39847034 -0.36109805 -0.38883778 0.49205777
-0.029879948 0.74585634 -0.021266583 0.13996713 0.19398805 0.09519125 -0.3853024 -0.7369049
-0.2913345 -0.027393822 0.80907476 -0.30989566 -0.013878675 0.12125272 -0.20633309 -0.2996665
0.95429033 0.019166704 -0.8221153 -0.010168751 -0.18845908 -0.034913924 -0.07028652 -0.23118791
-1.0841836 0.42275792 0.32640067 0.011890673 0.5265463 -0.033492293 -0.07252941 -0.16400786
-0.091138475 0.060507227 0.013483807 -0.32564068 -0.010581731 0.07719886 1.1794897 -0.41774124
-0.80619484 -0.054345623 0.04634588 -0.12681726 0.069481276 -0.1280627 0.03439929 0.68274426
0.31786785 0.6123337 1.1570084 -0.23020352

model.BL.B f4 [60, 10]
00000000: 14b7 01bd 78b2 6d3e fbda 9abd 51c1 14be
00000010: 53ce 91bd 09f4 2d3d 53a9 ddbc d3b8 243d
00000020: 2d8a 2d3c a667 91be 5e10 3fbe 0572 cdbe
00000030: 33a7 1bbf a747 37be ca2a f5be 674a 65be
00000040: f942 e03c 6935 e0bd bd8e 823e 8ef8 50be
00000050: 01cd 123c 5009 1a3e 42fe 053c 8bae 35be
00000060: 461e 86bd a09c 17bf 0ae9 29bd 0d53 06bd
00000070: b636 a8bd 43c1 a1be 8faa d0bc 151a bdbe
00000080: b774 bbbc fb2d ffbe 5702 b5bb ce6a 62bb
00000090: df50 9bbd 3292 fcbc 992d 28bd c7bf 0ebf
000000a0: 911e cbbc 1796 15be 2920 19bc d842 49be
000000b0: 03d0 5cbd c68e 66be 732b a2bd 53a2 81bd
000000c0: 43ea 8abd 6097 98be 17ff a43c b97a 593e
000000d0: a1c2 683a 52c7 55be 15b5 80bd 6964 5fbe
000000e0: 3ebc c1bd e14b 0a3c 8a45 a6bc b1ae b5bd
000000f0: f513 c3be a949 3bbe abd5 873e 2d83 9d3d
00000100: 885b b9be 70dd 68be 4cae 05bf ce27 84be
00000110: 1331 bbbe 70fa b2bd 0a5c 1bbf f5ff c3bd
00000120: e8a0 40bf 48dd bc3d 951f ae3d fce1 e03d
00000130: 423a c33d a4c6 103a 6286 853d b844 993d
00000140: 4681 6dbe 09a1 82bc 7a2c 6dbd 351f 29bf
00000150: 1a81 82bd 25e4 51bd 87af f5bd 98b9 62be
00000160: 9f52 75bd 2134 d43b 1b91 e1bc de06 633d
00000170: 5b73 afbc 881c b1be 0ea4 33bb 7592 f6bd
00000180: 8cf2 87bd 75ad 4dbc 7fd4 6dbd c353 dcbe
00000190: 077a 83bc 76f1 dbbe 4e3b fdbb 9143 e8bd
000001a0: b9c4 4ebd 1b27 d7be fe1a 13bd c5ae f4bd
000001b0: 3864 29bd 4617 8abd b495 abbc d6f6 25be
000001c0: d2cd 28bd 4bdd 27bb 62cc 92bb 4ad0 2d3e
000001d0: 748c a4bc 72d9 2b3c d7f3 123c 1b3f 51bd
000001e0: 02d0 e9bc d66f ccbd bee1 f9bc 8ccf 80be
000001f0: 2bb5 04bd bdbb bebc d5f3 2dbc 5aa3 43bb
00000200: dfe2 213d 4014 a9be 8d62 fcbd 663c 05bf
00000210: 3088 14bd 47f4 093e e07a df3c 1242 5bbe
00000220: ecf7 ad3c 9058 353c 73a6 a03c 39e1 66bd
00000230: 382d b2bc a5c2 fe3d e6de dfbd 2e13 05be
00000240: 1b99 16bd f5fd 05bf 3a9a debd 14d9 22bd
00000250: 541f e3bc 65e1 9fbe 3a2d 68bd b19a a4be
00000260: 0687 babc 3297 32be 6d34 ddbc 3559 55bd
00000270: ed3a f5bc d8c6 e4bc 6aad 10bd 456d 36be
00000280: 5850 3ebc a093 3bbe c6e8 8d3d b234 f8bd
00000290: b8b3 a8bc 3279 bc3d 8c03 9ebd 4b00 1bbd
000002a0: 9394 03bd d7b7 52be 7e1a b3be 4f1e 8bbe
000002b0: e96b d7be 5628 263e 1274 adbd e156 aabd
000002c0: ee9c 03be b9df 1cbe 2829 3cbe 2396 d23d
000002d0: c2cf ddbe c87f c9bd e7d2 b1be d750 57bd
000002e0: 1547 573d 693a 573e 492a 2cbe d5ae 73be
000002f0: c96c 5b3e a765 16bd 67b6 40bd 4145 e9be
00000300: 8427 fabc 333e 3b3d 398f 2bba 40fe 8fbe
00000310: e2fe 42bd 08d7 10be a8b4 3cbd d391 1b3c
00000320: 7b14 28bc f4e3 30be 5239 98bd c427 3a3d
00000330: fa09 9ebc 2759 ef3d a90e 96bd 81d2 38bd
00000340: 5651 7f3d 3c38 2bbe 0903 82ba d3d8 1dbd
00000350: 0bfe a5bd 027e b3be 01f4 5ebe e126 65be
00000360: a1cd 8bbd f62c 573b 98b1 02bc 1b90 d3be
00000370: ae12 97bc 9fcb 0fbe 4eea 033c 8361 68bd
00000380: 6f03 05bd 7b22 793d 5e70 a73c 085c ab3b
00000390: 28af 0bbc caf8 55be 9f29 74bc 7f98 013e
000003a0: 32d3 523d b500 c33c 81ff 64bc c2ff 92be
000003b0: 4783 96bd ee6a 5cbd 2212 b53a 6940 9bbb
000003c0: bc8c 34bc 461a 1dbe c963 233d a3bf 6dbe
000003d0: 6875 87bd d0ae c43d 9900 c6bd 907b 5dbd
000003e0: f1e9 00bd 68e0 99be 1858 193d c4fb 913c
000003f0: 7daf 27bf ac17 0bbd 7452 c1be 2155 313e
-0.031668738 0.23212612 -0.075612985 -0.1452687 -0.07119431 0.04246906 -0.02705828 0.040215325
0.010592026 -0.2839939 -0.18658587 -0.40126052 -0.60802 -0.17898427 -0.47884208 -0.22391663
0.027375685 -0.10947687 0.25499526 -0.20407316 0.00896001 0.15042615 0.008178296 -0.17742364
-0.06548743 -0.59223366 -0.04148201 -0.032794047 -0.0821356 -0.3159276 -0.025471954 -0.36933962
-0.022882802 -0.49839768 -0.0055239606 -0.0034548524 -0.07583784 -0.03083143 -0.04105911 -0.5576138
-0.024794849 -0.14608036 -0.0093460465 -0.19654405 -0.053909313 -0.22515401 -0.079184435 -0.06329789
-0.06782963 -0.2980299 0.020141168 0.21238221 0.00088790996 -0.20876816 -0.06284539 -0.21815647
-0.094597325 0.0084409425 -0.02029683 -0.0887121 -0.38101164 -0.18289818 0.26530203 0.076910354
-0.36202645 -0.22740722 -0.5221908 -0.2581162 -0.36560878 -0.087391734 -0.60687315 -0.09570304
-0.75245523 0.092218935 0.085021175 0.10980603 0.09532596 0.0005522764 0.06519772 0.0748381
-0.23193845 -0.015945928 -0.057903744 -0.66063243 -0.063722804 -0.051242966 -0.1199637 -0.22141111
-0.059893247 0.006475941 -0.027535012 0.05542647 -0.02141731 -0.3459208 -0.0027411017 -0.12039653
-0.06638059 -0.012553562 -0.05806398 -0.43032655 -0.016049398 -0.42957658 -0.007728017 -0.11341012
-0.050480578 -0.42022023 -0.035914414 -0.11947397 -0.04135534 -0.0674272 -0.020945407 -0.16207442
-0.04121191 -0.0025614079 -0.0044799307 0.16973987 -0.020086505 0.010488855 0.008969269 -0.051085573
-0.028541569 -0.099822685 -0.03050315 -0.25158346 -0.032399338 -0.02328288 -0.010617216 -0.0029852004
0.039523 -0.33023262 -0.123234846 -0.52045286 -0.03626269 0.1347209 0.027280271 -0.21411923
0.021236382 0.011068478 0.01961062 -0.056367133 -0.021750078 0.12439469 -0.109311864 -0.12995598
-0.036767107 -0.5234063 -0.1086926 -0.039757803 -0.0277249 -0.3122665 -0.056683756 -0.3214927
-0.022769462 -0.17440489 -0.027002538 -0.052087028 -0.029935325 -0.027926847 -0.03532163 -0.1781512
-0.011615835 -0.18318033 0.06929164 -0.12119426 -0.02059351 0.09202804 -0.0771552 -0.037842076
-0.032124113 -0.20577942 -0.3498115 -0.2717156 -0.42074516 0.16226324 -0.08469404 -0.08317352
-0.12852833 -0.15319718 -0.18375075 0.102825426 -0.4332257 -0.098388255 -0.34731218 -0.05256733
0.052558023 0.21018375 -0.16813006 -0.23797162 0.21428217 -0.036718037 -0.047048952 -0.4556065
-0.03053642 0.045713615 -0.0006544474 -0.28123665 -0.047606356 -0.14144528 -0.046070725 0.009495216
-0.010258789 -0.17274457 -0.07432808 0.04544808 -0.019291867 0.11686926 -0.07327015 -0.045122627
0.062333427 -0.1672067 -0.0009919117 -0.038536858 -0.081050955 -0.35057074 -0.21772768 -0.22378112
-0.0682633 0.0032833195 -0.007976912 -0.4132088 -0.018441524 -0.14042519 0.008051468 -0.05673362
-0.032473978 0.0608239 0.020439323 0.005229477 -0.008525647 -0.20895687 -0.014902501 0.12655829
0.051470943 0.023804048 -0.0139769325 -0.28710753 -0.07349258 -0.053812914 0.0013814608 -0.004737903
-0.011019882 -0.15342054 0.039890084 -0.23217635 -0.0661419 0.09603655 -0.09668083 -0.054072917
-0.031473104 -0.3005402 0.03743753 0.017820247 -0.6550215 -0.033958122 -0.3775822 0.1731763

model.BL2.W1 f4 [120, 60]
00000000: e088 c4bd 8b69 d9bd a2e5 0ebb fd4b 333d
00000010: 2c1f 94bd 3ff7 d8bd bb59 54bc afca c33d
00000020: 0eec 09be 4185 2d3b f0d8 11be ec29 233d
00000030: e08a 6ebd b78c 23be aefa 31bd 1e15 89bc
00000040: fe6d a3bc 7dea a13d 6180 e63d c440 523d
00000050: b037 02be d240 4ebe 004e 703d d1c7 5abe
00000060: ece7 15be b653 c7bd 1985 613c e86b b7bd
00000070: 5faf a2bd 8c1b 273d 5135 853d aef3 8fbd
00000080: 74c9 73bd 90c3 3dbe 4ab7 85bd b54b 2bbd
00000090: 9334 15be 5493 55be c4e3 553d b872 4cbe
000000a0: cb9d eebd 7463 dcbd 01c2 353d 9d88 dbbc
000000b0: 2886 12be f695 a5bd 7e28 28be c5c7 3b3d
000000c0: 1a6c 27be 63b6 a93d 2273 64bd 016b e83c
000000d0: df9a 9ebd 8350 b43d 208b f9bd 367f aebd
000000e0: e47c 8abd b21b d53c 76e4 63be 20df 70be
000000f0: ebd2 36be 7e5f 8abd e37c 3dbe 3d30 29be
00000100: 0969 30be 72ef 833c 26d6 3b3d a767 3b3d
00000110: b8bb 0cbe 3483 8ebd 8b5e fcbd 944d bbba
00000120: 0fc0 00be f29e 11bd 5a8c 19be 9561 2fbe
00000130: b41f ec3b 8dff 943c 69b7 bbbc 76c2 383b
00000140: e670 d0bd a8eb 65be b831 883d ad41 1bbe
00000150: 59ba 24bd 9948 12bd b872 ccbd 8c86 45bd
00000160: ef21 8d3d efc7 52bd cbe0 7bbe a085 be3d
00000170: f30b 4ebe 0f00 a2bd faba 57bd a25a 8b3d
00000180: d65c dbbd 5710 77bd ff92 d4bc f697 c4bc
00000190: 5208 98bd 219e 29bd 2545 92bd e18b e7bd
000001a0: 6677 babd 9ea4 7ebe b876 d2bd fb88 173b
000001b0: e36e 3fbe 04fb 233d defc 84bd 800f 39be
000001c0: a895 1dbe aa1f 973c 9c2b b6bd b5a4 52bd
000001d0: 704b c43c 7699 16be 64a2 1ebe ae5f adbe
000001e0: 99ce 0abe 8511 43be 564d 54bd f1f6 243e
000001f0: 8ed9 2d3e b37a 3e3e 6913 93bd 1586 e33d
00000200: 6bb0 95be 71b9 c8bb 74cd 93bd 05b1 e0bd
00000210: 537a dc3d 5148 45bd 709f 05bd a09a 84be
00000220: d658 d33d d21e 1a3d 467d 823d 0d3c 483c
00000230: abd3 d63d e8ff 46be e24a 1fbe 46ea 833c
00000240: 93a3 bc3d e743 ccbd 588d 543d 1a57 293c
00000250: 790d 8ebd f75d d5bd b78d f4bd c4bc 32be
00000260: a976 3dbe 830d 69be 18fb 24be 0a26 67bd
00000270: a8ef 9dbe ee85 be3d 3b3d 203d 0c5a 07bd
00000280: 861a 933d efb1 d63d af9a 013d 68e3 1bbe
00000290: 7df8 813d 3084 91bd 404c 71bd b9d8 e6be
000002a0: 7a23 9abe 31b1 43bd da9e 08bd 6b7e b4bd
000002b0: c086 8bbd 2999 dd3d 76a6 9bbd a067 153e
000002c0: 6f0a 423d e6e0 303d ba7f e43d 4fca 01be
000002d0: fea8 77bd 2203 19be c085 db3c e545 383e
000002e0: de2f e13d 73ff 2f3e 24b7 05be de01 503d
000002f0: 8958 85bd 3c15 a0bd 1d88 373d da30 6e3d
00000300: 5e43 113e 2748 4ebc 17b6 ac3d 912a 86bd
00000310: 7ba0 423d ea33 66bb 3461 97bd 364a f53d
00000320: af12 6b3d 895e aa3d 8bfa a1bd ccd8 ba3d
00000330: d855 c13d 9ef0 683b 7b83 babc 9143 76be
00000340: fded 63bc 6641 55bc 76fa 2ebe c8ff b03d
00000350: 95d9 9abe 2d02 873c 90ea 0cbe ac27 02be
00000360: dea0 8abc c4f5 24bd 9253 14bb 2477 a2bd
00000370: b134 2b3e af12 cb3d a305 ff3c 2a51 1c3d
00000380: 2ac2 f13c f3b6 5abd 3609 b23d 6a3d 60bd
00000390: c53e 46bd 9519 06bd 3fc9 f6bd 1607 4cbe
000003a0: d441 19bd d68c 8fbc e76e 5f3d aaf7 723d
000003b0: e83a a03d d3d1 22be 2554 953d 06f4 553d
000003c0: 868d c53c 957d c2bd a8b5 583e 03ef cebd
000003d0: 9b74 113e c757 b53c d565 69bd 346d 89be
000003e0: 8c12 a83d 1aa3 e23c da52 9cbd 9199 18bd
000003f0: a3b6 92bd f0a8 12be 2932 c8bc 0107 823d
-0.09596419 -0.10615834 -0.0021804352 0.04377364 -0.07232508 -0.105940334 -0.012960847 0.09560143
-0.13468954 0.002647713 -0.14242911 0.0398349 -0.05823791 -0.15971647 -0.043451957 -0.016733702
-0.01994991 0.07906053 0.11254955 0.051331297 -0.12716556 -0.20141914 0.058668137 -0.21365286
-0.14639252 -0.097327635 0.013764643 -0.08956128 -0.07943606 0.040797755 0.0650431 -0.070289
-0.059518293 -0.18531632 -0.065291 -0.041820247 -0.14570837 -0.20856982 0.052219167 -0.19965637
-0.1165119 -0.10761157 0.04437447 -0.02679854 -0.14308989 -0.080852434 -0.16421697 0.045844812
-0.16349831 0.08286741 -0.05577386 0.028371336 -0.07744383 0.08804419 -0.12184739 -0.08520357
-0.06762102 0.026014183 -0.2225512 -0.23522615 -0.17853896 -0.06756495 -0.18504672 -0.16522308
-0.17227568 0.016105387 0.045858525 0.045753147 -0.13743484 -0.06958619 -0.1232272 -0.0014290088
-0.12573265 -0.035551973 -0.14994946 -0.17127068 0.0072059277 0.018188262 -0.022914605 0.002819208
-0.10177784 -0.22453177 0.06650108 -0.15161772 -0.040216777 -0.035713766 -0.09982818 -0.048224017
0.06891238 -0.051460203 -0.2459747 0.09302831 -0.20121746 -0.079101674 -0.05266855 0.06804396
-0.107110664 -0.060318317 -0.025949 -0.023998242 -0.07423462 -0.04141057 -0.071420945 -0.11305977
-0.09104805 -0.24867484 -0.1027655 0.0023122418 -0.18694644 0.04003431 -0.06493543 -0.18072319
-0.1538912 0.018447716 -0.088950366 -0.051426608 0.023961753 -0.14706978 -0.15491635 -0.3386206
-0.13555373 -0.19049652 -0.051831566 0.16109826 0.16977522 0.18601494 -0.071814366 0.111095585
-0.2923616 -0.006125622 -0.072169214 -0.10971264 0.10765519 -0.04816467 -0.032622755 -0.2589922
0.103196785 0.03762705 0.0637155 0.0122213485 0.10489591 -0.19433558 -0.1555591 0.016102921
0.09210887 -0.09973889 0.05189261 0.010335708 -0.069361635 -0.10418313 -0.119410925 -0.17454821
-0.18502297 -0.2275906 -0.1611141 -0.05643276 -0.30846906 0.09302889 0.039120894 -0.03304486
0.07182793 0.10483157 0.03164166 -0.15223467 0.063462235 -0.07105291 -0.05891061 -0.4508722
-0.3010519 -0.047776405 -0.033354618 -0.08813175 -0.06812811 0.108202286 -0.07600109 0.14590311
0.04737323 0.04318323 0.111571744 -0.12674831 -0.060463898 -0.14942601 0.026797175 0.17995413
0.10995458 0.1718729 -0.13058144 0.05078303 -0.06511027 -0.0781655 0.044807542 0.058152057
0.14185855 -0.012590445 0.084331684 -0.06551088 0.047516327 -0.0035126158 -0.07391587 0.11977045
0.057390865 0.083188124 -0.079091154 0.09123382 0.094402015 0.003554381 -0.022767773 -0.24049212
-0.013911721 -0.0130160805 -0.17087731 0.086425364 -0.30244127 0.01648053 -0.13761353 -0.12710446
-0.01692241 -0.040273443 -0.002263282 -0.079328805 0.16719319 0.09915673 0.031130617 0.03816334
0.02951153 -0.05339713 0.08693163 -0.05474607 -0.048399705 -0.03273924 -0.120501034 -0.19924578
-0.037416294 -0.01752321 0.054549124 0.059318222 0.078237355 -0.15900354 0.0729144 0.052234672
0.024115335 -0.09496609 0.21163046 -0.101041816 0.14204638 0.022136582 -0.05698188 -0.26841128
0.082066625 0.027665664 -0.0763299 -0.037255827 -0.071637414 -0.14322257 -0.02443798 0.06348992

model.BL2.W2 f4 [10, 5]
00000000: a5a2 013e f317 14be cdb6 6d3e bdc4 1cbe
00000010: d8eb ab3f c776 823d c307 a7be 5588 053f
00000020: 4007 e5be 1c19 d2be 26f2 7f3f 7f28 e1bd
00000030: 4f3f e7be 03c5 3b3e 176a 2b3d 4318 51be
00000040: 35e4 e63e d959 2fbf ba9f f9be 046c d1be
00000050: db65 8f3f fb23 c8ba 486c 2ebf b172 4f3e
00000060: a511 063e 3171 a33e b4ee fe3e 2e3c 3d3f
00000070: d745 2d3e 20ec ea3e d85e 953f 8b1b e5bd
00000080: 8fff 2fbf e23f c33e 8f06 973d 4937 f8be
00000090: 4cec 66be 13cc 413f 8458 a63e 3082 a73f
000000a0: 6219 713f 59c6 d33c d5c3 c53e 8eb5 183f
000000b0: b99a bc3e 1ced 15bf af65 023f 21e6 633f
000000c0: 6d92 a73e 299c 7ebe
0.126597 -0.14462261 0.23214264 -0.15309425 1.3431349 0.06370311 -0.3262311 0.5216115
-0.44732094 -0.41034782 0.99978864 -0.10994052 -0.45165488 0.18336873 0.041849222 -0.20419411
0.45095983 -0.6849647 -0.48754674 -0.40902722 1.1202959 -0.0015269512 -0.68133974 0.20258595
0.13092668 0.31922296 0.4979149 0.7391995 0.16921173 0.45883274 1.1669569 -0.11186894
-0.68749326 0.38134676 0.07374298 -0.4847968 -0.22551078 0.7570202 0.32489407 1.3086605
0.94179356 0.025851415 0.3862597 0.5965203 0.36836794 -0.58564925 0.50936407 0.89023024
0.32728902 -0.24864258

model.BL2.B f4 [120, 5]
00000000: c81a b63e c611 b7be d4fe 213e c2a5 05bf
00000010: 3bd6 8a3e 58b5 a23b e904 1fbe 5c3e 28bf
00000020: 8a75 163d 8c89 dabd d860 28bf 7199 943d
00000030: d966 133e a227 cebe 8a45 ecbe d445 01bf
00000040: a598 583e 4588 f6be 227e 86bd 767d 59be
00000050: 8e71 16bd 82bd e3be d0b7 e2be d96c 623d
00000060: 3a8c 173e bc02 29bf f3d5 cdbc b92f ddbe
00000070: 6e79 3fbe caa1 0dbe db3e cabe 71aa c53c
00000080: 8dcd 61bd 2bca 89be 55bc efbe 3532 7e3d
00000090: b685 01be 47a1 a6be dcaa 37be d4bb a73c
000000a0: 90f8 c5be e51d febc 3379 383e 4623 b4be
000000b0: 5560 a0be 67ca fcbd c919 0abf 14f2 0bbe
000000c0: 43de 21bf eaf9 debd a7d0 ad3e 0c14 90be
000000d0: 9eea 093f b5a5 a4bb 16f3 3a3d 58aa 9bbd
000000e0: e299 23be 20cb 17be 63aa 69be 11e3 b7be
000000f0: 50a4 9a3e a0bd 0ebf 32fb 98be a211 a53e
00000100: c0a1 ba3d daa4 9abe 3ffe 52bc cbe3 a7be
00000110: 761d 34be 9816 8dbe a2f8 1c3d 3735 1ebf
00000120: c378 62be a7fe b43e 38d4 1e3c c466 8ebe
00000130: 683a 813e c242 d8be 321c 96be 821f 4dbe
00000140: 4482 de3e 4fdf fc3b 9dd1 3abf 447f 5abe
00000150: ff48 8c3e 85be 9ebe af35 b7bd 6bca aabe
00000160: bb2e bfbd aa56 79be 0dcf 843d 4880 11bf
00000170: 90b4 3ebf b89a de3d 537a 05be d171 f0bd
00000180: 79ea 093d b63a d6be eb68 2ebe f15e 44be
00000190: a522 8cbe 8121 2cbf 9409 1e3e 77c4 1abf
000001a0: 394c b6bd b701 b7bd 57b5 aebe cc11 bfbe
000001b0: ed49 d8bd e64a 29be 6ef4 42bb a6f5 dabd
000001c0: bd60 85be c6f0 59be b6c9 99be eb03 7dbe
000001d0: a67b cebe 3320 64be 5718 16bf 56f9 dbbd
000001e0: 8d9b 46bd 5c7d a13d 5fd3 87be 2b20 383d
000001f0: b357 043b 0896 d5bc 4ddc b5be ce97 fabe
00000200: a214 82be 498d 57be bd67 3fbe 8ce6 19be
00000210: 0c2b 2cbe 82fd 043c 87b4 01bd 1f02 fb3e
00000220: 15bb a7be f358 04bf 2d65 aebe 0efa cf3d
00000230: f17c 71be 92aa 80be 3446 9cbe 88e4 efbe
00000240: 4a68 ebbe bda4 593e 0994 d8be b13e 993d
00000250: e5dd 623d 5db6 dc3c 404d e5be 4ac5 0abf
00000260: 1952 183f 7232 18be 60d1 aabe 7dd2 1c3e
00000270: da0b 0bbf b3e2 c7be fcd6 22bd 52c7 4bbb
00000280: 12f6 823e d2c9 e2be 6a8c 10bf b52c 37bd
00000290: ea28 99b8 693c cbbd cc47 7bbe e391 afbe
000002a0: 8028 b5bd 782b a1bd e1a1 26bf 4c64 bc3c
000002b0: 95d9 2a3e 2f0a 80be f7aa 82be 1520 35be
000002c0: c067 fa3c 76b9 353e 5443 1b3e 7b5a 46be
000002d0: 8d4c 52be 43db b6be adb9 08be f3ff 9dbe
000002e0: dc00 03bd c486 bcbe 21d2 3f3e fcd1 87bc
000002f0: 685f 0ebe c955 06be 2cd4 d4be 70e2 923d
00000300: 7009 05be 635b 07be 42ba f4be 105a 6dbe
00000310: 3098 023d c6cc 1fbd 7059 86be 1323 afbe
00000320: e6a5 3d3d d066 5abe d51c 42be ddae acbe
00000330: 8301 7abd a456 673e 1a5e b9bc 9d26 b5bd
00000340: b7b9 1b3d 5556 d03e 9d7c 903b 50c7 39bd
00000350: 4ed6 adbe ca22 8abd 69d3 d43d ed31 33be
00000360: 6264 d63d 4bc5 c33c 43ab c33d 08f6 ffbd
00000370: 512a c7be da87 253e 74e5 a4bd da3f 86bd
00000380: d210 d1be 5d1b 96be fc51 46be 53da 8fbe
00000390: 8338 d2bd 6324 3ebe 408f 6ebe 8d21 3abe
000003a0: e3df 1ebc 26ad 413d 8b2f 073d c604 0abd
000003b0: 7f23 29be e07e 15bf 598d 323e 9082 80be
000003c0: bcb6 10bf ab33 043d 8f9d 1a3e 68d0 92be
000003d0: 5475 c5be 0714 0e3d 98eb 50be 21ea 243e
000003e0: f9a4 9fbc fe3c f5bc 29b5 adbc 210b 86be
000003f0: 349a 8b3d 74b2 64be d9fd 41be a9c6 28bf
0.35567307 -0.35755748 0.15819865 -0.5220605 0.2711657 0.0049654655 -0.15529217 -0.6572015
0.036733188 -0.10670766 -0.6577277 0.07255829 0.14394702 -0.40264612 -0.46146804 -0.50497174
0.2115198 -0.4815084 -0.06567027 -0.21239266 -0.036729388 -0.4448052 -0.44280863 0.055279586
0.14799586 -0.660198 -0.025126433 -0.43200472 -0.18698665 -0.13831249 -0.3950108 0.024129124
-0.05512767 -0.26912054 -0.46823373 0.0620596 -0.12648663 -0.3254492 -0.17936271 0.020475306
-0.386662 -0.031020114 0.18014984 -0.35183161 -0.31323496 -0.12343293 -0.53945595 -0.13666564
-0.6322977 -0.10887511 0.33948252 -0.28140295 0.5387362 -0.0050246366 0.04564198 -0.0760085
-0.1597667 -0.1482358 -0.22818904 -0.35915425 0.30203485 -0.55758095 -0.29879147 0.32240015
0.091128826 -0.30203897 -0.012878 -0.3279098 -0.17589363 -0.275563 0.038323052 -0.6179995
-0.2211638 0.35350534 0.009694152 -0.2781278 0.25239873 -0.42238432 -0.29318386 -0.2003155
0.4345876 0.00771705 -0.72976094 -0.2133761 0.27399442 -0.3100473 -0.08945786 -0.33357558
-0.09335085 -0.24349466 0.06484804 -0.56836367 -0.74494267 0.10869354 -0.13034944 -0.11740459
0.033670876 -0.41841668 -0.1703221 -0.19176842 -0.27370182 -0.6723862 0.15433341 -0.6045603
-0.08901257 -0.08935874 -0.34122726 -0.37318265 -0.10560975 -0.16532478 -0.0029747742 -0.10691385
-0.26050368 -0.21283254 -0.30036706 -0.24708526 -0.4032871 -0.22277908 -0.5863089 -0.107409164
-0.04848819 0.078852385 -0.2652845 0.044952553 0.0020193874 -0.026072517 -0.3551964 -0.48943943
-0.25406367 -0.2104999 -0.18691917 -0.15029353 -0.16813296 0.008117082 -0.031666305 0.49025056
-0.3275992 -0.51698226 -0.34061566 0.10155116 -0.23582818 -0.25130135 -0.3052231 -0.46854043
-0.45978004 0.21254249 -0.42300442 0.074826606 0.055387396 0.026942426 -0.447855 -0.5420729
0.5950027 -0.14862993 -0.33362865 0.1531467 -0.5431496 -0.39040145 -0.039755806 -0.0031094146
0.25578362 -0.44294602 -0.56464255 -0.04472037 -7.303229e-05 -0.09923632 -0.24539107 -0.3429099
-0.088456154 -0.07869619 -0.6509076 0.022997044 0.16684563 -0.2500777 -0.2552106 -0.1768802
0.03056705 0.17746529 0.15162402 -0.19370453 -0.20537014 -0.35714158 -0.1335208 -0.30859336
-0.03198324 -0.36821568 0.18732502 -0.01657962 -0.13903582 -0.13118662 -0.41568124 0.07172096
-0.12991881 -0.13218455 -0.47798353 -0.23178887 0.03188342 -0.039013647 -0.2624011 -0.34206447
0.04630079 -0.21328282 -0.18956311 -0.3372716 -0.061036598 0.22591645 -0.022627879 -0.088452555
0.03801891 0.40690866 0.0044093863 -0.045356095 -0.33952564 -0.06744917 0.10391886 -0.17499514
0.10468365 0.023897788 0.0955415 -0.124980986 -0.38899472 0.16165105 -0.08051577 -0.065551475
-0.40833145 -0.29317752 -0.19367212 -0.28096256 -0.10264685 -0.18568568 -0.23296833 -0.18176861
-0.009696933 0.047284268 0.033004325 -0.03369596 -0.16517447 -0.5839672 0.17436732 -0.2509961
-0.5652883 0.032275837 0.15099166 -0.28674626 -0.38566077 0.03468707 -0.20402372 0.16104938
-0.019487845 -0.02993631 -0.021204548 -0.26180366 0.06816521 -0.223337 -0.18944491 -0.6592813

model.TABL.W1 f4 [3, 120]
00000000: 269e 7dbe 2177 923e 4ebf fbbd b1c8 7bbe
00000010: 053b c33d 3c47 17be d623 4cbd 33c8 15be
00000020: e71e bdb9 3cc5 98bd ac94 18be d826 bc3d
00000030: 1106 aa3e c851 473e 5257 953e 33fa 34bd
00000040: 83d6 2b3f ca07 51be f335 1a3f 8598 96be
00000050: a140 89bd 8588 483f 4511 b43d 4060 0fbe
00000060: 3abe 8a3d 15fe 1c3f 6d7d bbbe fdb3 263f
00000070: c37f 85be 9e5a 1c3e 8a55 16bf 33d0 163d
00000080: 9e61 ad3d 0bb5 3d3f f251 9ebe 34bf b2be
00000090: 5e9c 513e 70b1 93be a743 01bf cb33 9a3d
000000a0: 749b 293e e176 4cbe 53b6 7ebe 3443 2e3e
000000b0: 288c edbe ba13 7e3d 27a2 41bd 2482 823e
000000c0: 80c6 28be e704 813d db01 9bbe 3892 4ebd
000000d0: f998 053e 3f4c a93e c43b 4cbe 4176 bf3e
000000e0: 04cf 21bf 18f1 633e 5c19 3abe b29b d4be
000000f0: afcb 603e 6380 60bd 7fb5 97be a421 c43e
00000100: 9213 b73e 0004 063f 3493 d63d 9ee5 f83e
00000110: bd44 ffbd 19ab ebbd 24f2 bdbe 9f4d 16bc
00000120: 8d32 e4be 1f14 83be f690 75be 7fc4 09bf
00000130: 1dfd f3be f8d4 79be 5d01 1c3f 0a61 1dbf
00000140: 1690 e13b e00a cdbd c976 58be b532 1b3e
00000150: 3fb2 4c3e 43b1 313e b28a 72be 4973 a9be
00000160: c814 9cbd f5ea 9e3c 0845 0c3e cddf 823d
00000170: 9b7b 4e3e c40f 9fbe 6f33 183c 9532 5d3d
00000180: a93a d43b 35a9 b33d fe96 84be b395 31be
00000190: b2cb 34be 48c0 3b3e eba9 e5bd 5389 65be
000001a0: 064b f93d 1637 c9be 5153 6c3e f51c 11be
000001b0: 09b6 3ebe f1a3 cbbe 665f 6dbd f8f3 a03d
000001c0: bdaf 55be a99b 4ebe c6b4 cb3e 34e9 18bd
000001d0: ef8b 04bd 489c 48be 8832 a2be ff0a b0be
000001e0: 311e 83be 581b 58be 4b64 983d 9505 20bd
000001f0: d358 eabc 82b0 823c 5b2e 703e df8e a83c
00000200: f0c5 063e aaac c73d e0c2 a1be 69d0 74bd
00000210: 64e4 a4be 2601 583e d911 68be 44e6 973e
00000220: ede6 b9be cbb8 00bb 3945 fcbd c852 0d3c
00000230: b2ee 993e 42bd a0be 3bb7 eabb c253 5e3e
00000240: 8eb1 2dbd 5130 a6be 4387 3fbd 4b54 05be
00000250: a717 353e 9fca b3be d3d4 41be 3933 9ebe
00000260: 3cc5 97be f513 efbe 49b0 783e 42e6 49be
00000270: 56ce 033e a5d7 61be 6d30 063e 2900 c93e
00000280: 1ff4 75bb 2881 acbe 44de dbbc 7fd8 3cbe
00000290: 5813 cc3e dd16 02bc c67c b8bd 79e6 60bc
000002a0: dad1 293f c184 04bd aa44 703d 7a6c 57be
000002b0: 1dcc a23e 0694 043d 515b 1f3c bd1f 1abe
000002c0: ef0e 353d f5ea 92be 0a62 533e d426 d53d
000002d0: 4124 ecbe 13c3 773e ed21 523d 5988 823d
000002e0: 0af1 7ebe f5e6 a9bd cd13 403e f70c 5ebe
000002f0: 6697 cd3e 683c c6bd e9f3 473d 1cd0 2ebe
00000300: a020 d53d da4d e03e 5cf2 33be 5dfc 0f3d
00000310: e887 933e 8a80 083e 443c 57be 5901 773e
00000320: a32e b5bd d00d 463e 906f 6dbe 3f18 a9be
00000330: e4d1 67be cd4b c43d 2f29 fb3d 72cb 2e3e
00000340: 9fb8 58be 6a6d d7bd 1582 65be 7d9b abbe
00000350: d7d3 97bd 0211 2a3e cd68 193e 3a86 87be
00000360: 74f6 f2bd e3a0 acbe f810 0b3f 77f6 8e3d
00000370: 7965 4cbe 1169 7fbe 3606 a2be c0e6 97be
00000380: 79d1 d3be 53b3 183d 22c9 a6be ee31 6ebe
00000390: 22f8 25be ef61 b33d e785 3e3e e198 823e
000003a0: dcb2 72be ccf2 d4bb 8764 88be 29af 153e
000003b0: a7b4 91be 02d4 533c f2ae eb3c 27a8 833e
000003c0: f011 a53e 7972 2b3f 2fbd 0cbf 6b8c a6be
000003d0: 65bb 8ebe 5465 11be c3a8 9ebe 1404 da3e
000003e0: b3d7 20bf 24bf 2fbe f999 1bbe 57e1 7d3e
000003f0: bdbd aebe d9fb a0be 0a6e 99be 242c a9be
-0.2476736 0.28606513 -0.12292348 -0.24588276 0.095327415 -0.14773268 -0.049838863 -0.14627151
-0.00036071913 -0.074594945 -0.14900464 0.09187096 0.33207753 0.19464791 0.29168183 -0.04418392
0.67124194 -0.20413128 0.6023857 -0.29413238 -0.0670178 0.7833331 0.087923564 -0.1400156
0.06774564 0.613252 -0.3661913 0.6511839 -0.26074037 0.15268943 -0.5872427 0.036819648
0.084658846 0.74104375 -0.30921894 -0.349115 0.20469806 -0.28846312 -0.50493854 0.0752941
0.16563207 -0.19967224 -0.24874239 0.17017823 -0.46395993 0.06203053 -0.04727378 0.25489914
-0.16481972 0.06299763 -0.30274853 -0.050432414 0.13046636 0.33065984 -0.19944674 0.37394908
-0.63206506 0.22259939 -0.18173736 -0.41525036 0.21952699 -0.05480994 -0.29630658 0.38306916
0.35757118 0.52349854 0.104772955 0.48612684 -0.12464283 -0.11507244 -0.370988 -0.00917378
-0.44569817 -0.2560129 -0.2398108 -0.53815454 -0.47654048 -0.24397647 0.6093958 -0.61476195
0.0068836315 -0.1001184 -0.21139063 0.15156062 0.1998987 0.17352776 -0.2368572 -0.33095768
-0.07621151 0.019399146 0.13698208 0.06390343 0.20164339 -0.31066716 0.0092896065 0.054003317
0.0064767194 0.08772508 -0.25896448 -0.17342262 -0.17655829 0.18335068 -0.1121405 -0.22415666
0.12172513 -0.3929984 0.23078658 -0.14171202 -0.18624128 -0.39773515 -0.057952307 0.07859033
-0.2086782 -0.20176567 0.39786357 -0.037331775 -0.032360014 -0.19590867 -0.31679177 -0.3438339
-0.25608972 -0.21104181 0.07441004 -0.039067823 -0.028606808 0.015953306 0.23455183 0.020575939
0.13161445 0.0974973 -0.3159399 -0.059769068 -0.32205498 0.21094188 -0.22663058 0.29667866
-0.36308995 -0.0019641395 -0.12317891 0.008625694 0.30064923 -0.31394392 -0.007162956 0.21711639
-0.042405657 -0.32458737 -0.046759855 -0.13020436 0.17684804 -0.35115525 -0.18928842 -0.30898455
-0.29642665 -0.46694914 0.24285997 -0.19716743 0.1287168 -0.22054918 0.1310441 0.39257935
-0.003752954 -0.33692288 -0.026839383 -0.18441962 0.39858508 -0.007940021 -0.09008174 -0.013726824
0.66335833 -0.032353166 0.058659233 -0.21037474 0.3179635 0.03236773 0.009726361 -0.1505117
0.044203695 -0.28694883 0.20642868 0.104077965 -0.4612141 0.24195509 0.051301885 0.063736625
-0.24896637 -0.08296005 0.18757553 -0.21684633 0.4015457 -0.0967949 0.048816595 -0.17071575
0.10406613 0.43809396 -0.17572922 0.03515278 0.28814626 0.13330284 -0.21019083 0.24121608
-0.08846786 0.19341207 -0.23187089 -0.3302631 -0.2263866 0.0958477 0.122637145 0.17069796
-0.21164177 -0.10518916 -0.22412904 -0.33517066 -0.07413452 0.1660805 0.14981385 -0.26469594
-0.118634135 -0.33716497 0.5432277 0.06980603 -0.19960584 -0.24942423 -0.31645364 -0.29668236
-0.41370752 0.037280392 -0.32575327 -0.23261234 -0.16207936 0.08758914 0.18605767 0.25507262
-0.23701042 -0.00649867 -0.26639196 0.146176 -0.2845814 0.012928965 0.028769944 0.25714228
0.32240248 0.66971546 -0.5497617 -0.32529005 -0.27877346 -0.1419881 -0.3098813 0.42581236
-0.6282913 -0.17162758 -0.15195455 0.24792992 -0.34129134 -0.31442145 -0.29966766 -0.3304149

model.TABL.W f4 [5, 5]
00000000: cdcc 4c3e 16d5 91bd 03c3 91be a43c a0be
00000010: 4ae9 2abd 0ed4 ed3e cdcc 4c3e 6130 36bf
00000020: 80d7 69be 3b77 013f 3308 e33e 8246 553e
00000030: cdcc 4c3e 7cc1 a73e 6885 123e f6d0 373f
00000040: 91f8 bbbc f6df 8abe cdcc 4c3e bcc2 113f
00000050: 3d36 143f 6079 c3bd 386f adbe 3390 d2bd
00000060: cdcc 4c3e
0.2 -0.07120721 -0.28469095 -0.31296265 -0.041726388 0.46450847 0.2 -0.7116757
-0.22836113 0.50572556 0.44342193 0.20827678 0.2 0.32764804 0.14308703 0.71803224
-0.022945674 -0.27123994 0.2 0.56937766 0.5789526 -0.09544635 -0.33873916 -0.1028141
0.2

model.TABL.W2 f4 [5, 1]
00000000: cf7a dabf c825 b5bf 608b 06bb 2b26 7abf
00000010: f231 e9bf
-1.7068728 -1.4152155 -0.0020529851 -0.9771449 -1.8218367

model.TABL.B f4 [3, 1]
00000000: a14c 98bc e548 bf3d 8435 adbd
-0.018591227 0.093400754 -0.08457473

exp_avg f4 [10, 1]
00000000: 7129 6cba 10e2 05ba 5705 36ba 8a28 263b
00000010: 4c86 c73a 343c fb3a 7e47 863a bed5 1dbb
00000020: 02fb 46bb da89 3f3a
-0.0009008861 -0.00051072333 -0.0006943545 0.0025353753 0.0015222519 0.0019167722 0.0010244695 -0.00240837
-0.0030362015 0.0007306613

exp_avg_sq f4 [10, 1]
00000000: 2074 cc37 c52e bb36 86fb 6137 9e2e 3c38
00000010: e0f2 8937 ca02 6337 3577 7737 5b5a 6837
00000020: b2ee e537 06cb 1238
2.437277e-05 5.578479e-06 1.3469607e-05 4.486611e-05 1.644477e-05 1.3530904e-05 1.4750102e-05 1.3849315e-05
2.7410078e-05 3.4998193e-05

exp_avg f4 [10, 1]
00000000: 95fe f43a c915 62ba ae6a 56b9 1e68 70bb
00000010: 0cea f6ba 29a0 77ba e6e0 6c3b 6899 523b
00000020: 858f 5fbb bce1 8bba
0.0018691594 -0.0008624462 -0.00020448372 -0.0036683152 -0.0018838062 -0.0009446168 0.0036144792 0.0032134894
-0.0034112644 -0.0010672132

exp_avg_sq f4 [10, 1]
00000000: e45e 5839 ecc4 d038 a08d 8838 0818 9939
00000010: 2fa2 d438 109b b438 4692 cf38 134e b838
00000020: 8b3f 2239 f467 113a
0.00020634715 9.9548924e-05 6.511365e-05 0.0002920034 0.00010139157 8.6119515e-05 9.897775e-05 8.788346e-05
0.00015473196 0.0005546801

exp_avg f4 [40, 1]
00000000: 6b33 5337 e821 f6b7 4e42 c5b5 d469 81ba
00000010: c410 8eb8 1d3f 293a bd27 30b9 f91c e3b7
00000020: 30d1 3b39 a684 3839 9be6 93b8 dc9c 97b9
00000030: f184 6ab9 d05b 4639 074e feb8 695b eeb7
00000040: 1eae a5b9 90af a0b7 cc53 69b8 049c d837
00000050: fdf7 86b8 57c6 7238 cb4d ca38 13ee 2639
00000060: 6626 45b9 97a8 aa39 fbc2 0bb9 c79e 8f39
00000070: 8085 81b8 96fa 113a e96c 34b9 7e45 82b8
00000080: b1ad abb9 7e72 033a f51e 0db9 acdb 42b8
00000090: 24d0 2c39 0236 7039 7084 cdb8 db24 6139
1.2588552e-05 -2.9341274e-05 -1.4696941e-06 -0.0009873458 -6.7742105e-05 0.0006456243 -0.00016799472 -2.7074e-05
0.00017911638 0.00017597023 -7.05246e-05 -0.00028917834 -0.00022365504 0.00018916954 -0.000121261975 -2.8414377e-05
-0.0003160098 -1.9155239e-05 -5.562957e-05 2.5821857e-05 -6.435809e-05 5.7882015e-05 9.646601e-05 0.00015919683
-0.00018801689 0.00032550536 -0.00013328709 0.00027393384 -6.176066e-05 0.0005568651 -0.0001720671 -6.211827e-05
-0.00032745072 0.0005014314 -0.0001345834 -4.645779e-05 0.00016480737 0.00022908303 -9.79983e-05 0.00021471402

exp_avg_sq f4 [40, 1]
00000000: 0362 ec35 0a4c 7c37 c422 a235 7d49 c637
00000010: d6df ce34 4762 df36 e6ff 0736 fc6e a636
00000020: 880a a935 e7c5 3a36 2c34 9335 3dc4 1436
00000030: 28f6 ad35 f110 8036 1a91 0d36 7dcf 9636
00000040: f7aa f935 c09e 2836 e80d 3935 5860 c335
00000050: 034b a035 254a c736 15d6 f235 7847 7f36
00000060: a5fa c235 5e31 f835 63ee 2035 ed9f 8f36
00000070: 5821 e335 16ca 9536 fc1e b535 8245 4136
00000080: 9843 2536 7003 2536 90c3 bc35 0b37 bd36
00000090: e35d 0936 4323 a636 9fa8 8f35 00d3 8236
1.7611895e-06 1.5038075e-05 1.2080059e-06 2.363766e-05 3.8533352e-07 6.657359e-06 2.026552e-06 4.960106e-06
1.2594546e-06 2.7831354e-06 1.0967537e-06 2.2167944e-06 1.2961145e-06 3.8166695e-06 2.1095098e-06 4.494503e-06
1.8601703e-06 2.5126355e-06 6.8938107e-07 1.4556672e-06 1.194276e-06 5.9392937e-06 1.8092711e-06 3.8039561e-06
1.4527074e-06 1.8491808e-06 5.9951543e-07 4.28035e-06 1.6922522e-06 4.464072e-06 1.3494569e-06 2.87997e-06
2.462626e-06 2.4588917e-06 1.4064008e-06 5.639047e-06 2.046924e-06 4.9512905e-06 1.0703405e-06 3.8988655e-06

exp_avg f4 [40, 1]
00000000: a49b 9539 5888 2ebb 2ece 1d3a c6b9 6d3a
00000010: 0367 1239 8f2a 0e3a 5c4c 9939 9571 843a
00000020: e8c0 c9b9 4c75 fcb9 dd4f 0d3a e4fb ef39
00000030: e831 6a3a 1844 ddb9 5796 6737 e49a cc3a
00000040: fa15 c73a dbba 0fbb 0bf2 44b8 9f2c b639
00000050: b217 a539 9033 18bb 25ca 91b9 5fad 7e3a
00000060: afcc 0e39 2088 d0b9 401d 02ba 2319 4237
00000070: 1f72 6f39 6f88 e73a eee3 d038 9f6d 38ba
00000080: 11b7 1d39 e301 cc3a b6fb 4039 f505 2d3a
00000090: 42c3 4fb9 636a 55ba 8511 5134 db5b 3dbb
0.00028535456 -0.002663156 0.0006019798 0.0009068515 0.0001396202 0.0005423212 0.00029239326 0.0010104651
-0.00038481434 -0.00048152579 0.00053906237 0.00045773305 0.0008933828 -0.0004220314 1.3803677e-05 0.0015610126
0.0015189045 -0.0021931443 -4.695546e-05 0.0003474699 0.00031488907 -0.0023224093 -0.00027807165 0.00097151654
0.00013618426 -0.00039774273 -0.0004963465 1.1569154e-05 0.0002283533 0.0017664562 9.960668e-05 -0.0007035378
0.00015040884 0.0015564527 0.00018404317 0.0006600314 -0.00019813798 -0.0008141158 1.9471015e-07 -0.0028893861

exp_avg_sq f4 [40, 1]
00000000: 2638 0e37 7fa5 4f38 73d5 b736 5c6d 9c38
00000010: 1f31 fd35 a0dc df37 ca12 5437 f964 d337
00000020: 2f9e 0e37 cbe2 4837 010a 2c36 eee6 b037
00000030: e156 fb35 3163 5e37 7437 da36 3ff4 e337
00000040: c9aa 0737 13d9 8a37 b008 c035 1ba6 3937
00000050: a2f8 9a36 e0ca 8937 5dfb f936 da9b 8a37
00000060: 4a07 ba36 0d9c 6537 6552 0736 ac9f 7837
00000070: 9871 bf36 b80a d937 9270 e336 38eb b137
00000080: 02b9 fa36 e0d3 0a38 abd1 8236 2307 4a38
00000090: c399 4e37 9715 f637 7b7e 2736 02e4 0438
8.476933e-06 4.9506776e-05 5.4786738e-06 7.4590294e-05 1.8864265e-06 2.6686408e-05 1.2640559e-05 2.520018e-05
8.50069e-06 1.1973733e-05 2.563582e-06 2.108837e-05 1.8726242e-06 1.3255326e-05 6.503362e-06 2.7174245e-05
8.086391e-06 1.6551965e-05 1.4307643e-06 1.1065534e-05 4.6185023e-06 1.6426144e-05 7.450041e-06 1.6523456e-05
5.5440805e-06 1.3685797e-05 2.0164528e-06 1.4819128e-05 5.7054676e-06 2.5873407e-05 6.778232e-06 2.1209577e-05
7.4721183e-06 3.3099088e-05 3.8987105e-06 4.81672e-05 1.2314357e-05 2.9335539e-05 2.495856e-06 3.16836e-05

exp_avg f4 [60, 40]
00000000: 762d f537 1736 1eb9 95f6 4b39 c251 2cb8
00000010: 180c c838 467d 5cb8 1cf7 8c38 3e4a 48b9
00000020: d043 e938 0d2f 02b9 6826 ba38 1e74 07b9
00000030: 606e 0839 1033 6038 2cb9 6f39 2f64 c8b8
00000040: febd d538 b128 d4b8 bd10 ff38 d6b9 2fb8
00000050: 9cf4 df38 3597 b238 f4a5 9b39 d58b 22b9
00000060: 3756 0939 ddb0 8838 7a9f 1c39 73a1 06b9
00000070: 5d37 5c38 63b5 20b9 7baf 8a39 46a1 33b9
00000080: 7bb7 d538 52dc 5bb9 62e0 1a38 07b1 1cb9
00000090: d191 fd38 1e55 ab39 2093 4839 2389 1135
000000a0: 469a f537 f414 cfb9 39be 4f39 1d95 b4ba
000000b0: 0e72 ea38 216d 1939 7e75 1f38 54b0 8db9
000000c0: b5ef a938 202e 46b8 af82 f238 5162 70b9
000000d0: b61a 0a39 3b30 f2b8 d706 2739 8c71 0138
000000e0: 16e8 4b39 39dc 0a39 6722 0939 5a22 ceb7
000000f0: 00b8 d0b6 31ba c038 2008 5839 3b76 21b7
00000100: dd53 5f39 7430 2fb9 a39c 1339 3ae9 acb8
00000110: cfbc 8339 78ca 1c39 bee8 4839 a0e7 c137
00000120: 1165 6939 daf8 54b8 bbb6 b038 3de3 7fb9
00000130: be5e 52b8 11d0 1eb8 5029 2939 021e 0339
00000140: 4783 dfb8 9e2e 11ba 5937 ac37 9426 c53a
00000150: 4a45 beb7 99a3 0dba c804 90b8 376c 2fb9
00000160: ab6d 5f38 b257 7eb9 1725 b1b8 e258 0a39
00000170: dd94 41b8 683c a4b9 f53a 97b7 d857 8439
00000180: 36ec 6bb9 2deb 7eb8 d721 46b8 1d55 3838
00000190: d7aa 6eb8 421d 11b9 55b2 13b9 179b dc39
000001a0: 8c66 66b8 b1b4 e3b8 8dab cab8 f4fb b7b8
000001b0: 25b6 45b9 18d2 5039 74db 7337 f224 1f39
000001c0: be02 7ab9 f5d4 1239 f33e f336 b7cd 3439
000001d0: 45ee 2539 583d 6337 b300 95b8 4b92 7e38
000001e0: cb95 b639 c6e5 9039 3917 23b9 75fe a3b9
000001f0: d5ce 0e39 d2f9 4d38 e391 a039 7ca4 57b8
00000200: e90a 5839 49a6 94b9 dfd2 8839 5922 e1b8
00000210: 97b5 4b38 2ae6 19b7 6f3f 48b9 8b92 1238
00000220: 30cf a1b9 f5d1 2f39 f452 7738 13bf 9e38
00000230: 3756 9239 33f2 5bb7 df27 19ba 1bef 96b9
00000240: a0f3 00b8 8149 30b8 36f2 d3b8 2fea e5b9
00000250: ffe8 69b9 25c9 8239 fdb1 eeb9 2aca 5b39
00000260: a6d4 4fb9 4dd3 4a37 edef d239 0c55 d7b9
00000270: c34c 093a 5b3c 0538 2876 36b9 1321 0fb9
00000280: c07b 47b8 5238 37ba 41f7 cd38 fdb6 1e3a
00000290: 0a80 4137 3ef6 4537 efa1 fab7 0488 0b38
000002a0: 56ca da34 3eb5 2b38 f4b7 9937 f412 0539
000002b0: c0a8 3438 7d6b 6d38 c4d2 c038 b915 2939
000002c0: 5838 8e38 5277 8b38 55a6 fd37 bed6 c6b6
000002d0: 7bd0 cdb6 3e5f 9d38 d411 8238 4508 9138
000002e0: 91b4 7838 9c62 e7b8 1139 1e38 316d f4b8
000002f0: 9418 9338 6711 9038 cdfc 8438 7606 eeb8
00000300: e376 3a38 0a17 b1b7 f8dd 6e37 cae6 d7b8
00000310: d78a a637 7068 7f38 3733 a538 13b5 8db8
00000320: fc7d 7eb9 481b 003a 7c3e bf38 a293 733a
00000330: 93bc feb8 60b7 d439 9aac 4bb9 7f9d 03b9
00000340: 49d8 1db9 3fba 8f38 f921 1fb9 b24a a337
00000350: f490 32b8 19e2 7238 1a6a a538 be3a 0839
00000360: 4d2e f638 30db 7339 54b6 89b8 1509 b1b8
00000370: 0127 52b9 2f7c 3439 2bff 5439 ccaa c0b7
00000380: 74cf 9b38 11d1 1eb8 9244 ba37 4523 1439
00000390: 4b68 c138 5c81 3139 c898 a339 44ca 4f37
000003a0: 2e1b f538 3262 50b8 a810 a0b9 6dfb a638
000003b0: 88d0 6db9 f731 fa37 66f5 2239 d2f2 88b9
000003c0: 259b 4139 1cad d039 119c 19b8 ee6b 46ba
000003d0: 931b c338 749d e638 6460 1339 b923 d5b8
000003e0: d5f1 0939 3617 b3b8 8152 fc38 4987 0eb8
000003f0: 2d86 5f38 0990 a7b8 2f74 28b7 cfb4 26b9
2.9227445e-05 -0.00015088204 0.00019451448 -4.108414e-05 9.538996e-05 -5.2568757e-05 6.721748e-05 -0.00019101144
0.00011122937 -0.00012415294 8.876325e-05 -0.0001291786 0.00013011089 5.3453317e-05 0.00022861798 -9.555404e-05
0.0001019202 -0.00010116527 0.00012162465 -4.1896325e-05 0.00010679031 8.515866e-05 0.00029687549 -0.00015501615
0.00013097456 6.517929e-05 0.00014936729 -0.0001283938 5.250365e-05 -0.00015326361 0.00026452154 -0.0001713085
0.000101908074 -0.00020967543 3.6925434e-05 -0.00014943267 0.000120911405 0.0003267908 0.00019128295 5.421627e-07
2.9278115e-05 -0.00039497728 0.00019811922 -0.0013777349 0.00011179234 0.0001463187 3.8017977e-05 -0.0002702499
8.103197e-05 -4.7249836e-05 0.00011563801 -0.0002292481 0.00013170656 -0.00011548443 0.00015928909 3.0861745e-05
0.00019446047 0.00013242745 0.00013078154 -2.457311e-05 -6.2203035e-06 9.189954e-05 0.00020602392 -9.6238755e-06
0.00021298179 -0.00016707351 0.00014077364 -8.245041e-05 0.0002512694 0.00014952745 0.0001916019 2.3115252e-05
0.00022258262 -5.07765e-05 8.42637e-05 -0.00024403348 -5.0156137e-05 -3.7863912e-05 0.00016132486 0.00012504312
-0.00010657921 -0.00055382575 2.0529771e-05 0.0015041404 -2.268203e-05 -0.0005403101 -6.867346e-05 -0.00016729614
5.326948e-05 -0.00024255997 -8.446926e-05 0.00013193817 -4.6153426e-05 -0.00031325524 -1.8028057e-05 0.0002524245
-0.00022499342 -6.0777344e-05 -4.7238394e-05 4.3948286e-05 -5.690273e-05 -0.00013839177 -0.00014085446 0.0004207722
-5.4931777e-05 -0.0001085786 -9.6640644e-05 -8.77305e-05 -0.00018855238 0.00019914692 1.4535024e-05 0.00015177185
-0.0002384288 0.00014002978 7.2492926e-06 0.00017242772 0.00015824389 1.3544537e-05 -7.105004e-05 6.0694565e-05
0.0003482535 0.00027637015 -0.00015553542 -0.00031279368 0.00013619226 4.9108472e-05 0.00030626272 -5.1413183e-05
0.0002060343 -0.00028352652 0.00026097053 -0.00010735234 4.856809e-05 -9.1731e-06 -0.00019097117 3.494559e-05
-0.0003086268 0.00016767516 5.8966645e-05 7.5696174e-05 0.00027911525 -1.3109809e-05 -0.0005842428 -0.00028788377
-3.074447e-05 -4.2030126e-05 -0.00010106379 -0.00043852764 -0.0002230741 0.00024945397 -0.0004552751 0.0002096078
-0.00019820276 1.20893355e-05 0.0004023308 -0.0004107136 0.00052375736 3.176588e-05 -0.00017400889 -0.00013649864
-4.756055e-05 -0.00069892884 9.8212164e-05 0.0006054489 1.1533508e-05 1.1799448e-05 -2.9877729e-05 3.3266857e-05
4.0752883e-07 4.0938372e-05 1.8324681e-05 0.00012690929 4.3072505e-05 5.660531e-05 9.1945316e-05 0.00016125188
6.7815825e-05 6.650262e-05 3.0237405e-05 -5.925859e-06 -6.1337464e-06 7.5040836e-05 6.202204e-05 6.915679e-05
5.9295973e-05 -0.00011033306 3.7723283e-05 -0.00011655165 7.014084e-05 6.8696965e-05 6.341338e-05 -0.00011349928
4.4456578e-05 -2.1110773e-05 1.4237587e-05 -0.00010294987 1.9853394e-05 6.0894003e-05 7.8773526e-05 -6.7571316e-05
-0.0002427026 0.0004886878 9.119228e-05 0.00092917134 -0.000121467885 0.00040572416 -0.00019423888 -0.00012551805
-0.00015053259 6.8534624e-05 -0.00015176077 1.9465897e-05 -4.2573505e-05 5.7907866e-05 7.887576e-05 0.00012991854
0.00011738818 0.0002325594 -6.56663e-05 -8.441709e-05 -0.00020041691 0.000172124 0.00020312953 -2.2967717e-05
7.429617e-05 -3.7864844e-05 2.2204858e-05 0.00014127519 9.222383e-05 0.00016928226 0.00031203614 1.2385255e-05
0.00011687573 -4.9682516e-05 -0.00030529988 7.9623285e-05 -0.00022679765 2.9825589e-05 0.00015540942 -0.00026120857
0.0001846371 0.00039801828 -3.662339e-05 -0.00075691834 9.303461e-05 0.000109965826 0.00014054921 -0.00010163285
0.00013155428 -8.5397085e-05 0.00012031664 -3.3981432e-05 5.3292304e-05 -7.990009e-05 -1.0040631e-05 -0.0001589835
