data/checkpoints/BINCTABL/BTC_seq_size_10_horizon_20_seed_42/pt/val_loss=0.917_epoch=1.pt (torch, 167569 bytes, 42 tensors)

model.BiN.B1 f4 [10, 1]
0.04133582 -0.053495273 -0.03788369 0.020565197 -0.08071187 0.04010984 0.09704226 0.03456463
-0.072823 0.06813541
00000000: c04f 293d dc1d 5bbd ee2b 1bbd 5878 a83c
00000010: 444c a5bd 374a 243d 18be c63d a493 0d3d
00000020: 3a24 95bd 948a 8b3d

model.BiN.l1 f4 [10, 1]
0.29808056 -0.14775369 0.16691485 0.28589055 -0.60134447 0.22989531 0.98325545 0.3306507
-0.42515406 0.36362812
00000000: 049e 983e be4c 17be baeb 2a3e 3f60 923e
00000010: b6f1 19bf ad69 6b3e a1b6 7b3f 0c4b a93e
00000020: cbad d9be 772d ba3e

model.BiN.B2 f4 [40, 1]
0.06085297 0.06254579 -0.09870052 0.0020528731 0.12847033 0.035279863 -0.0032907783 0.065786704
-0.006227079 0.09123846 0.00885079 0.035287783 -0.10374024 0.059082285 -0.19612628 0.090760075
0.21754003 0.10023557 -0.11817313 0.109882094 0.004110612 0.054355755 -0.095684476 0.082687624
-0.099954665 0.083814874 -0.022959098 0.053321037 -0.16760275 0.07197801 0.071873076 0.10658327
-0.089038156 0.034567736 -0.043153584 0.054219794 -0.11577974 0.060239255 -0.06079936 0.09208766
00000000: f740 793d 0218 803d 8023 cabd 7f89 063b
00000010: ba8d 033e 9e81 103d 19aa 57bb 2ebb 863d
00000020: 860c ccbb 3bdb ba3d e702 113c ec89 103d
00000030: c375 d4bd 4400 723d 54d5 48be 6be0 b93d
00000040: d0c2 5e3e 4e48 cd3d c104 f2bd dd09 e13d
00000050: 50b2 863b 24a4 5e3d 39f6 c3bd 2158 a93d
00000060: 08b5 ccbd 22a7 ab3d b814 bcbc 2967 5a3d
00000070: 0ea0 2bbe 3569 933d 3132 933d 5448 da3d
00000080: a359 b6bd e696 0d3d d0c1 30bd 9315 5e3d
00000090: ee1d edbd 70bd 763d c008 79bd 7598 bc3d

model.BiN.l2 f4 [40, 1]
-0.6184371 0.14963567 0.58706087 0.18266566 0.22959171 -0.3288229 -0.37089857 0.085822664
-0.2927264 -0.21898708 0.3666175 0.09676567 0.24691328 0.07639046 0.38230592 0.15424891
0.49156794 0.087172255 -0.056122184 0.07462313 -0.38596562 0.03153921 0.62191415 0.09007202
0.45584098 0.097971305 0.5245751 0.08194906 0.5746353 0.08310904 0.5865411 0.067204006
0.6068688 0.1088037 -0.33061248 0.008688261 -0.30730987 0.08049612 0.43765044 0.039433695
00000000: e551 1ebf 183a 193e 9f49 163f b50c 3b3e
00000010: 171a 6b3e 7a5b a8be 6be6 bdbe cbc3 af3d
00000020: 3ce0 95be 263e 60be 4ab5 bb3e 142d c63d
00000030: d6d6 7c3e 9a72 9c3d 9abd c33e 6df3 1d3e
00000040: cbae fb3e 5e87 b23d 60e0 65bd 03d4 983d
00000050: 499d c5be 422f 013d c435 1f3f ae77 b83d
00000060: fd63 e93e 2ea5 c83d 8e4a 063f e9d4 a73d
00000070: 4d1b 133f 1335 aa3d 8f27 163f 41a2 893d
00000080: c15b 1b3f 79d4 de3d 0a46 a9be 3559 0e3c
00000090: b857 9dbe 26db a43d b813 e03e 3a85 213d

model.BL.W1 f4 [60, 40]
-0.17018665 0.019464035 0.13490868 0.057803884 -0.1864599 -0.11492114 0.256419 -0.115082584
0.20566514 -1.5567553e-05 0.015759993 -0.051357392 -0.15473397 -0.0035044712 -0.16351287 -0.001955504
0.22192188 0.020080574 -0.12582193 -0.0049713226 0.36701313 -0.039669212 -0.24012539 -0.045339588
-0.2520802 -0.06545227 -0.09185669 -0.10957938 -0.048430603 -0.08759669 -0.14907897 -0.061247684
-0.27189532 0.07677577 0.32274956 -0.1161249 0.2381098 0.068351984 -0.29756215 -0.048259556
-0.02495901 -0.4480289 -0.14216684 0.07316741 0.030434646 0.009055392 -0.061983865 -0.04539632
-0.3835564 0.036730427 -0.11494669 -0.09989823 0.21169233 -0.19558172 0.17611133 0.24904369
-0.25675178 0.122044645 -0.08999564 0.029157063 -0.42869532 -0.33364606 0.1320893 0.06489186
0.17288804 -0.06500012 0.16474919 -0.014515511 -0.16380598 -0.053105906 0.026424773 0.1584797
0.18603176 -0.18925293 -0.043345705 -0.09304792 -0.10480733 -0.056252398 0.15014744 -0.003928799
0.06211854 0.1696557 0.16732782 -0.78030664 0.15690008 0.15770833 0.08210282 -0.4344349
0.06857121 0.12739757 -0.09075525 -0.03978986 0.06975317 0.102441706 -0.12876217 -0.09437129
0.08058065 0.22038329 -0.080363706 -0.19380166 -0.09129804 0.23190416 0.092559 -0.48034278
0.016919754 0.23664871 -0.04108997 -0.14692959 0.06302763 0.24276675 0.056864046 -0.16474883
-0.041447107 0.25277722 -0.02786349 -0.15524176 0.17749842 0.116301745 -0.12482517 -0.04352803
-0.20333444 0.03528158 0.22489893 -0.01002181 -0.23678586 0.08701397 -0.10941261 0.04446278
0.23259138 0.052941978 0.06213393 0.009161256 -0.23472142 -0.036743663 0.5109055 -0.06511247
-0.53607213 0.031230722 0.04293012 -0.019705856 0.3809815 -0.03093 0.4546862 -0.0033544526
-0.51014584 -0.00968323 0.29638413 0.03364106 -0.5465446 0.054489985 0.51585025 0.016571343
-0.5769377 -0.005019723 -0.39416888 0.071349755 0.5055648 0.12554932 0.5236506 0.040698215
0.008825766 -0.43810627 -0.26796362 -0.56077766 -0.012210148 -0.018883964 0.059899006 -0.13188201
-0.08166557 0.014603771 -0.36151898 -0.12379623 -0.17787412 0.26870972 -0.3533427 -0.16094494
-0.18957494 0.20361309 -0.16874294 -0.14778306 0.14469549 0.21174684 0.1626564 0.14965196
0.30357394 0.08514462 0.28229696 0.010553977 0.13770899 0.1390989 -0.07191467 -0.04253999
-0.042621974 0.118400685 0.045919824 0.010280823 0.034837466 0.1257978 0.20553528 0.12603344
-0.44831493 -0.014119795 0.43847552 -0.15002443 0.050855674 -0.26278567 -0.08694565 -0.46074826
-0.12788644 -0.19703123 -0.13422108 0.25698844 0.35694054 -0.19262904 -0.027108448 -0.11636862
-0.15530835 -0.55740756 0.13870053 -0.26610428 -0.06715501 -0.36617428 -0.051396035 -0.19933176
-0.033122614 -0.05100982 -0.11807427 0.15159215 -0.29930776 0.16145103 -0.100540735 0.29471862
-0.21275091 0.5417823 0.35053143 0.33225432 0.03476189 0.11200641 0.13837688 0.43526742
-0.0061968192 0.07476372 0.0027798852 0.07142692 -0.34736842 0.091019064 0.024106856 0.034113724
-0.1825351 0.021604516 -0.21874341 -0.2003185 -0.17261504 0.17317648 0.3465152 -0.03877411
00000000: 6945 2ebe 0a73 9f3c 8025 0a3e c4c3 6c3d
00000010: 58ef 3ebe c65b ebbd 5a49 833e 6bb0 ebbd
00000020: e299 523e 1197 82b7 1a1b 813c 215c 52bd
00000030: 9572 1ebe 45ab 65bb eb6f 27be ea27 00bb
00000040: 7d3f 633e 0480 a43c 77d7 00be 7ae6 a2bb
00000050: 25e9 bb3e 2f7c 22bd 6ee3 75be 01b6 39bd
00000060: a810 81be d70b 86bd 5c1f bcbd 276b e0bd
00000070: 2b5f 46bd e565 b3bd 28a8 18be dade 7abd
00000080: dd35 8bbe 9d3c 9d3d 6e3f a53e e4d2 edbd
00000090: 0ed3 733e 20fc 8b3d 115a 98be d0ab 45bd
000000a0: d676 ccbc 0b64 e5be 2f94 11be ccd8 953d
000000b0: 1452 f93c 115d 143c cbe2 7dbd 7ef1 39bd
000000c0: 8161 c4be a572 163d 2c69 ebbd 7197 ccbd
000000d0: e0c5 583e 9346 48be 8756 343e 4f05 7f3e
000000e0: f874 83be 8bf2 f93d a24f b8bd cbda ee3c
000000f0: f47d dbbe a8d3 aabe 6b42 073e 06e6 843d
00000100: 9009 313e c81e 85bd 03b4 283e 77d2 6dbc
00000110: c1bc 27be 9485 59bd c478 d83c 8148 223e
00000120: 1c7f 3e3e 85cb 41be 448b 31bd e88f bebd
00000130: 3aa5 d6bd ea68 66bd 40c0 193e 28bd 80bb
00000140: 0370 7e3d 39ba 2d3e fc57 2b3e 2dc2 47bf
00000150: 6aaa 203e 4b7e 213e 8625 a83d 406e debe
00000160: 106f 8c3d 8274 023e e3dd b9bd b1fa 22bd
00000170: c0da 8e3d f5cc d13d 3bda 03be bc45 c1bd
00000180: 7807 a53d 28ac 613e ba95 a4bd f173 46be
00000190: 77fa babd 4978 6d3e 938f bd3d 7def f5be
000001a0: 4c9b 8a3c 0a54 723e f54d 28bd b674 16be
000001b0: a114 813d d997 783e 46ea 683d ebb3 28be
000001c0: 71c4 29bd 046c 813e f941 e4bc b2f7 1ebe
000001d0: 25c2 353e 9c2f ee3d 57a4 ffbd 734a 32bd
000001e0: e736 50be 6b83 103d e84b 663e 8532 24bc
000001f0: fe77 72be 6134 b23d b813 e0bd 9b1e 363d
00000200: 6f2c 6e3e b0d9 583d 2680 7e3d 1819 163c
00000210: d05a 70be 8680 16bd b4ca 023f b059 85bd
00000220: 063c 09bf 92d7 ff3c 7ed7 2f3d 2d6e a1bc
00000230: 0210 c33e e960 fdbc a1cc e83e 60d6 5bbb
00000240: eb98 02bf 69a6 1ebc a9bf 973e 35cb 093d
00000250: 59ea 0bbf e430 5f3d c30e 043f a0c0 873c
00000260: 30b2 13bf 7d7c a4bb 81d0 c9be d21f 923d
00000270: b26c 013f 0090 003e f70d 063f 2cb3 263d
00000280: f299 103c 774f e0be 8732 89be 208f 0fbf
00000290: 130d 48bc 8bb2 9abc a958 753d 140c 07be
000002a0: 4740 a7bd a844 6f3c 0419 b9be e188 fdbd
000002b0: a224 36be 5294 893e 56e9 b4be c0ce 24be
000002c0: ef1f 42be f37f 503e f3ca 2cbe 7154 17be
000002d0: 0e2b 143e 2ad4 583e 668f 263e 5d3e 193e
000002e0: 0b6e 9b3e 4d60 ae3d 3a89 903e 97ea 2c3c
000002f0: 9603 0d3e f16f 0e3e 0048 93bd 6a3e 2ebd
00000300: 6194 2ebd 0f7c f23d 6d16 3c3d e670 283c
00000310: bbb1 0e3d 23d1 003e d777 523e e90e 013e
00000320: 8989 e5be b656 67bc dd7f e03e 01a0 19be
00000330: 0a4e 503d d88b 86be 9010 b2bd 32e7 ebbe
00000340: aaf4 02be 8ec2 49be 4071 09be fd93 833e
00000350: e9c0 b63e 8c40 45be 8912 debc ac52 eebd
00000360: 2709 1fbe 43b2 0ebf 8307 0e3e d23e 88be
00000370: 9188 89bd 327b bbbe a684 52bd a01d 4cbe
00000380: 94ab 07bd acef 50bd ecd0 f1bd f93a 1b3e
00000390: de3e 99be 6b53 253e 4de8 cdbd 5ce5 963e
000003a0: 60db 59be 3fb2 0a3f db78 b33e 3d1d aa3e
000003b0: 7c62 0e3d 9e63 e53d abb2 0d3e 5fdb de3e
000003c0: b00e cbbb b91d 993d bc2e 363b 4748 923d
000003d0: 46da b1be 3468 ba3d be7b c53c d5ba 0b3d
000003e0: 7bea 3abe f4fb b03c 46fe 5fbe 4b20 4dbe
000003f0: ffc1 30be 2d55 313e 716a b13e 9ad1 1ebd

model.BL.W2 f4 [10, 10]
0.8802178 0.4499541 0.027255826 -0.22519447 -0.08643579 -0.39977685 0.059463352 -0.40365034
-0.025891347 -0.40199494 -0.018012932 0.38266557 0.17104763 0.22691727 -0.62087095 0.4119771
0.052825358 -0.3313061 -0.24539551 -0.19337988 -0.017476793 0.170324 0.18031108 -0.0790608
0.75072944 -0.12678386 -0.009609898 -0.01638277 -0.65036154 -0.2509376 -0.773083 0.22443505
0.28234878 -0.6537183 -0.82779133 0.49387035 -0.42294952 0.74761593 -0.07837042 -0.5423014
0.000878854 0.77131546 0.41331428 -0.32132035 0.68067783 -0.19190772 -0.41313004 0.24243034
-0.17576689 0.5206037 -0.15110493 -0.2586166 1.204176 1.0681444 -0.1678406 -0.6989683
-0.28290495 -0.56665003 0.5269504 -0.36793908 -0.12579006 0.6999274 0.07667079 -0.023450676
0.44122964 0.14939247 -0.27879468 -0.058312833 0.24563332 0.11111127 -0.37354606 -0.10748622
-1.1639447 -0.035414506 0.24111126 -0.13447298 0.8468473 -0.10161526 0.56362593 -0.30552524
-0.07839555 0.6002862 0.09426984 0.114902124 -0.20033 0.40327474 0.7805373 0.08454196
-0.27691984 0.18489738 1.1005303 -0.057203136 0.92583734 -0.15619895 0.20319416 1.4438121
0.75207555 1.2656533 0.9408077 -0.056608506
00000000: f455 613f 6260 e63e 9c47 df3c 6199 66be
00000010: 3f05 b1bd 8daf ccbe d88f 733d 42ab cebe
00000020: 171a d4bc 48d2 cdbe db8f 93bc beec c33e
00000030: 1c27 2f3e 005d 683e 66f1 1ebf aaee d23e
00000040: 675f 583d f4a0 a9be f648 7bbe 6005 46be
00000050: 7e2b 8fbc 6a69 2e3e 78a3 383e a1ea a1bd
00000060: ce2f 403f a1d3 01be d572 1dbc 2935 86bc
00000070: 187e 26bf e57a 80be c4e8 45bf 4dd2 653e
00000080: 0590 903e 155a 27bf 22ea 53bf 93dc fc3e
00000090: d78c d8be c263 3f3f ac80 a0bd 44d4 0abf
000000a0: e562 663a ee74 453f ee9d d33e 1a84 a4be
000000b0: e740 2e3f 7583 44be c885 d3be a93f 783e
000000c0: 3cfc 33be 4946 053f 40bb 1abe 6569 84be
000000d0: 7022 9a3f f5b8 883f 68de 2bbe 96ef 32bf
000000e0: ebd8 90be fa0f 11bf 39e6 063f 8362 bcbe
000000f0: 1ccf 00be 712e 333f 9305 9d3d a21b c0bc
00000100: dae8 e13e 57fa 183e 2dbe 8ebe 70d9 6ebd
00000110: 4d87 7b3e 4e8e e33d 6e41 bfbe bc21 dcbd
00000120: 24fc 94bf cd0e 11bd dfe5 763e 49b3 09be
00000130: fcca 583f a91b d0bd ca49 103f ce6d 9cbe
00000140: d98d a0bd 5bac 193f 8c10 c13d ce51 eb3d
00000150: 4f23 4dbe 077a ce3e 4bd1 473f 5624 ad3d
00000160: 70c8 8dbe bd55 3d3e 2dde 8c3f d64d 6abd
00000170: ad03 6d3f 9ef2 1fbe 2112 503e d6ce b83f
00000180: 0688 403f ed00 a23f c6d8 703f 52de 67bd

model.BL.B f4 [60, 10]
-0.18459973 0.07843183 -0.5130861 -0.04342573 -0.08367032 -0.13636069 -0.10731783 -0.061687138
-0.38478824 -0.37412423 -0.2370793 -0.404265 0.021132875 -0.35667914 -0.08734966 -0.032569136
-0.078081764 -0.16170767 -0.10312899 0.089443974 0.008388927 -0.9368232 -0.045317803 -0.032176208
-0.02857017 -0.13590015 0.046473034 -0.15138881 -0.247278 -0.9339239 -0.060992524 -0.46719167
0.022596775 -0.62123454 0.00622588 -0.0009628154 0.064477764 -0.05202532 -0.12053906 -0.06591025
0.027155321 -0.9746574 -0.014652322 -0.0063013565 0.16956174 -0.1771256 -0.033403605 0.047441904
0.24410099 -0.22682889 -0.11041747 0.08380758 -0.11798803 -0.014281134 -0.0056954436 -0.056105893
-0.10012876 -0.42605504 -0.17181693 -0.1637458 0.08866584 -0.074988015 -0.36405307 -0.25099656
0.20073941 -0.01793008 -0.46335945 -0.28892073 -0.03179026 0.08783866 -0.066935316 -0.03104128
-0.57009417 0.027941473 -0.6091798 0.010989792 0.07764146 0.006827166 -0.111330315 0.06440931
0.013869465 -0.50752246 0.009665286 -0.5975796 -0.00082651695 -0.07004839 -0.04210412 -0.008013203
0.029944312 -0.14070362 -0.100199215 -0.011932797 0.048042122 -0.49393135 -0.08165661 -0.051500324
-0.013076213 -0.5959522 -0.19371411 -0.0039342334 -0.167933 0.075098656 -0.6261571 0.008940695
-0.34874117 -0.21076019 -0.26451573 -0.4204606 -0.059545957 -0.049256608 -0.13746436 -0.6186526
-0.15730734 -0.0609621 0.088612735 -0.120137416 -0.011331876 -0.1576622 0.10870322 -0.112108335
-0.19414714 0.16337493 -0.0008983256 0.0037162884 -0.3081854 -0.58949167 -0.4709891 -0.049855836
-0.5298184 -0.0810832 -0.060673606 -0.010643604 -0.12641943 -0.04753388 -0.016945157 -0.102130115
-0.11379489 -0.06476921 -0.040128227 0.35139316 0.06945649 0.18928844 -0.2423546 -0.08594784
0.15749069 -0.4021111 -0.17040941 0.06420019 -0.68981236 -0.36020097 -0.11475513 -0.09198383
-0.062422283 0.07401668 0.08328053 -0.26366088 -0.47695842 -0.17644747 0.0094584385 -0.23254457
-0.16860946 0.13391949 -0.23123544 -0.4004589 -0.4607901 -0.16726053 -0.15545748 -0.25587472
0.060952976 -0.13920939 -0.40173098 0.023486717 -0.52065796 -0.21149409 -0.22342956 -0.41086861
-0.09625568 -0.43260023 -0.31085575 -0.049289256 0.083910644 0.116583414 -0.09212878 -0.11829789
0.12912533 -0.064194 -0.35065523 -0.00055472646 -0.19746494 -0.18216133 -0.05755028 0.103650644
-0.13242102 -0.01929031 0.021255976 -0.023214376 -0.003942456 -0.07863696 -0.17354026 0.31890106
-0.14958298 -0.23535816 -0.25480312 0.012218885 0.01797339 -0.12643945 -0.12087811 -0.029597031
0.12324967 -0.28146785 -0.3014954 0.07334316 -0.13254331 -0.11936522 -0.021765659 -0.24027765
-0.056394067 -0.12390153 -0.2935893 0.005912009 -0.20810667 -0.5871428 -0.22005528 -0.109486334
-0.02434786 -0.07652728 -0.021014865 -0.067658424 -0.108720355 -0.26193112 -0.0007287783 -0.0335508
-0.5809868 0.016043771 -0.0646927 -0.26701868 -0.2240134 -0.08792079 -0.31769487 -0.18119502
-0.072216555 -1.061069 0.03447537 -0.028809203 0.049986213 -0.013877788 -0.23191752 -0.018984966
-0.019957947 0.27066672 -0.42358235 0.098894164 -0.70397127 -0.017631527 -0.27752188 -0.38078773
00000000: b607 3dbe dea0 a03d 9c59 03bf 2edf 31bd
00000010: 585b abbd 23a2 0bbe 73c9 dbbd a7ab 7cbd
00000020: f702 c5be 368d bfbe ebc4 72be d2fb cebe
00000030: da1e ad3c a69e b6be 61e4 b2bd 3767 05bd
00000040: 55e9 9fbd b296 25be 4b35 d3bd 672e b73d
00000050: b671 093c a5d3 6fbf 299f 39bd 33cb 03bd
00000060: fd0b eabc 6929 0bbe 825a 3e3d ab05 1bbe
00000070: 7236 7dbe a315 6fbf 4cd3 79bd bf33 efbe
00000080: df1c b93c 3a09 1fbf 7702 cc3b 7365 7cba
00000090: eb0c 843d 8018 55bd 2fdd f6bd f4fb 86bd
000000a0: d674 de3c 2683 79bf 4b10 70bc 9c7b cebb
000000b0: 98a1 2d3e 6a60 35be 38d2 08bd 7152 423d
000000c0: 9cf5 793e d545 68be 8e22 e2bd 4fa3 ab3d
000000d0: b5a3 f1bd 6bfb 69bc d8a0 babb 4bcf 65bd
000000e0: 4f10 cdbd e323 dabe c7f0 2fbe fbac 27be
000000f0: 7096 b53d 5193 99bd 2a65 babe 9f82 80be
00000100: a28e 4d3e 1ae2 92bc 733d edbe 6bed 93be
00000110: 8136 02bd c1e4 b33d 6215 89bd 484a febc
00000120: b1f1 11bf 84e5 e43c 35f3 1bbf 870e 343c
00000130: 7c02 9f3d 6bb6 df3b 2601 e4bd 07e9 833d
00000140: c13c 633c feec 01bf 265b 1e3c fafa 18bf
00000150: 9daa 58ba 8875 8fbd 5f75 2cbd cf49 03bc
00000160: c64d f53c 9c14 10be 3f35 cdbd c781 43bc
00000170: d1c7 443d 92e4 fcbe 953b a7bd 01f2 52bd
00000180: 9d3d 56bc 5390 18bf fe5c 46be beea 80bb
00000190: a1f6 2bbe 53cd 993d d54b 20bf fe7b 123c
000001a0: 348e b2be 85d1 57be 9b6e 87be 9d46 d7be
000001b0: 76e6 73bd 4cc1 49bd 75c3 0cbe 0460 1ebf
000001c0: 2d15 21be 65b3 79bd 987a b53d 9b0a f6bd
000001d0: 55a9 39bc 3372 21be cb9f de3d 0e99 e5bd
000001e0: 82ce 46be c24b 273e 9c7d 6bba f98c 733b
000001f0: 7aca 9dbe ede8 16bf 7c25 f1be a235 4cbd
00000200: 2ea2 07bf f30e a6bd e384 78bd 8362 2ebc
00000210: 1874 01be e3b2 42bd 92d0 8abc 9829 d1bd
00000220: 4c0d e9bd b8a5 84bd 7f5d 24bd cee9 b33e
00000230: 343f 8e3d d4d4 413e ce2b 78be 6c05 b0bd
00000240: 3d45 213e 82e1 cdbe ce7f 2ebe 647b 833d
00000250: 8b97 30bf 436c b8be bd04 ebbd 0562 bcbd
00000260: 82ae 7fbd 0f96 973d fc8e aa3d 8ffe 86be
00000270: e533 f4be a5ae 34be 91f7 1a3c 2a20 6ebe
00000280: f5a7 2cbe 3122 093e fcc8 6cbe f308 cdbe
00000290: aeec ebbe 5846 2bbe 3f30 1fbe 0302 83be
000002a0: d4a9 793d e88c 0ebe afaf cdbe 3767 c03c
000002b0: d749 05bf e891 58be b8ca 64be 5f5d d2be
000002c0: b321 c5bd c77d ddbe 7c28 9fbe 88e3 49bd
000002d0: 58d9 ab3d 49c3 ee3d 04ae bcbd 2a46 f2bd
000002e0: 6e39 043e 2578 83bd 1589 b3be 106b 11ba
000002f0: 4034 4abe 8088 3abe d8b9 6bbd ca46 d43d
00000300: 6099 07be b606 9ebc 0321 ae3c 132c bebc
00000310: b82f 81bb 6a0c a1bd 8ab4 31be 0047 a33e
00000320: 482c 19be bb01 71be 8e75 82be b831 483c
00000330: ee3c 933c 5879 01be f18e f7bd 7975 f2bc
00000340: 536a fc3d 8e1c 90be 9b5d 9abe f034 963d
00000350: 6fb9 07be c175 f4bd e54d b2bc 580b 76be
00000360: 77fd 66bd 16c0 fdbd 5651 96be 87b9 c13b
00000370: ea19 55be fe4e 16bf 2c56 61be 5f3a e0bd
00000380: 2a75 c7bc 56ba 9cbd 5e27 acbc 8090 8abd
00000390: c7a8 debd d61b 86be 7c0b 3fba 906c 09bd
000003a0: 8dbb 14bf 3a6e 833c 9b7d 84bd acb6 88be
000003b0: c563 65be d10f b4bd e7a8 a2be 308b 39be
000003c0: 46e6 93bd 1cd1 87bf 0c36 0d3d 4701 ecbc
000003d0: 58be 4c3d a95f 63bc c97b 6dbe 5c86 9bbc
000003e0: d97e a3bc d494 8a3e c9df d8be 0689 ca3d
000003f0: 7637 34bf fe6f 90bc 5917 8ebe 9cf6 c2be

model.BL2.W1 f4 [120, 60]
0.03603571 0.043322355 -0.321282 0.06270359 -0.19671205 -0.16070372 0.0504211 0.039799135
0.12332237 0.16052526 -0.018453535 -0.21153533 -0.07595403 0.0090732025 -0.096659526 -0.0561048
0.030670995 -0.080700785 0.0669954 0.0060932026 -0.062237717 0.039448492 0.114875086 -0.06829374
-0.025382645 0.032779135 0.045016237 0.114974104 -0.017922075 0.031493966 -0.31284383 -0.00012599332
-0.077332914 -0.30597323 0.036709677 -0.006978715 -0.0010516685 -0.031461604 -0.045855157 0.10668468
-0.114309944 -0.25788474 -0.02744092 -0.11189173 0.04826328 0.016452614 -0.07368002 0.010125161
-0.04805223 0.07793847 -0.39265034 0.13040815 0.047702182 0.025996555 -0.13801594 -0.08950263
-0.20061585 0.055485483 0.0030608189 -0.12262552 0.03861388 0.043889318 -0.078738295 0.028877292
-0.19274883 0.0034704257 -0.01652174 0.00058423757 -0.0010504593 0.01781073 0.0058781155 -0.07975546
-0.05886793 -0.15641573 -0.09709753 0.15037619 0.053026076 -0.10104324 0.042295896 -0.30974537
-0.12150718 -0.1654718 -0.21665202 -0.013645525 -0.024171777 -0.080964215 -0.0715539 -0.113125674
-0.18058808 -0.10812293 -0.16346589 0.008168085 -0.12256115 -0.10141342 -0.0846046 -0.14503141
-0.08331649 -0.14850998 -0.049652502 -0.028084936 0.07468341 -0.16246507 -0.023287365 -0.06520827
0.076744765 -0.09131625 0.053589366 0.054702044 0.04844782 -0.07162763 -0.2569842 -0.03846014
-0.122867666 0.13932103 -0.11966702 0.019332102 -0.03956147 0.007660616 0.041731104 -0.09959548
-0.22766362 -0.12029661 -0.008866145 -0.5671465 0.035235077 0.0537114 -0.035527054 -0.0013179027
-0.41606924 -0.28938115 0.059326548 -0.044293247 -0.010213595 -0.09951665 0.06243601 -0.0032835063
0.1206158 0.058976647 -0.004025577 -0.2181954 0.01335047 -0.06484885 -0.29803678 0.100760445
-0.013591472 0.07287849 0.0229379 -0.013387868 -0.1699553 -0.046169404 0.0104168 0.022079313
0.065304324 0.053935498 0.01532909 -0.17707352 -0.0015025173 -0.09529493 0.015119902 -0.026614152
0.122797914 0.007272136 0.020689625 0.030023195 0.11937968 -0.2405068 0.040849473 0.07650936
-0.020128274 -0.14951493 -0.13009286 -0.10050342 -0.16266903 0.036526266 0.043296188 -0.08543145
0.10575341 0.055495176 0.047092192 -0.19390753 0.123456076 -0.0897123 -0.05825917 -0.38130325
0.0387072 -0.06652711 -0.0009229332 0.10703941 -0.4202095 -0.1282507 -0.14569303 -0.027339881
0.0067649144 0.08170939 0.06489646 0.0029640016 -0.18837649 0.030053558 0.050248433 -0.11842386
-0.049095403 0.07042031 -0.13438198 -0.17030534 0.05117107 -0.28418553 -0.15373662 -0.12421596
-0.16533482 0.097363636 -0.10920013 -0.010402008 -0.09818568 -0.003355155 -0.122036524 -0.08314003
-0.17477134 -0.012892361 -0.10819247 -0.2724084 -0.030371197 -0.0074880077 0.1581311 0.03665801
-0.1285354 0.08236633 0.023894394 -0.045838337 0.08224536 -0.083715126 0.1562235 -0.23356065
0.10451178 -0.0011755518 0.025591357 0.047928326 -0.16872475 -0.069054365 0.020324245 -0.16032185
-0.029094692 -0.06350999 0.053696096 0.0109232105 -0.07804634 0.06426661 0.012106271 -0.03230296
-0.14636883 -0.040273093 -0.010993059 -0.06765064 -0.039642513 -0.107495986 0.09098166 0.12962009
00000000: 2e9a 133d c872 313d 137f a4be bd6a 803d
00000010: e26e 49be 848f 24be 5b86 4e3d 6b04 233d
00000020: 7090 fc3d bc60 243e de2b 97bc b89c 58be
00000030: c98d 9bbd c5a7 143c 6ef5 c5bd 26ce 65bd
00000040: bd41 fb3c 7446 a5bd e234 893d 7da9 c73b
00000050: faec 7ebd be94 213d a143 eb3d 97dd 8bbd
00000060: 44ef cfbc 6a43 063d f262 383d 8b77 eb3d
00000070: 51d1 92bc d1ff 003d 112d a0be 131d 04b9
00000080: b860 9ebd 86a8 9cbe e35c 163d b4ad e4bb
00000090: 24d8 89ba e2dd 00bd 9ed2 3bbd 7f7d da3d
000000a0: 551b eabd 7809 84be c8cb e0bc 7e27 e5bd
000000b0: b8af 453d a2c7 863c 8de5 96bd 01e4 253c
000000c0: 6ad2 44bd 349e 9f3d 7709 c9be b789 053e
000000d0: 5d63 433d baf6 d43c 0d54 0dbe 284d b7bd
000000e0: 3e6e 4dbe bf44 633d 0598 483b 1723 fbbd
000000f0: 9629 1e3d 49c5 333d 8b41 a1bd 1290 ec3c
00000100: f35f 45be 1570 633b 9a58 87bc 8527 193a
00000110: 91af 89ba cfe7 913c 359d c03b d556 a3bd
00000120: 801f 71bd 722b 20be 12db c6bd 37fc 193e
00000130: df31 593d c2ef cebd 763e 2d3d f296 9ebe
00000140: c2d8 f8bd 7171 29be 07da 5dbe 7b91 5fbc
00000150: e403 c6bc 91d0 a5bd da8a 92bd 6fae e7bd
00000160: 15ec 38be 8e6f ddbd 9a63 27be 6ed3 053c
00000170: 5701 fbbd d7b1 cfbd 2d45 adbd 1d83 14be
00000180: d6a1 aabd 0013 18be 6c60 4bbd 6112 e6bc
00000190: 9ef3 983d 3e5d 26be 25c5 bebc ea8b 85bd
000001a0: 5c2c 9d3d 0404 bbbd 8680 5b3d 400f 603d
000001b0: 3971 463d 82b1 92bd 6f93 83be 6188 1dbd
000001c0: 0ba2 fbbd 2caa 0e3e fc13 f5bd 5b5e 9e3c
000001d0: 350b 22bd e805 fb3b 3cee 2a3d b7f8 cbbd
000001e0: a720 69be 125e f6bd 4f43 11bc 8330 11bf
000001f0: a852 103d 7c00 5c3d d184 11bd 7abd acba
00000200: 0707 d5be c429 94be 6500 733d d66c 35bd
00000210: ec56 27bc 63cf cbbd e7bc 7f3d 1830 57bb
00000220: 6b05 f73d 7f91 713d fde8 83bb 9d6e 5fbe
00000230: eebb 5a3c 79cf 84bd 4798 98be 7e5b ce3d
00000240: c4ae 5ebc 5141 953d 43e8 bb3c ca58 5bbc
00000250: c308 2ebe 211c 3dbd 3aab 2a3c addf b43c
00000260: 46be 853d 78eb 5c3d dd26 7b3c c352 35be
00000270: 1df0 c4ba fd29 c3bd 77b9 773c ec05 dabc
00000280: 797d fb3d 194b ee3b 4a7d a93c 34f3 f53c
00000290: 557d f43d 6a47 76be c751 273d f0b0 9c3d
000002a0: 0de4 a4bc 711a 19be 1037 05be bdd4 cdbd
000002b0: b692 26be 919c 153d 5857 313d aff6 aebd
000002c0: 3e95 d83d e94e 633d bee3 403d b28f 46be
000002d0: 8ad6 fc3d 15bb b7bd 2ba1 6ebd 2e3a c3be
000002e0: 718b 1e3d 5e3f 88bd 00f1 71ba 7a37 db3d
000002f0: b325 d7be 2754 03be 8e30 15be e3f7 dfbc
00000300: 37ac dd3b 4157 a73d 6fe8 843d b23f 423b
00000310: c4e5 40be e132 f63c 4dd1 4d3d 3588 f2bd
00000320: 4318 49bd 8638 903d 6e9b 09be 8664 2ebe
00000330: c298 513d c480 91be 226d 1dbe f064 febd
00000340: 884d 29be 9666 c73d 51a4 dfbd 2f6d 2abc
00000350: 9315 c9bd 29e2 5bbb 49ee f9bd 5245 aabd
00000360: 42f7 32be 7b3a 53bc 0494 ddbd 1d79 8bbe
00000370: 04cd f8bc f65d f5bb 1eed 213e b626 163d
00000380: c99e 03be aeaf a83d 2dbe c33c fbc0 3bbd
00000390: 4170 a83d d672 abbd 0ef9 1f3e 862a 6fbe
000003a0: 460a d63d f914 9aba f7a4 d13c 7e50 443d
000003b0: 2ec6 2cbe 606c 8dbd 087f a63c 692b 24be
000003c0: fe57 eebc 8711 82bd 70f0 5b3d 44f7 323c
000003d0: c2d6 9fbd 369e 833d 6259 463c 1c50 04bd
000003e0: b6e1 15be 66f5 24bd 3b1c 34bc 6b8c 8abd
000003f0: 3060 22bd db26 dcbd 9854 ba3d 21bb 043e

model.BL2.W2 f4 [10, 5]
0.118809775 -0.05266255 -0.38897806 -0.2502074 1.3393073 0.044749036 -0.78070706 0.24175547
-0.8783843 -0.50653017 1.1388704 -0.0032987292 -0.9161977 0.17679077 0.924793 0.74525505
0.0066943164 -0.7997115 -0.7081843 -0.19367088 1.0992057 -0.37915546 -0.74853724 -0.0142309535
0.07272196 0.50597554 0.6250437 0.7776341 -0.039605252 1.0238507 0.9730599 0.26191157
-0.54402226 0.075586274 0.0099977255 -0.4574806 -0.32358846 0.65494436 0.30980048 1.4137739
0.6894302 0.5100057 0.98591226 0.44253886 0.028571853 -0.41442856 0.7989599 0.42580685
0.53551966 -0.22294173
00000000: 8a52 f33d b0b4 57bd 2228 c7be 2f1b 80be
00000010: 6c6e ab3f c44a 373d 6bdc 47bf bf8e 773e
00000020: cbdd 60bf f6ab 01bf 81c6 913f 7e2f 58bb
00000030: ef8b 6abf a408 353e 3cbf 6c3f 09c9 3e3f
00000040: ff5b db3b e5b9 4cbf 914b 35bf a951 46be
00000050: c6b2 8c3f aa20 c2be 23a0 3fbf f228 69bc
00000060: 40ef 943d 9d87 013f dd02 203f 0713 473f
00000070: 1e39 22bd 8a0d 833f 741a 793f 4619 863e
00000080: 0b45 0bbf facc 9a3d 80cd 233c e63a eabe
00000090: 63ad a5be 6faa 273f 2b9e 9e3e 8bf6 b43f
000000a0: 7f7e 303f bc8f 023f bf64 7c3f 7494 e23e
000000b0: 850f ea3c fb2f d4be a388 4c3f 5b03 da3e
000000c0: d117 093f d64a 64be

model.BL2.B f4 [120, 5]
0.48340234 -0.5486001 0.21578965 -0.79075223 0.25175518 0.78398836 -0.4990835 0.38464117
-0.79469615 0.41185528 0.29268718 0.12821831 -0.20877455 -0.19595376 0.28787336 -0.085405216
0.110228784 -0.20226449 -0.050074592 -0.13611545 0.36186898 -0.024980173 -0.22386809 -0.17354248
0.015865522 -0.052351788 -0.25728875 0.4073262 -0.06269413 -0.28384194 -0.1245622 0.1747894
-0.3835797 -0.07412499 0.028719023 0.054559354 -0.06395349 -0.48773715 -0.009949039 0.14137028
-0.15788682 -0.0008671968 0.4394773 -0.015083841 -0.014708832 -0.030807653 -0.12125493 -0.5299825
-0.09269946 -0.2937893 0.13919318 -0.08566955 -0.23472281 -0.7010983 0.19093625 -0.12567733
0.09227854 -0.31972286 0.04024423 -0.086561516 0.17195688 0.1053331 -0.6335236 -0.29701483
0.121709704 -0.09801654 -0.17743547 -0.5945506 -0.021858383 0.03244491 0.5347532 0.20332587
-0.42537713 0.06541427 0.37686062 -0.27210423 0.21699405 -0.48851326 -0.25418922 0.0055433745
0.55972326 -0.39044148 0.024351476 -0.704895 0.42992404 -0.15041164 -0.03732997 -0.32261464
-0.16675957 -0.61377525 -0.19571754 0.01190318 -0.34664518 0.06590137 0.058638807 -0.05194783
0.16092865 -0.1524726 -0.21026428 -0.14229673 -0.17523423 -0.38167217 -0.48451194 -0.39425966
0.042942517 0.64401776 0.28056625 0.020313114 -0.56979907 0.36945817 -0.3367713 -0.011045944
-0.5473261 0.09933426 0.17534715 0.21666376 -0.62188786 0.09883057 -0.50149536 -0.24074271
-0.28865778 0.16318454 -0.54126143 0.0759924 0.009374264 0.28334978 -0.5931278 0.396368
-0.70194983 0.46156612 0.044435337 -0.091555096 -0.092603564 -0.10093096 -0.15645908 0.436992
-0.42599317 -0.10623795 -0.65852755 0.42680642 -0.05011227 -0.7392508 -0.494441 -0.24402595
-0.2111118 0.1688715 0.17336792 -0.09701268 0.01707498 0.5287826 -0.039054234 0.17729545
0.1686335 0.12744668 0.08816134 0.5132343 -0.17398177 0.20936328 -0.7882988 0.29421398
-0.0644822 -0.08254645 -0.052284267 -0.1562967 0.21845978 0.5790894 -0.25525987 0.24098557
-0.89263415 0.062638946 0.042746253 -0.09829958 -0.68166506 -0.1502527 -0.3735173 -0.07257209
0.034771398 -0.14833719 -0.27277902 0.021987071 -0.118596464 -0.07306439 -0.39407024 -0.010415453
0.10818379 -0.024764046 0.2622168 -0.5127076 0.060972545 0.09172661 0.0013149722 -0.26278535
0.7667539 -0.064503245 -0.52642035 -0.38594672 -0.040177323 -0.45159495 -0.108631015 -0.13589036
-0.8736603 0.21639626 -0.18411125 0.048923083 -0.6482447 -0.5336958 0.31982714 -0.36947596
0.14019196 -0.5816838 -0.28625208 -0.83906066 -0.39518377 -0.34488934 0.1408217 0.16150995
0.28478006 0.110497005 -0.05662993 -0.23433766 -0.22130927 -0.06799254 -0.010806327 -0.036569003
-0.022133516 -0.21030702 -0.48305175 -0.48227707 -0.1638209 0.44061744 -0.20183846 0.077569686
-0.55505675 -0.14884798 0.071096875 0.08942062 0.49054968 0.31835 0.19290972 0.16871011
-0.3316782 -0.051491052 0.25907382 -0.053791534 0.062486198 -0.07174391 -0.18384093 -0.4604707
-0.13485774 0.002518709 -0.34514296 -0.15435244 -0.055741105 -0.5203556 0.0018473885 -0.031923342
00000000: 8380 f73e 0e71 0cbf f6f7 5c3e bd6e 4abf
00000010: 0ee6 803e 76b3 483f df87 ffbe b0ef c43e
00000020: 3571 4bbf b2de d23e 18db 953e a94b 033e
00000030: ffc8 55be 1aa8 48be 2364 933e eee8 aebd
00000040: a1bf e13d 6c1e 4fbe 041b 4dbd d961 0bbe
00000050: e446 b93e 38a3 ccbc ad3d 65be 1fb5 31be
00000060: 69f8 813c d46e 56bd 5abb 83be 0f8d d03e
00000070: c865 80bd bb53 91be 771a ffbd fefb 323e
00000080: 8f64 c4be d8ce 97bd 2844 eb3c a179 5f3d
00000090: 0cfa 82bd afb8 f9be 4b01 23bc 5fc3 103e
000000a0: 15ad 21be 9854 63ba 2b03 e13e 3722 77bc
000000b0: 50fd 70bc 5560 fcbc 8154 f8bd efac 07bf
000000c0: 37d9 bdbd 8d6b 96be a888 0e3e 8473 afbd
000000d0: 2d5b 70be 2e7b 33bf cb84 433e 8fb1 00be
000000e0: 88fc bc3d b7b2 a3be 22d7 243d 2a47 b1bd
000000f0: 7715 303e e1b8 d73d 9a2e 22bf 5412 98be
00000100: f042 f93d e5bc c8bd a5b1 35be 7834 18bf
00000110: 5a10 b3bc f4e4 043d 96e5 083f a834 503e
00000120: 08cb d9be ebf7 853d e0f3 c03e 3f51 8bbe
00000130: b033 5e3e 691e fabe 1725 82be 32a5 b53b
00000140: 064a 0f3f f2e7 c7be bf7c c73c 0074 34bf
00000150: 011f dc3e 8205 1abe 50e7 18bd bf2d a5be
00000160: 05c3 2abe 6020 1dbf 2e6a 48be 8e05 433c
00000170: 7a7b b1be 4cf7 863d 3f2f 703d 3fc7 54bd
00000180: 7bca 243e c721 1cbe 854f 57be 3cb6 11be
00000190: 9a70 33be 896a c3be f311 f8be 67dc c9be
000001a0: 7ee4 2f3d 59de 243f 61a6 8f3e b067 a63c
000001b0: 5ade 11bf 9f29 bd3e 4a6d acbe 0cfa 34bc
000001c0: 901d 0cbf c36f cb3d 348e 333e 1bdd 5d3e
000001d0: 0b34 1fbf af67 ca3d 0062 00bf 4285 76be
000001e0: f4ca 93be d919 273e 1c90 0abf e7a1 9b3d
000001f0: 8396 193c 3913 913e 39d7 17bf bff0 ca3e
00000200: fcb2 33bf 6552 ec3e d401 363d 3d81 bbbd
00000210: f0a6 bdbd e4b4 cebd cf36 20be 6abd df3e
00000220: c71b dabe 4893 d9bd 4395 28bf 5f86 da3e
00000230: 8642 4dbd 8a3f 3dbf 5f27 fdbe f0e1 79be
00000240: b12d 58be a7ec 2c3e 5c87 313e 95ae c6bd
00000250: d4e0 8b3c 4c5e 073f 55f7 1fbd f08c 353e
00000260: 43ae 2c3e 6281 023e ef8d b43d 5363 033f
00000270: 4728 32be 5463 563e f3cd 49bf 37a3 963e
00000280: 3e0f 84bd 1d0e a9bd 0728 56bd 3e0c 20be
00000290: ecb3 5f3e 343f 143f 6cb1 82be ecc4 763e
000002a0: ac83 64bf d948 803d b216 2f3d 4a51 c9bd
000002b0: 9a81 2ebf d8db 19be a93d bfbe ada0 94bd
000002c0: 746c 0e3d b4e5 17be b1a9 8bbe 3b1e b43c
000002d0: b4e2 f2bd c8a2 95bd 93c3 c9be 94a5 2abc
000002e0: 778f dd3d f8dd cabc 4841 863e ce40 03bf
000002f0: 59be 793d 29db bb3d 255b ac3a cd8b 86be
00000300: fc49 443f 471a 84bd 7cc3 06bf cf9a c5be
00000310: fa90 24bd 7437 e7be f079 debd d826 0bbe
00000320: 34a8 5fbf fb96 5d3e a987 3cbe 9263 483d
00000330: 5df3 25bf 4aa0 08bf 62c0 a33e f42b bdbe
00000340: 7b8e 0f3e 3be9 14bf a28f 92be aecc 56bf
00000350: 8755 cabe 5695 b0be 9033 103e dd62 253e
00000360: b1ce 913e 414c e23d c9f4 67bd 36f6 6fbe
00000370: e69e 62be ac3f 8bbd 050d 31bc 61c9 15bd
00000380: 5951 b5bc b95a 57be 8f52 f7be 05ed f6be
00000390: aac0 27be 9c98 e13e beae 4ebe dbdc 9e3d
000003a0: 3318 0ebf 9b6b 18be 3d9b 913d 2822 b73d
000003b0: 5429 fb3e c5fe a23e 208a 453e 58c2 2c3e
000003c0: bad1 a9be 48e8 52bd 53a5 843e 8354 5cbd
000003d0: 87f1 7f3d 79ee 92bd cc40 3cbe d1c2 ebbe
000003e0: 2618 0abe ed10 253b 94b6 b0be 910e 1ebe
000003f0: c950 64bd 0636 05bf 1224 f23a 0dc2 02bd

model.TABL.W1 f4 [3, 120]
-0.18791245 0.012202494 0.23488206 0.19593191 0.2715038 -0.17527246 0.47997966 -0.32163796
-0.21021046 -0.32331634 0.21591777 -0.5638942 0.6754978 0.53329366 0.6276309 -0.20288138
0.6281721 -0.31030744 -0.0033288132 0.02236349 0.090308286 0.42598033 0.14527124 -0.10038061
0.08107361 0.41058457 -0.49069396 0.5801411 -0.37851664 -0.13861923 0.18811734 0.39679146
-0.03296999 0.6306717 -0.34062418 -0.29612598 0.20593184 -0.23226431 -0.4360758 -0.4815205
0.07073054 -0.07115431 -0.24810562 0.21950871 -0.13219462 0.31358808 0.05104702 0.42490435
-0.038798004 -0.10376123 -0.25672343 -0.32862642 0.18314195 0.615428 0.06523792 0.16442235
-0.32758856 0.94818795 -0.3260315 -0.15139553 0.5405612 -0.3968038 -0.185599 -0.56665313
0.27760783 0.38558137 0.03339809 0.21132742 0.46068704 0.09998563 -0.3319682 0.19283092
-0.13898024 -0.012382259 -0.30713648 -0.21259981 0.28312892 0.16324006 0.100510925 -0.5652341
-0.16768336 -0.167079 -0.10062892 0.59582484 -0.04347517 0.033888962 -0.15213576 -0.49689052
-0.15717496 0.22430624 -0.027233632 0.26858145 0.3029023 -0.23760717 0.2877468 0.10969244
-0.02373766 0.39551327 0.15323894 -0.47042105 -0.054156926 0.3964662 0.12948059 -0.34441364
0.281306 -0.16740231 0.5900703 -0.18798438 -0.246125 -0.43487373 -0.116779044 0.2656229
-0.17132005 -0.16739663 0.63626885 0.06527282 0.47226852 -0.11882476 -0.25498065 -0.07183601
-0.31809762 -0.4375428 -0.15954772 0.03744755 -0.23181327 0.2431514 -0.016040621 0.2535355
0.2631469 0.37516975 -0.21677037 0.267306 -0.27410987 0.31980386 -0.35672918 0.22863992
-0.432987 0.0841591 0.15229067 0.03590724 0.09527003 -0.2989099 0.3102968 0.4296736
-0.09723903 -0.2745668 0.025510455 -0.14854212 0.52439165 -0.45413005 -0.45718643 -0.34971765
-0.033717006 -0.644572 0.35287732 -0.16333663 0.30638987 -0.17396724 0.33667207 0.09774518
-0.2588582 -0.30184567 -0.032983873 -0.37761995 0.16622162 -0.0035072677 0.012490582 -0.0028688253
0.42347297 -0.017943984 0.25913224 0.08262386 0.40510675 -0.3770239 0.30088338 -0.1057274
0.20066221 -0.25520748 0.31255332 0.03809451 -0.41360578 0.38072142 0.05013509 0.2687925
-0.21621041 0.24421257 0.30380845 -0.13588321 0.2582592 -0.14667173 0.05948126 -0.1723082
-0.28569132 0.32087338 -0.021389194 -0.061786316 0.27382162 0.34160024 -0.1402231 0.68140197
0.09314428 0.24364223 -0.2891743 -0.5605218 -0.13760898 -0.14888985 0.16568401 0.38460305
-0.22299492 -0.05558343 -0.33137012 -0.3581652 0.14093961 0.58582884 0.0052183243 -0.221894
-0.023239141 -0.18978666 0.24382575 0.33132422 -0.12847424 -0.09428915 -0.33434165 -0.17044015
-0.43185863 0.0203176 -0.4532768 -0.082653865 0.007364104 0.22389378 0.15708703 0.26759884
-0.28472602 0.07367094 -0.35262072 0.19969933 -0.35827792 -0.17480803 -0.019500881 -0.038342316
0.5831169 0.47946537 0.4794969 -0.4761418 -0.015337763 -0.21928382 -0.41540197 0.5293393
-0.114197776 -0.36514 -0.21182089 0.39232752 -0.35443252 -0.39222458 -0.20058767 -0.17227785
00000000: 1f6c 40be f8ec 473c ec84 703e 60a2 483e
00000010: 8c02 8b3e a07a 33be e5bf f53e bbad a4be
00000020: 6941 57be b889 a5be 8c19 5d3e 5f5b 10bf
00000030: 6ced 2c3f ef85 083f 6bac 203f 23c0 4fbe
00000040: e3cf 203f 9ee0 9ebe 3828 5abb a333 b73c
00000050: 8df3 b83d 181a da3e fcc1 143e 5994 cdbd
00000060: ec09 a63d 2438 d23e 3d3c fbbe 2184 143f
00000070: efcc c1be 33f2 0dbe d5a1 403e 4028 cb3e
00000080: 8a0b 07bd b373 213f 4b66 aebe d39d 97be
00000090: ccdf 523e b2d6 6dbe 5445 dfbe db89 f6be
000000a0: 2cdb 903d 5ab9 91bd 660f 7ebe e4c6 603e
000000b0: 075e 07be 9e8e a03e ae16 513d 108d d93e
000000c0: a8ea 1ebd c580 d4bd 4171 83be b941 a8be
000000d0: 9089 3b3e b08c 1d3f 759b 853d 555e 283e
000000e0: b0b9 a7be 72bc 723f 9aed a6be 6e07 1bbe
000000f0: 3862 0a3f de29 cbbe aa0d 3ebe 2e10 11bf
00000100: 9d22 8e3e ec6a c53e 70cc 083d 3766 583e
00000110: 2cdf eb3e 44c5 cc3d bcf7 a9be 7875 453e
00000120: d650 0ebe f5de 4abc fe40 9dbe c4b3 59be
00000130: 46f6 903e 6728 273e acd8 cd3d 2fb3 10bf
00000140: 30b5 2bbe c216 2bbe 8916 cebd fa87 183f
00000150: 0513 32bd 27cf 0a3d 7ac9 1bbe 6f68 febe
00000160: 79f2 20be 89b0 653e 1119 dfbc 8283 893e
00000170: 0316 9b3e 4b4f 73be 8c53 933e 6ea6 e03d
00000180: 7b75 c2bc b780 ca3e abea 1c3e 07db f0be
00000190: a7d3 5dbd 9efd ca3e 8f96 043e fc56 b0be
000001a0: 5707 903e 836b 2bbe d90e 173f fa7e 40be
000001b0: 3108 7cbe c5a7 debe da29 efbd baff 873e
000001c0: 866e 2fbe 066a 2bbe 84e2 223f c2ad 853d
000001d0: 2ecd f13e 655a f3bd d38c 82be c21e 93bd
000001e0: b1dd a2be 9c05 e0be 7a60 23be 9a62 193d
000001f0: 7560 6dbe aefc 783e 9f67 83bc 68cf 813e
00000200: 31bb 863e 4016 c03e 0df9 5dbe 55dc 883e
00000210: 2158 8cbe 55bd a33e 35a5 b6be 9520 6a3e
00000220: 79b0 ddbe 9b5b ac3d 16f2 1b3e 7813 133d
00000230: ef1c c33d b80a 99be 39df 9e3e 2efe db3e
00000240: 4225 c7bd 0594 8cbe 4dfb d03c 6d1b 18be
00000250: 883e 063f bc83 e8be 5714 eabe 310e b3be
00000260: d81a 0abd ac02 25bf 56ac b43e b841 27be
00000270: 22df 9c3e 7824 32be 4860 ac3e a02e c83d
00000280: 1089 84be 848b 9abe 191a 07bd 6757 c1be
00000290: 0036 2a3e 30da 65bb 4ca5 4c3c e702 3cbb
000002a0: 73d1 d83e 43ff 92bc fbac 843e b336 a93d
000002b0: 276a cf3e 4709 c1be 630d 9a3e 9b87 d8bd
000002c0: 657a 4d3e 8eaa 82be fd06 a03e fd08 1c3d
000002d0: 23c4 d3be ebed c23e 745a 4d3d 2c9f 893e
000002e0: 4366 5dbe dc12 7a3e c88c 9b3e f824 0bbe
000002f0: 8d3a 843e 1d31 16be 9fa2 733d 9071 30be
00000300: 2246 92be 8449 a43e 6438 afbc a613 7dbd
00000310: 5932 8c3e 3ae6 ae3e a596 0fbe 5c70 2e3f
00000320: 6ec2 be3d 597d 793e a70e 94be 5b7e 0fbf
00000330: 5ee9 0cbe 9576 18be 12a9 293e b1ea c43e
00000340: c858 64be 73ab 63bd 58a9 a9be 6e61 b7be
00000350: 7952 103e e1f8 153f 7afe aa3b 2e38 63be
00000360: 0360 bebc 6f57 42be 75ad 793e 54a3 a93e
00000370: c08e 03be ab1a c1bd d42e abbe dd87 2ebe
00000380: 931c ddbe 1871 a63c e613 e8be 6e46 a9bd
00000390: 954e f13b 6944 653e 6cdb 203e b702 893e
000003a0: 9cc7 91be cae0 963d b48a b4be fb7d 4c3e
000003b0: 3470 b7be e000 33be 50c0 9fbc d50c 1dbd
000003c0: 2647 153f 7c7c f53e 9e80 f53e dcc8 f3be
000003d0: 3e4b 7bbc f08b 60be 91af d4be c882 073f
000003e0: 86e0 e9bd a1f3 babe 93e7 58be 27df c83e
000003f0: 2e78 b5be a9d1 c8be db66 4dbe 9b69 30be

model.TABL.W f4 [5, 5]
0.2 -0.06620837 -0.28023225 -0.2965071 0.37491757 0.5810724 0.2 -0.39776206
-0.2551885 0.6054067 -0.02134127 0.28040436 0.2 0.15327454 0.099607125 0.85434747
0.13572057 -0.25902843 0.2 0.66689336 -0.039035972 -0.016264431 -0.3345511 -0.26444358
0.2
00000000: cdcc 4c3e 4198 87bd 9a7a 8fbe c7cf 97be
00000010: 32f5 bf3e 29c1 143f cdcc 4c3e 78a7 cbbe
00000020: 11a8 82be effb 1a3f e3d3 aebc 2991 8f3e
00000030: cdcc 4c3e 00f4 1c3e d2fe cb3d 84b6 5a3f
00000040: 55fa 0a3e 609f 84be cdcc 4c3e 86b9 2a3f
00000050: 2fe4 1fbd fc3c 85bc 484a abbe 2665 87be
00000060: cdcc 4c3e

model.TABL.W2 f4 [5, 1]
-1.544801 -1.856835 0.074349366 -1.1518503 -2.2501216
00000000: 0abc c5bf c5ac edbf 7b44 983d d56f 93bf
00000010: fe01 10c0

model.TABL.B f4 [3, 1]
-0.15840594 0.2447424 -0.15994515
00000000: 2b35 22be c09d 7a3e a9c8 23be

exp_avg f4 [10, 1]
-0.0065459413 -0.005150437 0.0062533617 -0.0019117483 0.0015580943 0.00995796 -0.0024007866 -0.008156295
-0.004773684 0.006780312
00000000: 567f d6bb ffc4 a8bb 00e9 cc3b a193 faba
00000010: f838 cc3a b626 233c 8456 1dbb fba1 05bc
00000020: 906c 9cbb 612d de3b

exp_avg_sq f4 [10, 1]
8.060337e-05 3.5638957e-05 3.0515992e-05 0.00010177086 6.0222486e-05 0.00015710786 4.3573822e-05 0.0001097481
7.7356504e-05 0.002418707
00000000: 9b09 a938 0a7b 1538 98fc ff37 d06d d538
00000010: 6797 7c38 52bd 2439 09c3 3638 9028 e638
00000020: 753a a238 2b83 1e3b

exp_avg f4 [10, 1]
0.010312757 -0.00027963787 0.006003857 -0.007298482 -0.00028046008 -0.0032286476 -0.00034535842 0.004763091
0.003540242 0.0021325117
00000000: d7f6 283c 5c9c 92b9 01bc c43b 1b28 efbb
00000010: b70a 93b9 b897 53bb 3911 b5b9 b413 9c3b
00000020: 6803 683b 9cc1 0b3b

exp_avg_sq f4 [10, 1]
0.00014517187 7.1093644e-05 9.4198804e-05 0.0002278151 0.00015440071 0.00024377409 8.101849e-05 0.0003543811
7.666844e-05 0.0014507876
00000000: 4739 1839 1c18 9538 998c c538 a6e1 6e39
00000010: a0e6 2139 9c9d 7f39 78e8 a938 3acc b939
00000020: 0ec9 a038 5b28 be3a

exp_avg f4 [40, 1]
0.0028734212 0.00061168853 -0.0056097996 0.008355812 0.00087403 -0.003255399 3.386463e-05 0.0046351682
0.0035462158 -0.0030299656 0.00043700373 0.0015111753 0.000110901936 0.0028675005 -0.0004633549 0.0059305485
-0.0013303618 -0.0021632002 -0.0025913063 0.0048270165 0.0027533055 -0.0019523612 0.0029614544 0.0030908708
1.9217156e-05 -0.0032527344 0.0023248335 -0.0029663416 0.0009588435 -0.0047561107 -0.0008776443 0.0009057211
0.0011458243 -0.008620727 -0.00352831 -0.0006530131 9.104398e-06 -0.007849665 0.0019510862 -0.0037265988
00000000: 0250 3c3b b959 203a 69d2 b7bb d1e6 083c
00000010: 291f 653a 8858 55bb df09 0e38 9ce2 973b
00000020: a167 683b 6392 46bb a61d e539 a112 c63a
00000030: 0694 e838 adec 3b3b 71ee f2b9 0c55 c23b
00000040: 895f aeba 7ac4 0dbb e8d2 29bb f32b 9e3b
00000050: cd70 343b 5fe6 ffba f614 423b 3590 4a3b
00000060: 8734 a137 d42b 55bb 3c5c 183b f466 42bb
00000070: e65a 7b3a 26d9 9bbb b611 66ba ea6d 6d3a
00000080: 7c2f 963a f33d 0dbc 383b 67bb f82e 2bba
00000090: 17bf 1837 e29b 00bc 97bb ff3a f439 74bb

exp_avg_sq f4 [40, 1]
4.2625496e-05 0.00033173533 3.4958506e-05 0.0003364884 3.920081e-05 3.1236184e-05 3.3488013e-05 0.00010951006
4.54286e-05 1.6334507e-05 3.388724e-05 6.478729e-05 5.4226115e-05 4.9795868e-05 3.6685975e-05 5.1400842e-05
5.9134545e-05 3.555353e-05 1.9527743e-05 5.1809737e-05 2.5646592e-05 5.7142086e-05 3.1347798e-05 4.870381e-05
3.0904783e-05 3.1785534e-05 2.348694e-05 4.9665356e-05 3.7499114e-05 3.691478e-05 3.9567945e-05 5.6044973e-05
3.1984604e-05 7.81748e-05 2.2366856e-05 4.5304598e-05 2.5969737e-05 6.2785526e-05 3.043153e-05 4.2366024e-05
00000000: c7c8 3238 c3ec ad39 69a0 1238 b56a b039
00000010: 8d6b 2438 9903 0338 7b75 0c38 c4a8 e538
00000020: 968a 3e38 1606 8937 2622 0e38 69de 8738
00000030: d970 6338 e8db 5038 44df 1938 3c97 5738
00000040: 3c07 7838 501f 1538 82cf a337 484e 5938
00000050: a323 d737 d9ab 6f38 717b 0338 5147 4c38
00000060: c29f 0138 7551 0538 d205 c537 c54f 5038
00000070: 5e48 1d38 f1d4 1a38 c2f5 2538 d511 6b38
00000080: 3527 0638 c7f1 a338 75a0 bb37 7105 3e38
00000090: 96d9 d937 b9ab 8338 3747 ff37 2cb2 3138

exp_avg f4 [40, 1]
0.0016831263 -0.003544455 0.0018220657 -0.018366007 0.0041413247 -0.00035482002 -0.0017425172 0.0028434827
-0.0048640505 -0.0005472613 0.0026371432 0.0050524557 0.0047951373 -0.002410611 0.00049909856 -0.0032702812
0.0018846202 0.0005808472 -0.0005418226 0.0020342725 -0.0038481457 -0.00029571055 -0.0022870528 -0.006396852
-0.0028750182 -0.002729497 -0.00085993315 0.0059117274 -0.00061684556 -0.0020661615 -0.0007309848 -0.001958691
0.0032731611 0.004527752 0.0013080311 0.0003289591 -0.0030574193 -0.01171521 -0.00035157503 0.001859293
00000000: 599c dc3a 164a 68bb 61d2 ee3a 4f74 96bc
00000010: f3b3 873b 2307 bab9 2d65 e4ba b959 3a3b
00000020: 9d62 9fbb 1676 0fba ecd3 2c3b 128f a53b
00000030: 8720 9d3b 57fb 1dbb f0d5 023a 3752 56bb
00000040: 5c05 f73a ff43 183a 1909 0eba 6e51 053b
00000050: 2c31 7cbb 9909 9bb9 61e2 15bb af9c d1bb
00000060: cd6a 3cbb 5ce1 32bb 236d 61ba 2ab7 c13b
00000070: ceb3 21ba 7068 07bb 8f9f 3fba 625d 00bb
00000080: 8882 563b 895d 943b 3e72 ab3a 2578 ac39
00000090: fc5e 48bb 27f1 3fbc 9a53 b8b9 85b3 f33a

exp_avg_sq f4 [40, 1]
2.1771824e-05 0.00040287845 2.0271948e-05 0.00046205896 2.0731824e-05 3.432182e-05 3.755164e-05 0.00012853183
3.7334165e-05 2.0966412e-05 2.5179026e-05 9.159468e-05 3.483681e-05 6.0484945e-05 5.1809904e-05 5.987144e-05
4.333857e-05 4.097055e-05 8.024393e-06 5.958303e-05 3.182979e-05 6.899586e-05 3.8720482e-05 6.709492e-05
2.8869323e-05 3.8195594e-05 2.7012185e-05 6.557251e-05 3.7709222e-05 4.3433567e-05 3.702857e-05 5.146732e-05
3.1358595e-05 6.577684e-05 2.5834319e-05 2.9857172e-05 2.4318853e-05 4.5517514e-05 3.4487195e-05 3.9706636e-05
00000000: a3a2 b637 6e39 d339 ad0d aa37 8140 f239
00000010: 41e9 ad37 c6f4 0f38 c480 1d38 80c6 0639
00000020: 4197 1c38 07e1 af37 8c37 d337 8516 c038
00000030: bd1d 1238 37b1 7d38 764e 5938 781e 7b38
00000040: 6fc6 3538 cbd7 2b38 81a0 0637 cbe8 7938
00000050: fa80 0538 dfb1 9038 cd67 2238 50b5 8c38
00000060: 662c f237 3534 2038 3a98 e237 f983 8938
00000070: f829 1e38 702c 3638 204f 1b38 9dde 5738
00000080: 0987 0338 acf1 8938 c7b6 d837 ca75 fa37
00000090: 5700 cc37 0fea 3e38 58a6 1038 ad8a 2638

exp_avg f4 [60, 40]
0.0007282666 -0.0009762731 -0.00054783485 0.0007879619 1.235794e-05 -0.0005648011 0.00048589663 -0.00029127425
0.00023491247 -0.000399194 -0.00027623193 2.153957e-05 -0.00014067275 -3.270316e-05 -0.00051075796 -0.00016317907
8.930634e-05 -0.00022583718 5.3782926e-05 -0.00010078406 0.00015910433 1.6425794e-05 -0.0006225634 3.8326747e-05
0.00034219076 -0.0003147327 -0.00045494968 0.00010892321 0.0006206436 0.00012838068 -0.0005615413 0.00014853742
4.594658e-05 -0.00025349067 0.00031661234 -0.00012719266 -5.9409816e-05 -0.00032290642 -0.0004418225 -8.3706196e-05
-0.00073301245 0.00046725414 0.0015102627 -0.000109444816 0.0009956282 -0.00019578452 -0.00029675555 -0.00024362201
-7.536358e-05 -0.000115269584 0.001189953 -0.00013988069 0.0008032078 -0.00017722919 0.0011105591 -0.00017711423
0.0014705039 -0.0005229248 0.00016054123 -0.00011012436 -0.00013310935 -0.0003479764 0.0015701156 -0.00012919649
0.0010940285 -0.0003159025 0.0014296297 -0.00025880398 0.0011154191 -0.00030712117 0.0013262342 -0.00021322782
0.0011733301 -0.00058918184 -6.0069182e-05 -0.00029572434 -0.00013366729 1.3725751e-05 0.00090063293 -0.00024153
-0.0012152834 -0.0015073349 8.348789e-05 0.00057175267 -0.0011280394 0.0009757455 -0.0011054483 -0.00015112017
-0.00044203212 -0.00013467476 -0.00014691179 0.00088370865 -0.0005652998 0.0004959018 0.00062217243 9.753844e-05
-0.0017979974 -9.786442e-05 -0.0002772629 -0.00011644499 -0.00017020894 0.0005293084 0.0003020084 0.0009925249
0.0006453721 -0.0004293674 0.00015655094 0.0006303336 0.0037365626 0.0005640479 -0.0004614516 0.00026971247
-0.00079345744 0.0014951497 -0.0009948969 0.00048317056 2.15314e-05 -0.00012243989 -0.00037227976 0.0004404885
0.001994657 0.00057097786 -0.003908576 -0.00025188128 -0.002066387 7.8728546e-05 0.0010512341 9.884769e-05
3.996143e-05 0.00035477936 -0.0032410112 -0.00012086932 -0.0018541006 0.00048971584 -0.0031177045 0.00012233798
-0.0029562272 0.0009786036 -0.0005635812 0.00091203046 0.00025045374 0.0005188224 -0.004422554 8.877006e-05
-0.0021538592 0.0006919359 -0.0040752213 0.00087119505 -0.0019560962 0.00086517417 -0.004551666 0.0009404544
-0.0027903288 0.0014866372 0.0007421768 0.0010274391 -2.5240466e-05 0.00024776292 -0.003327359 0.0004144111
0.000599707 -0.00043753182 -0.0012143619 0.00029124896 -0.00058617943 0.00047921625 6.175297e-06 0.0004990197
-9.8016586e-05 0.0002478168 -0.00061368675 8.637472e-05 -0.00063336955 0.00034055376 -0.0006546161 0.00024876912
-0.0006185102 6.888976e-05 -0.0003029599 0.00022761039 -0.000112427464 0.0005491872 -0.00080022815 0.00048661733
-0.0009204813 7.637122e-05 -0.0007875045 0.00070162123 -0.00096058793 0.0002702468 -0.0008167007 0.00060090126
-0.0005114584 0.00011582335 -0.0002400304 0.00030821902 -0.00024774543 0.00011755817 -0.00064566097 0.00047563206
-0.0011563248 -0.00075671583 -0.0008522525 0.0014896685 -0.0017124119 0.0008798087 -0.0010495464 0.00071336114
-0.0010345267 0.0002969051 -0.0012230485 0.0009679575 -0.0008017142 0.00064671296 -0.0003483345 0.000945919
-0.0019189746 0.000942907 -0.0005269276 0.0008163831 -0.0009979121 0.00080870773 -0.00076921843 0.0008745644
-0.00011289072 0.0005933293 -0.0010184983 0.0009787253 0.0006444939 0.00075492123 -0.0022088604 0.00023761122
-0.00085672986 0.0006857835 -0.0008399811 0.00090530893 -0.0005817106 0.00058409903 -0.0014443685 0.00050262193
-0.0001539235 -2.7567248e-05 3.180303e-05 8.3459e-06 -6.401874e-05 -8.9168825e-05 -9.577359e-05 2.1042602e-05
-7.993881e-05 -1.4196578e-05 -8.664403e-06 7.717738e-05 -3.9045975e-05 3.2388976e-05 2.0234022e-05 1.9669751e-05
00000000: 25e9 3e3a 94ec 7fba 939c 0fba 3a8f 4e3a
00000010: f354 4f37 290f 14ba f1bf fe39 2bb6 98b9
00000020: d652 7639 e94a d1b9 39d3 90b9 e0af b437
00000030: 8e81 13b9 c02a 09b8 63e4 05ba 0c1b 2bb9
00000040: fa49 bb38 b5ce 6cb9 fa94 6138 085c d3b8
00000050: 3ed5 2639 20ca 8937 8633 23ba 08c1 2038
00000060: 1168 b339 b502 a5b9 5086 eeb9 b46d e438
00000070: b0b2 223a ed9d 0639 6634 13ba b6c0 1b39
00000080: c4b6 4038 f1e6 84b9 fdfe a539 055f 05b9
00000090: ce2e 79b8 c44b a9b9 6aa4 e7b9 6c8b afb8
000000a0: a227 40ba caf9 f439 02f4 c53a bd85 e5b8
000000b0: bd7f 823a 824b 4db9 db95 9bb9 c974 7fb9
000000c0: 840c 9eb8 e3bc f1b8 32f8 9b3a f0ac 12b9
000000d0: 5d8e 523a 99d6 39b9 2e90 913a bdb7 39b9
000000e0: ecbd c03a e414 09ba f556 2839 91f2 e6b8
000000f0: 4593 0bb9 9a70 b6b9 56cc cd3a eb78 07b9
00000100: 8165 8f3a b79f a5b9 6a62 bb3a 15b0 87b9
00000110: 4133 923a 1b05 a1b9 09d5 ad3a e895 5fb9
00000120: 6dca 993a 5373 1aba cbf2 7bb8 730b 9bb9
00000130: 0a29 0cb9 a747 6637 7418 6c3a 3743 7db9
00000140: 254a 9fba c491 c5ba 3816 af38 ace1 153a
00000150: b9da 93ba 2cc9 7f3a b1e4 90ba 0376 1eb9
00000160: 8cc0 e7b9 7b37 0db9 550c 1ab9 afa8 673a
00000170: a130 14ba 68ff 013a 4919 233a 8d8d cc38
00000180: c8aa ebba 8f3c cdb8 995d 91b9 ee33 f4b8
00000190: 1d7a 32b9 49c1 0a3a e256 9e39 9c17 823a
000001a0: 302e 293a b81c e1b9 d327 2439 f93c 253a
000001b0: 1ee1 743b 9ddc 133a fcee f1b9 3268 8d39
000001c0: 0700 50ba e6f8 c33a 3367 82ba 0e52 fd39
000001d0: 549e b437 3563 00b9 8b2e c3b9 5ef1 e639
000001e0: cbb8 023b adad 153a 8313 80bb ef0e 84b9
000001f0: 396c 07bb 111b a538 90c9 893a 734c cf38
00000200: 429c 2738 ae01 ba39 2567 54bb 397b fdb8
00000210: 4b05 f3ba 4660 003a 6752 4cbb da47 0039
00000220: 43bd 41bb 7d44 803a 4bbd 13ba 5415 6f3a
00000230: 554f 8339 9501 083a 12eb 90bb 102a ba38
00000240: c327 0dbb 0863 353a 6f89 85bb e960 643a
00000250: d931 00bb dbcc 623a 2426 95bb d488 763a
00000260: f3dd 36bb 44db c23a a48e 423a 23ab 863a
00000270: 7dbb d3b7 2de6 8139 d20f 5abb 5145 d939
00000280: a835 1d3a 8764 e5b9 392b 9fba c6b2 9839
00000290: d6a9 19ba 513f fb39 6635 cf36 a5d0 023a
000002a0: 418e cdb8 68ed 8139 d2df 20ba 1324 b538
000002b0: b608 26ba 5a8c b239 8b9a 2bba 3a6d 8239
000002c0: 8423 22ba e978 9038 97d6 9eb9 b3aa 6e39
000002d0: 09c7 ebb8 54f7 0f3a 67c6 51ba ac20 ff39
000002e0: 744c 71ba 7d29 a038 8870 4eba 01ed 373a
000002f0: f7cf 7bba e9af 8d39 db17 56ba cd85 1d3a
00000300: 6413 06ba 30e6 f238 abb0 7bb9 7598 a139
00000310: d4e3 81b9 9089 f638 9341 29ba 415e f939
00000320: d28f 97ba 575e 46ba b269 5fba fb40 c33a
00000330: 0273 e0ba f6a2 663a ef90 89ba db00 3b3a
00000340: f598 87ba eea9 9b39 b34e a0ba 87be 7d3a
00000350: 212a 52ba 2c88 293a aaa0 b6b9 8df7 773a
00000360: 1a86 fbba 6b2d 773a 8321 0aba 8b02 563a
00000370: 60cc 82ba 75ff 533a 60a5 49ba 0643 653a
00000380: bebf ecb8 a889 1b3a 227f 85ba 9248 803a
00000390: 41f3 283a e8e5 453a 87c2 10bb 4727 7939
000003a0: 2b96 60ba 27c6 333a 2d32 5cba 4152 6d3a
000003b0: f07d 18ba 391e 193a f750 bdba 63c2 033a
000003c0: 8666 21b9 3740 e7b7 3e64 0538 5e05 0c37
000003d0: cd41 86b8 2600 bbb8 0eda c8b8 a584 b037
000003e0: d2a4 a7b8 d72d 6eb7 545d 11b7 4ada a138
000003f0: 4cc5 23b8 66d9 0738 3bbc a937 7800 a537
